model_fold_3.pth (torch, 200819 bytes, 36 tensors)

convs.0.convs.<subject___has_region___region>.lin_rel.weight f4 [64, 64]
000000 a8 ee c6 3c 4a cb 93 bc 61 24 94 bd 44 a7 39 bd
       0.024283722 -0.018041272 -0.07233501 -0.045325533
000010 98 d7 41 bd f0 85 8c 3c e4 19 71 bd 40 22 c9 3d
       -0.047324747 0.01715371 -0.05886258 0.09820986
000020 4c 40 e2 bc 2e 85 0e 3c 02 8a 38 3d a8 8a 84 bb
       -0.02761855 0.008698745 0.04505349 -0.0040448494
000030 12 06 f7 3c 10 a5 1e bd 88 9f e2 3c 1b e2 54 bd
       0.030154262 -0.038731635 0.027663961 -0.051973443
000040 2e be 50 bd 25 fd 05 3d e5 7c cc bd 14 16 ea 3d
       -0.05096262 0.03271212 -0.09984759 0.11429992
000050 5c 86 e6 3d 72 1e c8 bd c8 61 de bd c7 ec 36 3d
       0.11256096 -0.09771432 -0.10858494 0.044659402
000060 00 3d 2c 3a b4 37 11 bc f1 a3 dc bc 5c 06 9b 3b
       0.0006570369 -0.008863378 -0.026933642 0.0047309827
000070 70 77 e4 3c 8d 12 c0 3c d7 c7 ce bd e9 15 66 bd
       0.027888983 0.023446346 -0.1009671 -0.05617324
000080 cc 93 b3 bd 49 51 f6 bd 85 fd 9e 3d cd b2 8f bd
       -0.087684244 -0.12027223 0.07763199 -0.070165254
000090 28 d0 c4 3c 44 4f 8a 3d ee b7 9a 3d a4 b0 db 3d
       0.024025038 0.067534 0.07554613 0.10727051
0000a0 84 9e 9b bd bd e2 b2 bd 56 cf ca 3c 52 40 9e 3b
       -0.07598594 -0.08734653 0.024757069 0.004829445
0000b0 32 41 1f 3c a7 ee c6 3d 04 5c c2 3d 62 16 c8 3c
       0.009720134 0.09713488 0.09490207 0.024424735
0000c0 1c 67 e3 bd ca 12 8f 3d a6 55 d7 bc cf e9 78 bd
       -0.11103651 0.069860056 -0.026285958 -0.060769852
0000d0 ac 3b 80 3d 5e 38 fb bd a7 ad e2 3c 1a cb ab 3d
       0.062613815 -0.122666106 0.027670695 0.08388348
0000e0 d9 7f c8 3c 15 3a 2a bd fc c2 03 bd 80 35 e9 3d
       0.024475025 -0.041559298 -0.032168373 0.113871574
0000f0 6f 81 17 bd 8a 82 d0 bb cc a2 78 3d 9e d7 f2 bc
       -0.036988672 -0.0063632177 0.06070213 -0.02964383
000100 96 4f 85 3b 5c c1 e2 bd c9 a5 74 bd be d6 07 3d
       0.0040683253 -0.110720366 -0.059728418 0.03316378
000110 04 c9 54 bd 1c 78 d4 bd 10 2b f0 bc 36 a7 cd bd
       -0.051949516 -0.103744715 -0.029317409 -0.100416586
000120 0a a0 c5 3b 2c ed 1f 3d 4d f3 d7 bd d0 3a 76 3c
       0.006031041 0.039044544 -0.10544453 0.01502867
000130 00 e1 b6 bd 98 34 85 3c cf 4e 8b 3c 96 5a f2 3c
       -0.08929634 0.01626043 0.017005352 0.02958421
000140 c2 3a ab bd 9c de c0 bc 94 61 27 3d 58 8f ae bc
       -0.083608165 -0.023543648 0.040864542 -0.021308586
000150 94 8a 3e 3d 66 d9 8f 3d 91 37 63 bc cd 1b 13 3d
       0.046518877 0.07023887 -0.0138682285 0.035915185
000160 c3 5f 01 bc e2 80 9e bd 92 86 cc 3b 52 df d6 3d
       -0.0078963665 -0.07739426 0.006241628 0.10491814
000170 0b 5a 3a bd 19 d2 06 3d c4 6e ab 3c b6 3a c3 bd
       -0.045496028 0.03291521 0.02092684 -0.095326826
000180 a3 34 34 bd 34 03 6e bd d3 f6 c5 bd 7a 62 93 bb
       -0.04399551 -0.058108523 -0.096662186 -0.0044978233
000190 41 d8 d1 3d 65 48 c0 3d 1d 2c 0e bd 37 15 bf bd
       0.10246325 0.09388808 -0.03471004 -0.09330218
0001a0 e4 b2 df 3b e3 5c c0 3d 1f 83 24 3d 27 41 9a 3d
       0.0068267453 0.09392717 0.04016411 0.07531958
0001b0 94 eb a2 bd ed f5 1c 3c 30 29 2d bb de 3d 25 3d
       -0.07955089 0.009580118 -0.0026422255 0.040342204
0001c0 18 ee 22 bc 77 98 9e 3d 2c db 76 3b c3 2b 9e bd
       -0.009944461 0.07743924 0.0037667258 -0.07723191
0001d0 29 c1 91 bd bd b1 07 bd 75 bf 37 3c 70 61 63 3c
       -0.071169205 -0.03312849 0.0112150805 0.013878211
0001e0 14 5f 41 bc 8c 3a 7f 3b 80 7d e7 bd c3 75 64 3d
       -0.011802454 0.0038944809 -0.11303234 0.05577637
0001f0 7d e2 da bd bc 6e e0 3d 2c 7d fd bc a7 03 e5 3d
       -0.106877305 0.10958621 -0.030943476 0.11182337
000200 fb b8 72 bd ef dc 08 bd c0 40 50 3d d3 0f 7c 3d
       -0.059258442 -0.033413824 0.050843 0.06153853
000210 1c c6 41 bd 77 6a 31 3d 96 d1 0f 3d 89 2e 58 bd
       -0.047308072 0.043314423 0.035111986 -0.052778754
000220 b4 d2 7b bb 66 a5 94 3d bf 69 4c bc f1 45 72 3d
       -0.003842515 0.0725811 -0.012476384 0.059148733
000230 f6 a0 e1 bd aa fd 3e bc 90 80 ad 3b e7 f0 6a 3d
       -0.11017029 -0.011657158 0.005294867 0.05735865
000240 78 ec 8e bd 3b c4 6e bd 2e 7d 96 bd 4c 87 9e bc
       -0.069786966 -0.05829261 -0.07348095 -0.019351624
000250 9a d0 8f 3d 87 ed c3 3d 26 fc 85 3d 3c 56 c9 bc
       0.070222095 0.09566789 0.06542234 -0.024577253
000260 bd ee e4 3d c2 6d e4 bd 4a 54 25 bd c7 c6 34 3d
       0.11178348 -0.11153747 -0.040363587 0.04413488
000270 54 28 a2 bd 23 5a 20 3d 2c 44 0d 3b 6d c0 6d 3d
       -0.07917848 0.03914846 0.0021555526 0.05804484
000280 c0 8b 88 bd 5d 02 d9 bd 24 df 17 bd ec d7 80 3d
       -0.0666728 -0.10596154 -0.037078038 0.06291184
000290 0a 09 b1 3d fd 8c 84 3d aa 75 c8 bd 88 f5 01 bd
       0.08644302 0.06472204 -0.09788068 -0.031728297
0002a0 1e 06 14 3d 26 92 c5 bd 15 9a 83 3d ea 05 a2 bc
       0.036138646 -0.09647016 0.06425873 -0.01977821
0002b0 8a 5d 72 3d de a3 7b bd b6 5e e9 bd 9c f8 51 bd
       0.059171237 -0.061435573 -0.11395018 -0.051262483
0002c0 cc 50 cf bd 4e 97 9c 3d 75 7f 90 bd f1 70 1a bd
       -0.10122833 0.076460466 -0.070555605 -0.037705366
0002d0 68 c6 c5 bd a7 33 e9 bd f7 9c 53 bc c0 7b 3b 3a
       -0.096569836 -0.11386805 -0.012915841 0.0007151924
0002e0 a0 81 8e bc 4d 19 92 3d 6f 3f c7 3d bc 87 c2 3c
       -0.017395794 0.07133732 0.09728896 0.023746364
0002f0 42 fa 41 bd 0d c9 16 3d 76 6e 05 bd fe 96 ca 3d
       -0.047357805 0.03681283 -0.032576047 0.09892081
000300 4a f6 09 bd 50 41 b2 3d 2a 5a d5 3d 70 17 44 ba
       -0.033682145 0.087038636 0.10417588 -0.0007480299
000310 f9 17 02 3d 61 16 62 bd 30 3f ad bd 84 14 52 bd
       0.031761143 -0.055197123 -0.08459318 -0.051289096
000320 90 8d 4c 3b 30 6e 9d 3b 86 c1 9e bb b9 73 ba bc
       0.0031212308 0.004804395 -0.004844847 -0.022760259
000330 b3 70 94 3c 2a 3b d2 bd c0 19 e4 ba be 94 42 3d
       0.018120145 -0.10265191 -0.0017402694 0.047505133
000340 81 1b 6d 3d d8 7d fd 3a 65 33 23 3d 44 b7 da bd
       0.057887558 0.0019339873 0.039843936 -0.106794864
000350 67 69 a3 3d de 8d 68 bd 72 b2 95 3d fa db b2 bc
       0.07979088 -0.05677592 0.07309426 -0.021833409
000360 e2 98 fb bc 20 5d d2 3d ec 45 2d bd fc 2b 75 3d
       -0.030712549 0.102716684 -0.04230301 0.0598564
000370 9c d8 67 3b 7a 00 92 3b 4f 3c e2 3d 6e 31 95 3d
       0.0035376912 0.004455623 0.11046659 0.072848186
000380 54 51 c4 3c f5 e4 a9 bd 92 45 b7 3d 17 df 24 3d
       0.023964562 -0.08295623 0.08948816 0.040251818
000390 76 e8 ab 3d 79 0a 5d bd e6 b9 c7 3d a6 15 9c 3d
       0.08393948 -0.053965066 0.09752254 0.076213166
0003a0 b4 cf dd 3d 4c 52 fc 3c 15 96 e8 3d bb ec b4 bc
       0.10830632 0.030800961 0.11356751 -0.022085538
0003b0 64 03 93 3b ae 80 8c 3d ee 5c d3 bc 9a 65 b3 3d
       0.004486488 0.06860481 -0.025801148 0.08759613
0003c0 30 8d 6e bb b6 f9 99 3d 6c 3b d7 3d 2f 91 3a bd
       -0.0036400072 0.07518332 0.10509381 -0.045548614
0003d0 f6 ce e9 bc e8 d1 d9 3a 96 0b 06 3d f3 a5 c2 bd
       -0.02854107 0.0016618343 0.032725893 -0.095043086
0003e0 4b a6 c7 bd a2 d5 27 3d 4f 20 9c bc bf f1 d5 3c
       -0.09748515 0.04097522 -0.019058375 0.02611625
0003f0 dc 78 07 bd 17 e2 12 3d 08 77 97 3c 13 da 57 bd
       -0.033074245 0.035860147 0.018489376 -0.052698206

convs.0.convs.<subject___has_region___region>.lin_rel.bias f4 [64]
000000 74 15 01 3d 37 8e e6 bd 1c 4f 28 bc 01 8f b3 bd
       0.0315146 -0.11257594 -0.010272767 -0.0876751
000010 a0 a8 9b 3a 98 24 fc bc 99 e7 a3 bd fb c5 71 bd
       0.0011875816 -0.030779168 -0.08003158 -0.0590267
000020 4e 13 83 bd 2a 14 e8 3d a0 f3 65 bc 12 49 8e 3b
       -0.064001665 0.11331971 -0.0140351355 0.0043422068
000030 14 ab a9 3b 42 51 14 3d 78 2e fe 3c 44 30 81 3b
       0.005177865 0.036210306 0.031028017 0.0039425213
000040 b8 0e 4f 3b 01 7e dc 3c b6 3d c2 3d 68 58 37 3c
       0.0031594466 0.026915552 0.09484427 0.011190511
000050 ba e0 a9 bd a0 a9 a4 bd c5 61 3f 3d b7 4d b4 3d
       -0.08294816 -0.08040166 0.0467241 0.088038854
000060 38 0f 56 3d 9c ed 1d 3d 60 eb de 39 ab 07 93 3b
       0.052260607 0.03855668 0.00042518508 0.004486998
000070 57 4a cb bd f2 d0 d5 3d bb fa 8f bd 3f 41 dc 3d
       -0.099262886 0.10440244 -0.07030245 0.10754632
000080 2a b1 99 bb 69 61 09 3d fd 3f 01 bc aa 33 dc 3d
       -0.004690309 0.033540163 -0.007888791 0.10752042
000090 ea 6f 63 bd da 1c 6c bd db ac 95 3d 98 08 39 bc
       -0.05552665 -0.057644702 0.0730836 -0.011293553
0000a0 63 2b ed 3c 52 56 6f 3b fd a9 e6 bd e6 b7 8f 3d
       0.028951352 0.0036519957 -0.112628914 0.07017498
0000b0 4e 08 ce 3b d4 4e a3 bd ac 1a d7 bd 24 fb e3 bd
       0.006287611 -0.0797402 -0.10503134 -0.11131886
0000c0 77 14 9d bc 08 fd 77 bd 7c a8 6a bc 41 a1 53 bd
       -0.019174797 -0.060544044 -0.014322396 -0.051667456
0000d0 f6 64 b5 bd 42 51 a5 bd ff 75 88 3d ec 72 3d 3d
       -0.088571474 -0.08072139 0.06663131 0.046252176
0000e0 a8 b7 a0 ba f0 fa 99 3d 21 be 3d 3c eb 62 af bd
       -0.0012261765 0.07518566 0.011580975 -0.08563789
0000f0 d0 7c 81 bd 9e 0a 5b 3d f3 86 3e 3d aa 0e d3 b9
       -0.06322634 0.053476922 0.046515416 -0.00040255982

convs.0.convs.<subject___has_region___region>.lin_root.weight f4 [64, 64]
000000 8a 8c 64 bd ab 64 29 3d 9a 8a fb bd 4f 25 02 bd
       -0.05579809 0.04135577 -0.122822955 -0.03177386
000010 78 2d 5e 3d 2d e0 a8 bd 67 e7 7f bc 6b d5 2b bc
       0.05424258 -0.08245883 -0.015619135 -0.0104878945
000020 bd fa d6 3d 62 6f a9 3d b8 c7 ec 3c 27 49 78 3d
       0.10497043 0.08273198 0.028903827 0.06061664
000030 36 ed 63 bd a6 75 38 bd 0c 4e 3e bd 47 6c 95 bd
       -0.055646144 -0.045034073 -0.04646115 -0.07296043
000040 28 6c bd bd 7e 43 21 bd 40 ca a0 bd 70 a6 07 3d
       -0.09249145 -0.039371006 -0.07851076 0.03311771
000050 fa ed 25 3d 12 37 e0 3d a8 fc b7 3d 44 15 7a 3d
       0.040510155 0.10948004 0.08983737 0.061055437
000060 37 7d 9f 3d 2b 4b ca bd d5 e8 67 3d 94 c7 3c bd
       0.07787555 -0.098776184 0.05661853 -0.04608877
000070 21 be c6 3d 16 64 13 bd 1c aa c2 bb de 71 d1 3c
       0.09704233 -0.03598412 -0.005940689 0.025566991
000080 3d b3 12 3d 7c 39 b9 bd f4 85 a8 3c 83 25 55 3c
       0.035815466 -0.090441674 0.020571686 0.013009432
000090 2e cd 01 3e 92 31 6f 3c 0d 89 ca 3d 28 90 a5 3d
       0.12675926 0.014599221 0.098894216 0.08084136
0000a0 1f ad 38 3d 08 88 ac 3c 6a 0a f0 bc 68 b0 b1 3a
       0.045086976 0.021060959 -0.02930184 0.0013556601
0000b0 61 5b bc 3c 88 90 49 3c f7 5e 92 3d d7 11 a4 bd
       0.022992792 0.012302525 0.07147019 -0.08011215
0000c0 ae 77 1e 3d 2b 4a 98 3c e0 16 02 3a d5 4d 72 3d
       0.038688354 0.018590054 0.0004962515 0.059156258
0000d0 90 e8 25 ba 88 c3 d0 3d db 0f 2c bd 20 83 07 bd
       -0.0006328905 0.101935446 -0.04200731 -0.033084035
0000e0 0e ba 28 3c 6a cf d7 bd e6 df 9b bd 09 7e ca bd
       0.010298265 -0.10537608 -0.076110646 -0.098873205
0000f0 ba 97 d7 3b 9a 8f c3 3b 4d 2c c0 3d e5 23 86 3d
       0.0065793665 0.0059680464 0.0938345 0.06549815
000100 14 6b eb 3c 83 e5 d6 bd 2c 0c 8f bd 3a bd 68 bd
       0.028737582 -0.10492995 -0.069847435 -0.056821086
000110 d5 fc e2 bd ec 79 af 3c a1 ed 61 bc ce cc 5d 3d
       -0.1108338 0.021420442 -0.013789565 0.054150395
000120 34 93 31 3d f2 91 a6 3d d4 f8 8a 3c 28 15 e9 ba
       0.043353274 0.081333056 0.016964354 -0.0017782794
000130 cb ed fc bd bf 47 68 bd ee 29 30 3d b6 c0 23 3d
       -0.12350043 -0.056709047 0.043008737 0.039978705
000140 94 8e 95 bd 9d 94 d2 3d 85 e4 38 3d 28 cd 78 3d
       -0.07302585 0.10282252 0.04513981 0.060742527
000150 04 22 d2 bd db ae 9e bd 68 54 d3 bd 3e 84 5a bd
       -0.10260394 -0.07748195 -0.103188336 -0.053348772
000160 48 98 b0 bc 3a 25 89 bd 80 96 d5 b9 a7 64 1e 3d
       -0.021556988 -0.066965535 -0.00040738657 0.03867021
000170 a8 43 41 3d 80 12 fb bc b7 07 d7 3d 68 16 b0 3c
       0.047183663 -0.03064847 0.10499518 0.02149506
000180 04 72 08 bd 30 ca 28 3c 34 77 24 bb 96 fe f1 bc
       -0.03331186 0.0103021115 -0.0025095465 -0.029540341
000190 fc b7 1e 3d 12 6d af 3d 0c b1 a1 3d 49 fa fa 3d
       0.03874968 0.085657254 0.07895097 0.12254769
0001a0 44 38 b8 bd 78 d7 a1 3d 3e 20 97 bd f2 d4 b5 bd
       -0.08995107 0.079024255 -0.073791966 -0.08878507
0001b0 e9 5f 91 3d 4c a3 3d 3d ca ff 6d 3d 30 16 28 bd
       0.070983715 0.04629831 0.058105268 -0.041036785
0001c0 08 8d c1 3b 09 bf 95 3d f4 d4 8e 3b ba bf 0b 3d
       0.005906705 0.07311828 0.004358882 0.03411839
0001d0 8e 6b 6e 3c 04 16 ca bc ff 47 c8 3d 30 56 4f bd
       0.01455201 -0.024668701 0.09779357 -0.050619304
0001e0 cc 9f d8 3c 80 ee b8 3d c4 6e 42 3d d0 58 a4 3d
       0.026443385 0.09029865 0.047468916 0.08024752
0001f0 de af e2 bd e7 06 99 bd c3 9f ef bc 40 22 8d 3a
       -0.110687 -0.0747202 -0.029250985 0.0010767654
000200 d4 e5 a6 bc 99 16 73 3d 40 66 94 3c 59 54 99 3d
       -0.020373262 0.059347723 0.018115163 0.07486791
000210 90 d3 9d bd 42 59 b4 3c 5e db 4d bd 6c 66 73 3d
       -0.07706368 0.022015218 -0.050258033 0.05942385
000220 64 9b de 3d 3e aa d9 3d 27 40 87 bd 02 62 c5 3d
       0.10869482 0.10628174 -0.06604033 0.09637834
000230 34 5c 7f bb dd 1c 01 3d 27 f5 77 bc 06 ab 10 3d
       -0.003896487 0.031521667 -0.0151341325 0.03531935
000240 82 b2 64 bd ec 58 a2 bd b4 e9 f4 bc 33 e8 97 bd
       -0.0558343 -0.07927117 -0.029896595 -0.07417335
000250 50 3c 6d bd 0b d1 21 3d 76 7a 9f bc a2 61 b7 bd
       -0.057918847 0.039506 -0.019467574 -0.08954169
000260 62 5a a9 bd 80 ac d2 bd ae d9 fa 3c 26 25 05 bd
       -0.08269192 -0.10286808 0.030621376 -0.03250613
000270 b7 c4 ae 3d 0b 0a 94 3d 70 26 c2 ba 83 c6 5c bd
       0.08533614 0.07228478 -0.0014812481 -0.053900253
000280 db 08 76 3c f4 02 de 3b c8 6a 9c bb ed 23 88 bd
       0.01501676 0.0067752544 -0.0047734715 -0.06647477
000290 9d b6 9c bd 37 71 b4 3d 32 53 b5 bd 08 7e 31 3d
       -0.07652018 0.088106565 -0.08853759 0.043333083
0002a0 34 15 0b bd f0 bc 38 3c 1f 1e 93 3d a8 ca c9 bd
       -0.033955768 0.011275515 0.071834795 -0.09853107
0002b0 52 b5 34 bd 97 7d d1 bd 12 cf 3e 3c cc 5c 92 3c
       -0.044118233 -0.102290325 0.011646049 0.017866515
0002c0 05 6c 95 3d f8 6d 49 bd e9 88 20 bc 28 b4 9b bd
       0.07295994 -0.04917714 -0.009798267 -0.076027215
0002d0 f6 9d de bd 78 2c b9 bc ba 5f 55 bd bf 1e af bd
       -0.108699724 -0.022604212 -0.052093245 -0.08550786
0002e0 d6 e8 f0 bc 5c 26 1a 3b 9b b7 21 3d ab 7e b5 3d
       -0.0294079 0.00235214 0.03948174 0.088620506
0002f0 a4 d2 0c bd c2 26 58 3d 04 ca 52 3d f2 80 ed 3c
       -0.03438057 0.052771337 0.05146219 0.02899215
000300 80 62 ea bb 65 22 bd bc ff ed 46 bd ef 22 d3 bd
       -0.0071528554 -0.02308769 -0.048566815 -0.103093974
000310 9a 2a b0 3c 8c 3e b1 bd 96 03 5e bd 4e fb 5d bd
       0.021504689 -0.08654508 -0.05420264 -0.05419474
000320 89 e2 c9 bd b2 03 94 3d cc 17 d6 bd f6 bc bc 3d
       -0.09857661 0.07227267 -0.10453758 0.09215729
000330 b8 c4 8f 3d 95 d6 67 3d ff 87 d0 bd 06 94 a5 3c
       0.07019943 0.056601126 -0.10182189 0.020212185
000340 95 45 78 bc 7e a5 16 3c 34 78 86 bd 9d b2 14 3d
       -0.015153308 0.00919473 -0.06565896 0.03630315
000350 ac 3b e1 3d 3f e7 cf 3d 86 91 ed 3c 41 7f b9 bd
       0.1099771 0.101515286 0.029000055 -0.09057475
000360 5d bc 78 3c 5f b6 b4 bd 94 e2 ab 3c f9 e7 28 3c
       0.015181628 -0.08823847 0.020982064 0.010309213
000370 be e4 90 bd 24 5a 4b bc 98 5a 9d bd e4 97 e8 3d
       -0.07074879 -0.012411628 -0.07683295 0.11357096
000380 36 69 c0 bb b4 77 c8 bd a9 88 19 bd 44 36 b1 bd
       -0.005871917 -0.097884566 -0.037483845 -0.086529285
000390 c0 86 75 3b 6e 87 5c 3d 49 7e ff 3c 11 5a 24 bc
       0.003746435 0.053840093 0.031188147 -0.010031239
0003a0 d3 f7 68 3c 4e 6b 52 3d 08 f2 4e 3d 06 36 b5 3d
       0.014219242 0.051371865 0.050523788 0.08848195
0003b0 1b 2d 50 bc 08 55 da bd 45 01 b4 bd 1f 31 9e 3d
       -0.0127060665 -0.1066075 -0.08789305 0.07724213
0003c0 68 d6 0d 3d 4a 75 c9 3d 5e 62 af bd de c7 02 3d
       0.0346283 0.09836824 -0.08563684 0.03192889
0003d0 01 63 d2 bd 36 2d bb 3d 90 fe ae 3b a0 90 8b bc
       -0.1027279 0.09139483 0.005340405 -0.017036736
0003e0 33 d2 ae 3d 7e e3 41 bc b6 af 73 bd fe 01 19 bd
       0.08536186 -0.0118340235 -0.059493743 -0.037355416
0003f0 92 ac 4a 3d 4e 86 cf 3d 48 04 c2 3d 5e b2 8e 3d
       0.049480982 0.101330385 0.09473473 0.069676146

convs.0.convs.<region___rev_has_region___subject>.lin_rel.weight f4 [64, 64]
000000 f2 e2 26 3d 78 88 4a 3d c0 3c 0e 3c 00 0a 84 3d
       0.040743776 0.049446553 0.008681476 0.0644722
000010 c4 50 d2 bd b1 07 83 3d a4 88 5d 3c 56 84 57 3d
       -0.10269311 0.063979514 0.013521347 0.05261644
000020 c2 a1 88 3d 08 d3 b3 bc 8f f0 7d 3d 45 27 49 bd
       0.06671478 -0.021951213 0.061996993 -0.049109716
000030 d9 26 e3 bd fc 0c 3c bb 0b 3c af bd 5a 51 be bd
       -0.11091394 -0.0028694263 -0.08556374 -0.0929286
000040 21 2c 00 bd eb 01 94 3d 68 c6 8c 3b 0c 35 64 3b
       -0.031292085 0.07226928 0.004296113 0.0034821657
000050 dc f3 74 bd 23 8d a1 3d 8c 78 e0 3c 71 c6 68 bd
       -0.059802875 0.07888248 0.027401231 -0.056829873
000060 be 28 ad 3d 98 1c d9 ba 52 3b 57 bd c3 0f 30 3d
       0.084550366 -0.0016564308 -0.052546807 0.04298378
000070 f8 09 82 bc 9a b8 4e bc 40 81 fb 3c d4 1d e0 3d
       -0.015873894 -0.012617255 0.03070128 0.10943189
000080 87 b9 c4 3c 30 16 e3 3c 52 c0 6c 3d a0 c0 e7 bb
       0.024014248 0.02772054 0.0578006 -0.0070725232
000090 0a 6f 2d 3c d4 85 61 3d 3a be 10 bd cc 2d 36 3c
       0.010585556 0.05505927 -0.035337664 0.011119317
0000a0 ad a5 01 bc 30 83 46 3d d5 6a 08 3d 2c 3f f7 bb
       -0.007913035 0.048464954 0.033305008 -0.0075453725
0000b0 65 cb d8 3d 80 aa 58 bb 9b a5 2c 3d f6 92 ba 3b
       0.105856694 -0.003306061 0.04215012 0.0056937886
0000c0 11 8c 69 bd 80 46 d0 bc 1b ea cb bd e4 f9 07 3d
       -0.057018343 -0.025424242 -0.099567614 0.0331973
0000d0 bd d2 d1 3d b6 a8 a2 bd aa bf ae bd b7 3f ac bd
       0.10245273 -0.07942335 -0.08532651 -0.0841059
0000e0 03 b6 cc 3d ff 84 a6 bd 82 f5 89 bc 1c f7 a9 3a
       0.099956535 -0.08130836 -0.0168407 0.0012967321
0000f0 cb 80 2f 3d d4 ec 55 bc 34 77 16 bd 45 fe d2 3d
       0.042847436 -0.0130569525 -0.036734775 0.10302404
000100 70 9d dc ba cf cd 3a bc 25 5b d9 bd 4e e6 8c bb
       -0.0016831588 -0.011401608 -0.106130876 -0.0042999154
000110 d2 44 6b bd 57 af dd 3c 02 21 e8 bd d2 b4 b5 bd
       -0.05743868 0.027061148 -0.11334421 -0.08872379
000120 fb ab 50 bd a8 8e f9 bc 0a af a3 bb d0 06 26 bc
       -0.050945263 -0.030463532 -0.0049952315 -0.01013346
000130 19 98 50 3d dc cd c2 3d d0 4c 9e bd 7d ea 98 3c
       0.0509263 0.09511921 -0.077294946 0.0186665
000140 18 09 2f 3b 19 24 0f bd d4 1a 33 3b 0e 74 52 bc
       0.00267083 -0.034946535 0.0027329223 -0.012845052
000150 93 1c b6 bd 94 bc a3 3c 98 64 0a bd e4 d0 41 bb
       -0.08892169 0.019987382 -0.03378734 -0.0029573971
000160 b1 03 dc bd cd c3 44 bd 8e 22 db 3c 14 d0 22 3d
       -0.107428916 -0.048038293 0.026749875 0.03974922
000170 3e 3f 82 bb c7 c8 95 bd 2a 30 20 3c 17 84 8e bc
       -0.003974824 -0.07313686 0.009777108 -0.01739697
000180 27 9e 49 bd 7d 1a 06 bc cd 08 c0 bd dc 6f 98 ba
       -0.04922309 -0.008185026 -0.093766786 -0.0011630016
000190 a0 80 48 bb da 30 ff 3c 26 88 b0 bd 22 81 e9 3d
       -0.0030594245 0.031151224 -0.08619718 0.11401583
0001a0 ad a8 cb 3d 46 fe c6 bc 5c 1b 8e bc a7 9a 69 bc
       0.09944282 -0.024291169 -0.01734703 -0.014258063
0001b0 90 ff db ba c0 1f 10 3a b5 95 d9 bd 6c 92 9c bd
       -0.0016784538 0.0005497895 -0.106242575 -0.07645115
0001c0 83 98 d5 3d 14 b3 51 3d 78 a3 52 3d 63 88 9d bc
       0.1042948 0.051196173 0.051425427 -0.019230073
0001d0 94 db 2c bd 2b da d0 3d ca 0a d7 3d 02 f9 d1 3c
       -0.042201594 0.10197862 0.10500105 0.025631431
0001e0 70 21 3d bd bd 69 b4 bd 3f df d1 3d 28 24 da 3c
       -0.046174467 -0.088092305 0.10247659 0.026628569
0001f0 6a 06 54 3d 29 41 2f 3d af dc 55 3c df 02 bc 3d
       0.05176393 0.04278675 0.013053103 0.09180235
000200 32 c8 cf bd 82 71 fc 3c e9 05 2f bd 9c 5e 59 bd
       -0.10145606 0.030815843 -0.042730246 -0.053068742
000210 4e 43 97 3d 76 03 ac bd 7b 73 a5 bd 01 df c8 3d
       0.07385884 -0.083990976 -0.08078667 0.098081596
000220 16 75 c2 3c cb fa c6 3d 6a ca 96 bd 4d 71 e8 3d
       0.023737472 0.09715804 -0.07362826 0.113497354
000230 05 4d 70 bd fa 3f bf bd 63 b6 b4 bd 50 f3 ba 3c
       -0.0586672 -0.093383744 -0.0882385 0.022821099
000240 17 46 d9 bc 92 41 23 bd 25 6e 06 bc 63 ff c2 bd
       -0.02652268 -0.039857455 -0.008204971 -0.095213674
000250 8a 0d 2c 3d 84 58 7d bd f3 b7 dc bc 6d 07 a4 bc
       0.0420051 -0.061851993 -0.026943183 -0.020023072
000260 78 e4 32 3d 72 16 af 3d dc fd 61 3b 19 08 e7 bc
       0.043674916 0.08549203 0.0034483587 -0.028202103
000270 f2 f5 cb 3c a8 58 35 bd 61 2b c6 3d 8c 0a 49 bd
       0.02489755 -0.044274002 0.096762426 -0.049082324
000280 d3 b6 a4 bd 00 96 9c b7 39 a1 88 3c 7f f3 18 bd
       -0.080426835 -1.8666498e-05 0.01667844 -0.03734159
000290 10 35 78 bd 60 c4 8d 3b 1b bc 8d 3d 6f 5d cb 3c
       -0.06059748 0.0043263882 0.06920644 0.024824826
0002a0 06 04 ae 3d f4 87 85 3d 62 31 ad bd ac 11 c6 3d
       0.08496861 0.065200716 -0.08456685 0.096713394
0002b0 a8 88 64 3d 92 ba 1c 3d 84 bf 13 3d 43 b5 b6 3d
       0.055794388 0.038263865 0.036071315 0.08921292
0002c0 34 41 e4 3d f8 64 a1 3d ea 06 9e 3d 1c 3f 02 bd
       0.11145249 0.078805864 0.077161625 -0.031798467
0002d0 4a 74 4e bd 58 60 99 bd ee 2b 97 bd 5b fd ad 3d
       -0.05040387 -0.07489079 -0.07381426 0.08495589
0002e0 24 1a a5 3d 32 82 7c 3d db 06 dd 3d 6b 7e af 3d
       0.080616266 0.0616476 0.10792323 0.08569034
0002f0 04 da db bc 18 dd e7 bd 9a 53 a4 bd ad d2 cb bd
       -0.026837356 -0.11321467 -0.08023758 -0.099522926
000300 09 a1 29 bd ab 3c 9d bd 17 17 05 bd 30 d6 ff bb
       -0.04141334 -0.07677587 -0.032492723 -0.0078075156
000310 76 6a bc bd 74 f2 c7 3d c6 35 16 bc 35 ce 54 bc
       -0.09199993 0.09763041 -0.009168094 -0.012988617
000320 1f f1 16 3d d4 a9 b6 3c 99 c1 a0 bd 1d 3d 86 3c
       0.036851045 0.022297777 -0.07849426 0.016386563
000330 be 7e 95 bd e6 09 72 3d 2a cd c8 bc 32 49 91 bb
       -0.07299565 0.05909147 -0.024511892 -0.0044337744
000340 60 93 ae 3d ac fa 08 3d 2c a1 65 3b 28 61 67 bd
       0.08524203 0.033442184 0.0035038693 -0.05648914
000350 dc e0 bb 3d f0 7c 3d 3a 99 aa 9d bd b2 1e e9 3d
       0.09173748 0.0007228395 -0.076985545 0.11382808
000360 31 92 1b 3c 85 fe b3 3d b8 25 24 bc 40 81 5f b9
       0.009495304 0.0878878 -0.0100187585 -0.00021315087
000370 be dd db bd a5 90 b5 3c f0 09 be 3d a7 ac a2 3c
       -0.10735653 0.022163698 0.09279239 0.019857718
000380 45 47 c7 3d 7e 96 83 3c 66 c6 e4 3d a0 28 cc bd
       0.097303905 0.016062971 0.11170654 -0.09968686
000390 bc 4b a9 3c f2 46 b4 bd be 02 b5 bd 83 8f 0e bd
       0.020665996 -0.08802594 -0.08838414 -0.034804832
0003a0 c8 a5 8d bd c5 28 a2 bd 06 bb c8 3b 0c 02 25 bd
       -0.06916386 -0.079179324 0.0061258106 -0.040285155
0003b0 16 ab d4 bd 49 77 a1 3d a9 84 47 bc f0 3e c8 ba
       -0.103841946 0.0788408 -0.012177625 -0.0015277546
0003c0 f0 22 3b 3b 48 c4 b1 bc fc a6 8e 3b 87 fa d8 bd
       0.002855476 -0.02170004 0.004353402 -0.10594659
0003d0 ac 1a 6d bb fb 7e 5a 3c 74 91 83 3d e0 f0 10 3b
       -0.0036179228 0.013335939 0.06424227 0.002211623
0003e0 74 74 de 3b d5 6e 55 bd b0 1f 63 3d 25 0f a6 bd
       0.0067887846 -0.05210765 0.05545014 -0.08108357
0003f0 d8 43 cd bd 3d 7c 5f 3d 68 30 6f 3b 0e a9 dc 3d
       -0.10022706 0.054561842 0.0036497358 0.10774432

convs.0.convs.<region___rev_has_region___subject>.lin_rel.bias f4 [64]
000000 bf 47 10 3c 7e cd df 3c 2e 17 38 bd f3 25 a2 bc
       0.008806168 0.027319666 -0.04494398 -0.019793486
000010 22 84 de 3d a4 7d 84 3d b2 bc b4 bb 19 7b b1 3d
       0.10865046 0.064692765 -0.0055156583 0.08666057
000020 e8 40 c6 3c 40 ae d4 bd f3 1d 95 bd 9c 9a eb 3d
       0.024200872 -0.10384798 -0.07281103 0.11504099
000030 e6 a1 8d bd 8c 4a 0e bb 98 62 0b bd 7f dd 6c 3d
       -0.06915645 -0.0021711914 -0.034029573 0.057828423
000040 75 21 69 bd 94 26 8d 3d e7 41 cc 3d 7e d3 1f 3d
       -0.056916673 0.06892124 0.099735074 0.039020054
000050 b6 99 57 bd 39 48 d4 3d 2c 2d b1 3d 2e 11 d8 3c
       -0.052636825 0.10365338 0.08651194 0.02637538
000060 c8 0d 87 bd c3 d3 81 3d 1d a1 b1 bd 56 fa 77 3d
       -0.065944254 0.063392185 -0.08673308 0.060541473
000070 3c 67 98 bd ea 7e be 3d a5 b9 03 3c e0 5b 8b ba
       -0.074415654 0.09301551 0.008039867 -0.0010632239
000080 52 07 9c bd ad ae 1e bd c7 c8 b3 3d 39 b0 31 3c
       -0.07618584 -0.038740803 0.087785296 0.010845237
000090 34 61 55 bb 94 0a 0b 3d ed cd 2f 3d 9a 86 15 bd
       -0.0032559158 0.033945635 0.042920996 -0.03650532
0000a0 42 62 95 3b f4 80 22 3d 1c 10 59 bd c0 f7 21 ba
       0.0045588324 0.03967376 -0.05299388 -0.000617858
0000b0 28 ae d5 bc 20 50 0f bd e0 40 7d bd ea 43 3c 3d
       -0.02608402 -0.034988523 -0.061829448 0.045963205
0000c0 12 00 89 3d a9 62 a0 bd 12 7c 96 3d d5 89 a4 bd
       0.066894665 -0.07831318 0.07347883 -0.08034102
0000d0 24 56 11 3d 90 1d 04 bd 9f 32 d7 3d 48 d7 e0 3a
       0.03548254 -0.032254755 0.10507702 0.0017154003
0000e0 93 c7 af 3c 6e 08 9b bd 40 38 86 bb d2 04 c3 3d
       0.02145747 -0.07569967 -0.004096061 0.09522404
0000f0 3e cf da 3d fb ef 9f 3d 09 21 11 bc 49 c2 69 3d
       0.106840596 0.078094445 -0.008857974 0.05707005

convs.0.convs.<region___rev_has_region___subject>.lin_root.weight f4 [64, 64]
000000 d7 90 51 bc 19 9e 1c 3c ea f8 bf 3d 76 76 1e 3d
       -0.01279088 0.009559178 0.093736485 0.038687192
000010 56 31 c9 3d 5d be 8e 3d ae db 08 3d dd c0 42 bd
       0.09823863 0.06969903 0.033412628 -0.04754721
000020 99 f3 a8 bd 0c ed d8 3d ba 38 40 bd 48 49 a7 3d
       -0.082495876 0.10592088 -0.0469291 0.08168274
000030 f4 b3 62 3d 82 5d 86 3d 07 d2 8d bd 1b f9 cc bd
       0.055347398 0.06560804 -0.06924825 -0.100084506
000040 da b7 83 bd 14 99 24 bd fb 70 9c bd d9 31 ca 3d
       -0.06431551 -0.04018505 -0.07638737 0.09872789
000050 1c 8d 29 bd fd d3 a8 3d 92 35 70 3d 2f da d1 bd
       -0.041394338 0.082435586 0.05864484 -0.10246693
000060 74 9c bc 3d 3f 2e 0c 3d d8 c2 1e 3d 04 0a d8 3d
       0.092095286 0.03422379 0.038760036 0.10548785
000070 44 52 41 bd 62 7d 0b 3d 71 c4 bc bd 53 88 73 bd
       -0.047197595 0.03405512 -0.09217156 -0.05945618
000080 e4 cf d4 3b 59 8a 11 bd 20 47 a9 3d 6a be fd bc
       0.006494509 -0.03553233 0.08265519 -0.030974586
000090 17 2b 09 3e a6 e0 4d bd e2 5b a1 bd 42 4d 8e 3d
       0.13395344 -0.05026307 -0.078788534 0.069483295
0000a0 7d 05 e3 bd cd 4a a1 bd ec 41 8d bd 12 12 5e 3d
       -0.11085031 -0.07875595 -0.06897339 0.054216452
0000b0 05 6b ad bd 59 7a bf bd 3f ac 59 3d 8c a7 c4 3d
       -0.08467678 -0.09349508 0.053142782 0.096022695
0000c0 d8 58 e5 3d 65 95 0c 3d a0 23 bf bd 9a c7 ea bb
       0.11198586 0.03432216 -0.09332967 -0.0071649076
0000d0 88 7d 54 3b 5a 2e 2d bd c7 ed 09 bd 91 b8 4b bd
       0.0032423455 -0.042280532 -0.033674028 -0.049736563
0000e0 00 a2 61 3d 46 29 d4 3d f6 10 dc 3d 2c 73 fb 3c
       0.055086136 0.10359435 0.107454225 0.030694567
0000f0 4a 31 ee 3d ab 19 88 bd b7 f6 89 bd 7c 31 1d bd
       0.11630495 -0.06645521 -0.0673651 -0.03837727
000100 d4 f8 59 3d b6 83 6d 3d 2a df 51 bd 4b 1a 97 3d
       0.053215817 0.057986937 -0.051238216 0.07378062
000110 fe f8 03 be 24 93 cc bd e1 eb cc bd 05 56 bb bd
       -0.12887952 -0.09989002 -0.10005928 -0.09147266
000120 92 b6 05 bc 9b c4 63 3d cd c4 66 3d d1 4c ce bd
       -0.008161204 0.05560742 0.056340028 -0.10073245
000130 b7 08 ad 3d 48 10 de bc 53 da 40 3c bb a8 c4 bd
       0.08448928 -0.027107373 0.011770803 -0.09602495
000140 75 75 ed bd 46 cf f3 bc c4 d7 d4 3d c9 b9 38 bd
       -0.11594669 -0.029761922 0.103927165 -0.045099054
000150 b4 5e 8f bd ec 83 fc bc 99 15 3b bc 9e 21 e1 bd
       -0.07000485 -0.030824624 -0.0114187235 -0.1099274
000160 99 bc 99 bd 2f 80 ba bd 49 0d c1 3d 15 c5 aa bd
       -0.07506675 -0.0910648 0.09426362 -0.08338372
000170 37 36 20 3c 51 a1 0f 3c 51 45 58 3d a4 8f 8a 3d
       0.009778551 0.008766488 0.05280048 0.067656785
000180 06 11 97 bd 5f da b6 bd 61 b0 9f bd b2 2e d1 3c
       -0.07376294 -0.0892837 -0.077973135 0.025534961
000190 44 53 66 3d 88 b9 3d 3d 71 54 54 3d dc f6 91 bb
       0.056231752 0.046319515 0.051838342 -0.0044544768
0001a0 e0 c6 cd bc 98 a0 a2 bc 68 2c 4e bd dc e9 e6 bd
       -0.025119245 -0.019851968 -0.050335318 -0.11275074
0001b0 59 c7 7b 3c 52 7a 19 bc 71 f4 00 3e 94 da ac bd
       0.015367352 -0.009367542 0.12593247 -0.08440128
0001c0 8d fc 06 be 13 96 bb bd 40 e8 41 3d ce 1b 09 3d
       -0.13182278 -0.09159484 0.04734063 0.033473782
0001d0 ac 18 0a bd a8 c6 a1 3d ef 07 d9 bd 2a 7b bf bd
       -0.033714935 0.07899219 -0.10597216 -0.093496636
0001e0 87 63 b8 3c 7e 54 92 3d d6 18 03 3d ef 87 b6 3d
       0.022508396 0.07145022 0.032006107 0.08912646
0001f0 bc 62 2a 3d 52 c4 d1 3d d0 89 db 3b e3 36 1f bc
       0.041598067 0.10242523 0.006699778 -0.009717676
000200 2e 1b 06 3e fd 23 d5 3d 9d de ea bd 52 62 f7 3b
       0.13096306 0.10407255 -0.11468241 0.0075495625
000210 cc f4 ac 3d cb 57 1c 3d 6b 18 45 3d 31 96 bd bd
       0.08445129 0.038169663 0.04811899 -0.09257162
000220 94 ba c7 3d 54 c6 74 3d 4c 1f 63 bc 30 b9 48 3a
       0.09752384 0.059759453 -0.013862442 0.00076569896
000230 ae 2c 98 3c 19 90 81 bd 6e c8 cf 3d bb 31 d0 bc
       0.018575992 -0.063263126 0.10145651 -0.025414338
000240 94 b9 91 3d 64 55 a0 3d 02 e7 e8 bd 41 86 cf bd
       0.07115474 0.07828787 -0.11372186 -0.10133029
000250 b9 b5 ea bd 71 18 01 be 5f 90 bb bd 4f fd d1 3d
       -0.11460442 -0.1260698 -0.09158396 0.10253393
000260 46 00 9d 3c c8 ec 80 3a 85 55 e4 3d ec 3c bc bd
       0.01916517 0.0009836191 0.11149124 -0.091913074
000270 a9 ae 1f 3d 67 96 ea bd 25 28 af 3d 23 2e 05 3e
       0.03898493 -0.11454468 0.08552579 0.13005881
000280 5e 71 cf bd a6 5b 7d bd 0f fe bf bd a4 8b b6 bd
       -0.10129045 -0.06185498 -0.0937463 -0.08913353
000290 f5 0d 02 3e 48 2f 08 3d 6c 19 88 bd de 75 58 bd
       0.12700637 0.033248216 -0.06645474 -0.052846782
0002a0 03 d6 26 3d a9 83 b4 bd c1 1b 89 3d 84 a2 e7 bd
       0.04073144 -0.08814175 0.06694747 -0.11310294
0002b0 c4 e2 9d 3d 2c 4f e8 3c 47 e1 ba 3d dd a4 42 3d
       0.07709268 0.028358065 0.091249995 0.047520507
0002c0 c0 c8 4c bd c8 ec c0 bd 80 61 d2 3d ab a1 f8 3d
       -0.049996138 -0.094201624 0.10272503 0.12140211
0002d0 32 ce 8d 3b d5 34 09 3d 25 06 a1 3d f2 45 be bc
       0.004327559 0.03349765 0.078625 -0.023226712
0002e0 6a 3b 89 3d 66 0f ed 3d 6d 87 b2 3d 6c f3 6a 3d
       0.067007855 0.11575203 0.08717237 0.05736105
0002f0 63 b9 b0 bd 94 e3 12 bd 60 92 1b ba 49 bc b4 bd
       -0.0862911 -0.035861567 -0.00059345923 -0.08824975
000300 16 0d 08 be 9a 95 86 3d 3d 24 09 be 60 65 00 3a
       -0.13286242 0.06571503 -0.1339273 0.00048979186
000310 06 ea 45 bc b4 af c3 3d b3 3b 03 be 30 24 5f 3d
       -0.012079721 0.09554997 -0.12815742 0.05447787
000320 84 dd cf bd c0 91 c6 3d cd f8 96 3c 6a 15 b9 bb
       -0.101496726 0.09695768 0.018429184 -0.0056483047
000330 94 b9 a2 3c a7 d3 c3 3d 2c 98 a4 bc 00 e6 ed 3d
       0.019863881 0.09561854 -0.020092092 0.11616135
000340 88 23 2f 3d 42 01 e2 bd 33 8c 91 3d 53 39 5d 3d
       0.042758495 -0.11035396 0.07106819 0.054009747
000350 36 55 49 3d 8e 54 4f bc 28 ca 87 bd 5b bb da 3d
       0.04915353 -0.012654437 -0.06630355 0.106802665
000360 dc f9 ac 3b c4 c6 91 bd 85 38 99 3c 34 20 79 3d
       0.005278809 -0.0711799 0.018703708 0.060821727
000370 42 4e de 3c 00 49 95 bd 10 b8 b4 3d 10 f7 3a 3d
       0.027136926 -0.07289314 0.0882417 0.045645773
000380 10 58 04 3e 62 88 a8 3b 0a d8 07 be d0 0d a0 bd
       0.12924218 0.005143211 -0.13266006 -0.078151345
000390 da 87 7b bd 2c a2 d3 3c 74 a3 c1 bc de 8b fe 3c
       -0.061408855 0.025834166 -0.02363751 0.031072553
0003a0 0f 6a 25 bd 7c 2c ff bd 40 4d c0 bd 2b b6 87 3d
       -0.04038435 -0.124596566 -0.09389734 0.06626543
0003b0 68 35 d0 3d 64 87 01 be f2 a4 9a 3c d8 db 81 3d
       0.101664364 -0.12649304 0.01887748 0.0634076
0003c0 a3 de e2 3d 1c 12 79 bd 37 a7 a6 bd 38 58 c8 bd
       0.11077621 -0.060808286 -0.081373625 -0.097824514
0003d0 6a 95 c1 3c 38 bd 8f bd f2 bf bf bd 46 24 42 3d
       0.023630816 -0.070185125 -0.093627825 0.047397874
0003e0 c4 47 37 3b 2a fe c5 bc ae fe b8 bd 9a c4 d0 bd
       0.002796636 -0.024169046 -0.09032951 -0.10193749
0003f0 f4 1c 75 bc d2 12 22 bd 7e 54 bf 3d ba 8d e6 bc
       -0.014960516 -0.03956873 0.093422875 -0.028143752

convs.0.convs.<region___is_functionally_connected___region>.att_src f4 [1, 1, 64]
000000 5a da 84 3c c6 3c 8c be c9 aa 6e 3e c2 87 21 be
       0.0162174 -0.27390116 0.23307337 -0.15774444
000010 0b 8b 18 3e 25 96 c8 3d 14 49 14 bd bd 35 33 3e
       0.1489679 0.09794263 -0.036202505 0.17500968
000020 83 f7 2e be 4e a5 8b be 40 80 15 3c 7f df a6 3d
       -0.17086606 -0.27274555 0.009124815 0.08148097
000030 d5 67 8e 3e d3 f4 28 3d 93 39 92 3e 86 8b 71 be
       0.27813593 0.041249108 0.2855955 -0.2358838
000040 97 b7 95 be ed 4e 81 be 21 ee 73 3d 59 48 7d 3c
       -0.2924163 -0.25255528 0.05955327 0.015459144
000050 54 00 84 3e dc a1 fd 3d ef 18 3b 3e a2 18 1e 3e
       0.257815 0.12384388 0.1827123 0.15439084
000060 e5 fc 88 be ae 18 8d be fc 79 7c 3c 9c 0d 7e 3d
       -0.26755443 -0.27557892 0.015409943 0.062024698
000070 12 24 02 be 8c 17 e7 bd bb 58 db bd 31 58 93 bc
       -0.12709072 -0.11283788 -0.10710283 -0.017986389
000080 12 5c 8e bd 24 a6 b5 3d b6 57 4c be 73 3f 8c bd
       -0.06951155 0.088695794 -0.19955334 -0.068480395
000090 f7 d2 37 bc 35 ba 2a be fa 03 86 3e ad 62 99 3d
       -0.0112197315 -0.16672595 0.2617491 0.07489524
0000a0 80 9e 92 3c 1e ba 60 3e 11 bc 8b be 75 c8 2e 3c
       0.017897844 0.21945998 -0.2729192 0.01066791
0000b0 03 dd a6 bd ae 28 76 3d 5b 71 69 3e b6 18 2f be
       -0.081476234 0.06009739 0.22797148 -0.1709927
0000c0 a4 72 71 3d 56 d1 ec bd 3f b4 34 be 12 20 27 3e
       0.05894722 -0.11563365 -0.17646883 0.16320828
0000d0 76 c1 7e 3d 1c c2 92 3d 06 37 47 be ff 06 32 bc
       0.062196217 0.0716593 -0.19454584 -0.010865926
0000e0 96 c8 63 be 94 c3 e9 3c 41 4f b6 3d 97 39 c8 bd
       -0.22244486 0.028535642 0.08901835 -0.097766094
0000f0 56 84 82 bd 95 8a 40 3e 23 5c 59 3e 79 82 8e 3e
       -0.06372897 0.18802865 0.21226554 0.27833918

convs.0.convs.<region___is_functionally_connected___region>.att_dst f4 [1, 1, 64]
000000 0a 9e 80 bc e9 03 85 3e bc 59 84 3e f1 9e 80 be
       -0.015700359 0.25979546 0.25849712 -0.25121263
000010 13 39 8d be 8e 5c 82 3e 8c be ec bc 88 8b 35 3b
       -0.27582607 0.2546124 -0.028899454 0.0027701575
000020 8d 77 28 be 8a bc 93 be e2 06 52 bc 35 fc 23 bd
       -0.16451855 -0.2885478 -0.012819024 -0.040035445
000030 c5 c3 c2 bc 3a 0e ae 3d 7a 98 86 bc 3e b8 13 be
       -0.02377499 0.08498807 -0.016430128 -0.14425752
000040 86 5a 90 be 00 31 67 3d cd 85 fb bc 7a 7e d5 3d
       -0.28194064 0.056443214 -0.03070345 0.10424514
000050 fa ee 80 bd 0c 13 87 be 32 7a 5f 3e 1e 65 95 3e
       -0.06295581 -0.2638172 0.21823958 0.2917871
000060 c2 44 86 3e b3 12 84 3d a0 bb 1a 3e f0 15 25 3a
       0.26224333 0.06448879 0.15110636 0.00062975194
000070 f6 88 90 3d d0 88 8e 3e e2 25 bf 3c 36 c3 15 3e
       0.07057373 0.27838755 0.023333494 0.14625248
000080 13 33 63 3d ae 00 bb bd c4 af 52 bd f6 c9 76 3e
       0.05546863 -0.09130989 -0.051437154 0.2410048
000090 48 ea eb 3c a0 85 70 be 62 f8 b9 3d 20 61 8a 3e
       0.028798237 -0.23488474 0.090805784 0.27027225
0000a0 8d 35 14 be d1 5a 25 be b8 e6 52 3e 69 53 9f bd
       -0.14473553 -0.16147925 0.20595825 -0.07779581
0000b0 aa 14 75 3d 8a da 2f 3d 88 40 e5 3d 7e 20 86 3e
       0.05983416 0.042933024 0.11193949 0.26196665
0000c0 17 ea 14 bd 68 08 84 be 8e 82 1a 3e b6 64 8d 3e
       -0.036356058 -0.25787663 0.15088865 0.276159
0000d0 5d 61 89 3e d2 2c b3 3d 43 11 7a be d0 e5 24 be
       0.26832095 0.08748783 -0.24420647 -0.16103292
0000e0 01 a5 08 be 48 af 13 be 7c d5 f5 3c 6f e3 8b 3e
       -0.13344194 -0.14422333 0.030009024 0.27321956
0000f0 a9 71 0b be 97 cd b0 bd 5f ab eb 3d f4 71 94 be
       -0.13617577 -0.08632963 0.11507296 -0.2899319

convs.0.convs.<region___is_functionally_connected___region>.bias f4 [64]
000000 e2 65 39 ba a8 b8 3e 35 75 4c de 39 e9 48 39 b7
       -0.00070723717 7.1049226e-07 0.00042400105 -1.1043835e-05
000010 58 4c 61 39 94 88 fc 36 3f f8 9c 38 fa 66 c6 b9
       0.00021486112 7.526085e-06 7.484899e-05 -0.00037842226
000020 f2 68 b6 37 6a 70 32 3a 4c 82 97 ba e0 8a c9 39
       2.174496e-05 0.0006806912 -0.0011559217 0.00038441177
000030 23 78 b6 37 53 b2 81 34 69 e6 f0 3a 6f 2c 39 3a
       2.1752034e-05 2.415787e-07 0.0018379214 0.0007063811
000040 1b 20 f9 3a a5 3c 5e 39 5e d8 82 b8 3a d3 bf b8
       0.001900676 0.00021194162 -6.2391846e-05 -9.146934e-05
000050 ec 3f dd b9 17 a3 dd 3a a9 e8 b2 ba 92 5a af 39
       -0.0004220003 0.0016909566 -0.001364966 0.0003344608
000060 f7 f9 80 ba bf c4 d6 b8 cf e7 b4 b8 88 62 03 b7
       -0.000984012 -0.00010240962 -8.6262466e-05 -7.83115e-06
000070 4e b9 2b b7 67 59 a0 b6 38 01 1d b8 9c ea 57 3a
       -1.0235539e-05 -4.7787794e-06 -3.7432852e-05 0.00082365586
000080 27 5f a9 3a 3b 1e 39 3a 8e 86 81 b9 83 ad ef 36
       0.0012922034 0.00070616946 -0.00024705048 7.1429545e-06
000090 c9 3a ce 3a 50 7a 69 3a 79 02 8c 39 d8 0d 13 b9
       0.0015734072 0.00089064706 0.00026704723 -0.0001402417
0000a0 1a 21 90 37 1d 79 09 3a f6 47 d5 39 01 06 6c b9
       1.7181552e-05 0.00052441825 0.0004068014 -0.0002250895
0000b0 80 9e c9 3b 6b a8 e3 b9 7c 87 ae 38 41 87 06 39
       0.006152928 -0.00043422295 8.3222025e-05 0.00012829622
0000c0 ae 49 bb 3a 1d 60 f3 ba 72 12 3f bb 6e 9e a4 b9
       0.0014288926 -0.0018568073 -0.0029155281 -0.00031398557
0000d0 88 60 1e b9 f6 0e 5e 39 86 cc 1e 3a cf 39 8a b6
       -0.00015104015 0.00021177143 0.0006057698 -4.1194503e-06
0000e0 99 17 3e ba 7a 96 86 39 6e 28 1a 3a 54 a5 9e b9
       -0.0007251441 0.00025670585 0.0005880658 -0.00030259287
0000f0 70 d2 74 39 f4 42 6f 39 dd f7 b4 3a f5 22 db 3a
       0.00023348047 0.00022817758 0.0013806779 0.0016718792

convs.0.convs.<region___is_functionally_connected___region>.lin.weight f4 [64, 64]
000000 37 87 f2 3d de 63 35 3e b0 f5 4d 3e 1b b5 37 be
       0.118421964 0.17713878 0.20113254 -0.1794018
000010 c2 f1 7f 3c 7c e2 52 bb 31 99 52 3e fe 2c 8a bd
       0.015621604 -0.0032178452 0.2056625 -0.06746863
000020 f6 5a f4 3c f4 cc ce bc 52 73 0e be 74 5d 96 3d
       0.02982853 -0.025244214 -0.13911179 0.073420435
000030 3f c3 76 bc 1c e3 ea bc c2 9c 00 be ea a3 05 be
       -0.015061199 -0.028672747 -0.12559798 -0.1305081
000040 a4 1f d2 bd 2d 01 98 bc f6 f4 3f bc 49 7e 3a be
       -0.10259941 -0.018555248 -0.011716118 -0.18212236
000050 be 02 f1 bc 38 31 48 bd c0 66 cc 3c 39 4c 1e 3d
       -0.029420253 -0.048875064 0.024951339 0.03864691
000060 f0 8a f7 bc 94 7d c5 3d a0 63 99 3d b2 1f 05 bd
       -0.030217618 0.09643093 0.07489705 -0.03250093
000070 af 66 83 3d 6e 3a e8 3d 66 c9 fd 3d a2 5f 4a 3e
       0.0641607 0.113392696 0.12391929 0.19763044
000080 aa d3 d0 bc a6 0d 32 3e 6a 3e 34 bd 10 b2 43 ba
       -0.025491554 0.17388019 -0.044004835 -0.0007465193
000090 8e 8e 35 3d cf 6c 0b be 2a 74 21 be 06 ef 34 be
       0.044325404 -0.13615726 -0.1576697 -0.17669305
0000a0 44 34 c7 bd da 0e 1f 3e 70 ed 4a bd 1e 16 31 3e
       -0.09726766 0.15533009 -0.049542844 0.17293593
0000b0 57 52 51 bd be 2d 5e bc fd 6d 4b 3e 74 55 4b 3e
       -0.051103916 -0.0135607105 0.19866176 0.19856817
0000c0 55 2e cb bd 76 2e 1b 3e f1 86 85 3d 96 9f 2a be
       -0.099209465 0.15154442 0.06519879 -0.1666244
0000d0 a7 e5 a6 3d f4 8b a0 3d 40 c1 c0 3d 7c 8d c2 3d
       0.081492715 0.07839194 0.094118595 0.09499642
0000e0 25 ee 41 3e 4a a2 50 be 2a 64 97 3d 80 ac b0 bd
       0.18938501 -0.20374408 0.07392152 -0.08626652
0000f0 53 db 03 3e 16 b7 05 bd 8d d9 47 3e 40 df 4b 3e
       0.12876634 -0.032645307 0.19516583 0.19909382
000100 d0 cd 3e 3e 1b 16 40 be 79 ff cb 3d f8 dd 06 bb
       0.18633199 -0.18758433 0.09960837 -0.002057908
000110 ca 4e 1a 3e 8e 5a 31 3e 01 d0 88 3d 64 10 45 3e
       0.15069118 0.173197 0.066802986 0.19244534
000120 d7 0c 4b be 5a 8c f3 3d a0 f6 ec b9 a5 3a 43 be
       -0.19829117 0.11892004 -0.00045197178 -0.1906534
000130 64 6f 74 bb 79 b3 cb 3d 94 94 81 3d d5 56 40 3e
       -0.003729784 0.09946341 0.06327167 0.18783124
000140 49 3e 92 bd a4 c1 c7 bd 50 15 2c be bb fd 27 3e
       -0.07140786 -0.09753731 -0.16805005 0.16405384
000150 41 1f e5 3d cc 42 9a bc 35 77 46 be 44 d5 ba bd
       0.11187602 -0.01883068 -0.19381411 -0.091227084
000160 81 91 3f 3c 20 ee 1a be 8b 7c a2 3c 27 46 49 3e
       0.011692406 -0.151299 0.019834777 0.19655667
000170 b5 c3 fe bd 52 98 c0 bc 70 3d 4a be bf fe 28 be
       -0.12439672 -0.023510132 -0.19749999 -0.16503428
000180 14 6b 44 be f3 bb 5e bd 36 06 44 3e 78 c9 1f 3e
       -0.19181472 -0.05437846 0.19142994 0.15604198
000190 73 7c 2a 3c e5 60 99 3d 89 e7 51 3e 98 61 3b 3e
       0.010405648 0.07489184 0.2049848 0.18298948
0001a0 05 a2 25 be c6 11 b7 bd af 12 16 bc 7d 19 4b be
       -0.16175087 -0.08938937 -0.009159728 -0.19833942
0001b0 17 49 14 3e 5a 90 ca bd cd ad 07 3e 52 ff 1f be
       0.14481007 -0.09890814 0.13249893 -0.1562474
0001c0 45 2e 08 be dc b5 dc 3b 5c 6e 1d 3d 00 62 f4 bc
       -0.132989 0.0067355465 0.038435325 -0.029831886
0001d0 4f c7 28 3e d2 36 9e 3b 92 aa ec bd b2 7b 23 be
       0.1648228 0.0048283124 -0.11555971 -0.15965155
0001e0 9a ec de 3d d8 e4 46 3e 5e c9 0a 3e 49 a1 37 3e
       0.10884972 0.19423234 0.13553378 0.17932619
0001f0 c3 ae 08 3e bb bb 25 3e 6c 36 83 bd 48 aa 2a be
       0.13347916 0.16184895 -0.064068645 -0.1666652
000200 b2 00 90 bd 01 a8 31 be 1a 4c 01 3e 00 80 0a 38
       -0.070313826 -0.17349245 0.12626687 3.3020973e-05
000210 e0 02 26 3e 10 62 27 3e 94 49 12 bd 0b 8e 21 3e
       0.16212034 0.16346002 -0.0357147 0.15776841
000220 5e 96 34 be e7 45 3a 3e 4c 73 b7 3d 40 25 50 3e
       -0.17635486 0.18190728 0.08957538 0.2032671
000230 3a 82 29 3e f8 56 04 bb 18 09 c7 bd e6 6c 88 bd
       0.16553584 -0.002019344 -0.09718531 -0.06661396
000240 84 b4 40 3b 71 a4 1b 3d b1 b4 b3 bd 1a 54 f3 3d
       0.002940447 0.03799862 -0.087746985 0.118812755
000250 2b 57 07 be 9b ab 1a 3e 7b 98 43 be db 2d 80 bd
       -0.13216846 0.15104525 -0.19101135 -0.06258746
000260 ee 8f 03 be 7b b6 e0 3d 55 b8 2e bc 4a 87 a2 3d
       -0.12847874 0.109723054 -0.010664065 0.079359606
000270 0a b5 c7 bd e7 fa b3 bd 72 82 32 3e b0 32 00 bb
       -0.09751327 -0.0878809 0.17432573 -0.0019561462
000280 42 ac 59 3c 2f 70 cd bd ce 7e d5 3b a7 76 71 bc
       0.013285698 -0.10031163 0.0065153604 -0.014737762
000290 7a 92 2e be f4 39 4b be 95 9f ec bd 37 fc da 3d
       -0.17048064 -0.19846326 -0.11553875 0.106926374
0002a0 c9 76 08 be 9b a6 86 3d 4e 7d c0 3d 22 e0 e7 3d
       -0.13326563 0.06574746 0.093989 0.11322047
0002b0 36 ad 40 3e 4f 3f 38 be 1f f8 2e 3d fd 3b 02 3c
       0.18816075 -0.179929 0.042717095 0.007948873
0002c0 d2 4f af bd c4 38 93 3d 1a 8a 4d 3e a2 70 c3 bd
       -0.085601464 0.071885616 0.20072213 -0.095429674
0002d0 8e a4 4b be c4 86 82 bd f6 70 48 be 24 bb 10 3e
       -0.19886991 -0.06373361 -0.19574341 0.14133888
0002e0 4b e1 24 3d 8b c6 cd 3d a4 41 7d bc 0a e2 80 bc
       0.04025392 0.10047635 -0.0154575445 -0.015732784
0002f0 41 41 c8 3d 86 ca 23 3e 1b 92 2c 3e dd 57 40 3c
       0.09778071 0.15995225 0.1685261 0.011739698
000300 d6 fe de 3d bd 23 50 3e 06 48 c6 3d ed 49 f1 bd
       0.1088845 0.20326133 0.09681706 -0.11781678
000310 90 41 7c 3a ff dc 51 3e 1e 21 c4 3d 2a 3c 67 bd
       0.00096228067 0.2049446 0.09576629 -0.05645386
000320 d3 2f 0f be 94 c6 56 3c e1 8d 5d 3d 58 a5 e0 bd
       -0.13983087 0.013108868 0.054090384 -0.10969037
000330 18 d5 51 3d 82 38 c2 3d 7b 6f 80 3d 72 62 51 3d
       0.051228613 0.09483434 0.06271263 0.051119275
000340 d2 0a bf 3b 30 e8 b8 bd e8 2d 4a bc ae 4b c3 3d
       0.0058301473 -0.09028661 -0.012340046 0.09535919
000350 bd c8 7f 3d a8 5e cd bd 20 24 7c b9 6c c5 24 3e
       0.0624473 -0.1002782 -0.0002404605 0.16090935
000360 85 74 f2 bd a9 13 3d 3e ac 74 5e 3d e9 58 46 3e
       -0.118386306 0.18464531 0.054310486 0.19369854
000370 a8 c3 c9 bd 4d 30 aa bd fc d9 2d be a5 68 00 be
       -0.098517716 -0.08309994 -0.16977686 -0.12539919
000380 d2 08 24 bd 44 39 8e bd 44 05 0b 3e 1e b9 98 bc
       -0.040047474 -0.06944516 0.13576227 -0.018642958
000390 00 b0 83 bd 3e 90 fe 3c 8f 1a fd 3d d6 17 52 3e
       -0.06430054 0.03107464 0.12358581 0.20516905
0003a0 3c ec 1b be c8 f2 ab 3a 5b 7f 6b 3d 01 6e 96 bd
       -0.15226835 0.0013118619 0.057494503 -0.073452
0003b0 7a 38 ff bd 1d bd 8f 3d c3 7e 6a 3c 61 2a 45 be
       -0.12461944 0.07018492 0.014312449 -0.19254448
0003c0 10 14 02 ba 14 16 7d bb 33 45 1e 3e 39 8d c2 bd
       -0.0004962096 -0.0038617896 0.15456085 -0.09499592
0003d0 d9 0b 1d be 54 40 3c be fc ad f6 bd 5d 86 1f be
       -0.15336551 -0.18383914 -0.12044904 -0.155786
0003e0 a5 0f 95 3d 77 70 3c be 20 26 0d 3e 1e 8f 15 3d
       0.072783746 -0.18402277 0.13784075 0.03651344
0003f0 eb 70 6f bd 39 60 f0 bd cb 10 a7 3d 86 81 e9 bc
       -0.058457296 -0.11737103 0.081575 -0.028504144
