model_fold_5.pth (torch, 200819 bytes, 36 tensors)

convs.0.convs.<subject___has_region___region>.lin_rel.weight f4 [64, 64]
-0.005154851 -0.06135162 -0.057100073 -0.06685484 0.08103368 0.009769443 -0.08228604 -0.045368765
0.028772354 -0.03798353 0.052884314 0.01794003 -0.01658564 -0.03442308 0.08436538 0.052483413
-0.08595552 0.07718242 -0.08984973 -0.0011748848 -0.019904453 -0.03599953 0.10219901 -0.014741784
0.0024812596 -0.09394836 0.053045973 0.0018923017 -0.028541945 -0.079530105 -0.038478434 -0.09089194
0.07261116 -0.043134443 0.09714679 0.0946463 0.046350397 0.033127636 0.05279678 0.038219783
0.07874248 0.058857977 0.092057034 -0.065628424 0.010291981 0.082641765 -0.0019182051 -0.07858348
-0.0054797763 0.05078922 0.004186073 0.016720135 -0.005581878 0.024772028 0.052833408 0.04430043
-0.015565655 0.06612049 -0.017425597 0.06705722 -0.040627744 -0.05366892 0.0018799985 -0.008512477
0.011272324 -0.070001386 -0.07993549 -0.08116227 0.026682064 0.0077716378 0.05395613 0.054321513
-0.02839437 0.052110333 0.033828486 0.011281587 0.0317002 -0.079193845 0.024856873 0.023853656
-0.030587167 0.07239863 0.07063271 0.08016265 0.0648587 0.004460547 -0.073799476 0.011624765
0.07310377 -0.03818438 0.041074466 0.023603419 0.010798168 -0.05126083 -0.093888015 -0.064459056
0.0059856027 -0.05374535 -0.032707706 -0.016404198 0.033524826 -0.008831764 0.038390428 -0.046796493
-0.016120205 -0.08815283 -0.08185727 -0.05148866 -0.04302015 -0.04371986 -0.0521108 -0.022532292
0.1020978 -0.04434434 -0.018819729 -0.0589403 0.06474382 0.04699967 0.0687886 0.020455576
-0.09927808 -0.042775225 0.05162938 0.07842421 -0.0042928495 0.026130157 -0.06437899 -0.0019053919
0.07313221 -0.023653926 -0.008901693 0.078964375 -0.04199762 0.013802924 0.026027538 0.028968673
0.029944427 0.006742715 -0.067463264 0.013191914 -0.042181008 0.033074226 0.07402421 -0.06507028
0.053248905 -0.023259586 -0.019992331 -0.03804206 0.07254067 -0.0073082624 0.06278718 -0.011920653
-0.0020484496 0.017651804 0.06527345 -0.0023504198 -0.041512173 -0.037557133 0.05690436 -0.010223562
-0.04573651 0.023343679 0.028448567 -0.030148897 -0.07835197 0.005971725 0.06579994 0.02145503
-0.052822627 -0.095213056 0.06658808 0.074442446 -0.008000636 0.05450406 -0.0017376225 -0.060138512
0.09383287 0.074640274 0.0845263 0.085834354 -0.079997376 -0.033315517 -0.057202123 -0.08854012
-0.029683476 0.064038455 -0.07396383 0.05513595 -0.0209728 0.0590166 0.0073250886 -0.043526564
0.053147506 -0.081596434 -0.03431448 0.046490286 0.005731176 -0.069625065 0.0583207 -0.057873935
-0.08152653 0.09387518 0.01332511 -0.031320885 0.017523369 -0.014467415 0.04894509 -0.022635454
-0.061084244 -0.060318634 0.03371159 -0.06927124 -0.025346285 -0.036952097 0.012189932 0.05446586
-0.028394666 -0.040757246 0.03283467 0.002866704 0.015921699 0.014352504 -0.10243142 -0.008824423
-0.08578436 0.04535865 0.09007525 -0.021671023 0.06504301 0.0028810157 -0.046232898 0.03352057
0.004126936 -0.059047684 0.045553364 -0.04725115 0.016141599 -0.016391302 0.10937648 0.067330964
-0.060961388 0.08667567 -0.009884253 -0.04511023 0.08117201 0.01170345 0.01024744 -0.05898898
-0.01616518 0.047802046 0.058743402 -0.031202924 -0.007155864 0.029775457 0.014649322 0.0017419907
00000000: 06ea a8bb d64b 7bbd c4e1 69bd 31eb 88bd
00000010: fcf4 a53d 0410 203c 9585 a8bd 99d4 39bd
00000020: 00b4 eb3c 9e94 1bbd 399d 583d f8f6 923c
00000030: 9cde 87bc 37ff 0cbd c2c7 ac3d d9f8 563d
00000040: 7309 b0bd d111 9e3d 2303 b8bd 98fe 99ba
00000050: aa0e a3bc 3e74 13bd b74d d13d 8687 71bc
00000060: a19c 223b ff67 c0bd bc46 593d 1c07 f83a
00000070: ccd0 e9bc aee0 a2bd 909b 1dbd 8e25 babd
00000080: 29b5 943d bead 30bd e5f4 c63d ebd5 c13d
00000090: ead9 3d3d d8b0 073d 7041 583d 598c 1c3d
000000a0: bd43 a13d 1015 713d 6688 bc3d 3268 86bd
000000b0: b29f 283c 1640 a93d 486c fbba 60f0 a0bd
000000c0: b28f b3bb 5b08 503d 532b 893b aaf8 883c
000000d0: 30e8 b6bb b5ee ca3c d867 583d 5e74 353d
000000e0: 1707 7fbc 2e6a 873d 20c0 8ebc 4c55 893d
000000f0: 4769 26bd f1d3 5bbd 486a f63a eb77 0bbc
00000100: 8eaf 383c e35c 8fbd 38b5 a3bd 6738 a6bd
00000110: 5894 da3c 39a9 fe3b 1a01 5d3d 3c80 5e3d
00000120: 4f9b e8bc a571 553d bd8f 0a3d 68d6 383c
00000130: 12d8 013d 6230 a2bd a4a0 cb3c be68 c33c
00000140: f091 fabc bc45 943d e2a7 903d 512c a43d
00000150: a3d4 843d c829 923b 2e24 97bd cc75 3e3c
00000160: 6eb7 953d 3967 1cbd b33d 283d f55b c13c
00000170: cdea 303c e0f6 51bd 5c48 c0bd 1c03 84bd
00000180: e022 c43b 1624 5cbd 84f8 05bd 1962 86bc
00000190: 5451 093d 1ab3 10bc 483f 1d3d aead 3fbd
000001a0: 850e 84bc 7989 b4bd c9a4 a7bd c6e5 52bd
000001b0: e635 30bd 9913 33bd 2272 55bd a495 b8bc
000001c0: a718 d13d 69a2 35bd d52b 9abc 626b 71bd
000001d0: 6898 843d ba82 403d 0ae1 8c3d 7492 a73c
000001e0: 4e52 cbbd 1335 2fbd 5479 533d df9c a03d
000001f0: 08ab 8cbb e90e d63c 22d9 83bd 58be f9ba
00000200: 57c6 953d e1c5 c1bc 68d8 11bc 13b8 a13d
00000210: b205 2cbd a925 623c b437 d53c b64f ed3c
00000220: 044e f53c fef1 dc3b 2e2a 8abd e622 583c
00000230: fec5 2cbd d778 073d 019a 973d 9143 85bd
00000240: 861b 5a3d e38a bebc f5c6 a3bc fed1 1bbd
00000250: 3490 943d 267a efbb 9196 803d d84e 43bc
00000260: 483f 06bb 849a 903c 16ae 853d 8009 1abb
00000270: ab08 2abd 82d5 19bd 8c14 693d ba80 27bc
00000280: 3556 3bbd 3e3b bf3c f80c e93c d2fa f6bc
00000290: ff76 a0bd 76ae c33b 1ec2 863d 76c2 af3c
000002a0: 8a5c 58bd 10ff c2bd 555f 883d 4875 983d
000002b0: 1915 03bc a63f 5f3d f0c0 e3ba cd53 76bd
000002c0: 732b c03d 00dd 983d 201c ad3d ecc9 af3d
000002d0: aad5 a3bd da75 08bd c64c 6abd 8654 b5bd
000002e0: c32a f3bc 9826 833d 597a 97bd 3cd6 613d
000002f0: 26cf abbc 64bb 713d 4c07 f03b e948 32bd
00000300: 33b1 593d 081c a7bd 578d 0cbd 996c 3e3d
00000310: 97cc bb3b 9697 8ebd b0e1 6e3d 380d 6dbd
00000320: 62f7 a6bd a141 c03d 9051 5a3c 544a 00bd
00000330: 2b8d 8f3c bd08 6dbc a67a 483d fd6d b9bc
00000340: 7933 7abd ac10 77bd 2a15 0a3d 14de 8dbd
00000350: 03a3 cfbc 155b 17bd 48b8 473c 9817 5f3d
00000360: ee9b e8bc 12f1 26bd a67d 063d 50df 3b3b
00000370: 396e 823c c426 6b3c 90c7 d1bd 5094 10bc
00000380: b6af afbd fec9 393d 5f79 b83d 6e87 b1bc
00000390: 4535 853d 6ccf 3c3b b55e 3dbd dd4c 093d
000003a0: 403b 873b fcdb 71bd 2a96 3a3d 6c8a 41bd
000003b0: 633b 843c 0d47 86bc c700 e03d d1e4 893d
000003c0: a6b2 79bd 0483 b13d 90f1 21bc 81c5 38bd
000003d0: 833d a63d d4bf 3f3c e1e4 273c 6e9e 71bd
000003e0: d76c 84bc 14cc 433d ec9c 703d 469d ffbc
000003f0: bd7b eabb a9eb f33c b603 703c 8253 e43a

convs.0.convs.<subject___has_region___region>.lin_rel.bias f4 [64]
-0.07950244 -0.05588099 0.09168486 -0.0012618935 -0.0188036 -0.05087206 -0.037179485 -0.09365206
-0.032825332 -0.0073611597 0.0037476574 0.0655596 0.004122382 -0.036570102 0.0589505 -0.005765558
0.008229832 -0.0035942171 -0.060821895 0.08837641 0.040385343 0.030291243 0.001806708 0.063847184
-0.019489065 0.006308765 -0.005601489 -0.027381666 0.002662424 -0.058458198 -0.07357611 0.07895578
-0.081298895 -0.082188055 -0.05902967 0.09481601 0.0068988507 0.005333475 -0.072570115 -0.008155279
-0.0046397992 0.036818355 -0.012713518 -0.0020746943 0.030036047 0.018783014 -0.00673317 -0.037103415
0.079062544 0.0026322417 -0.056766056 -0.025592908 0.036606625 0.08229268 0.0027976409 -0.0066904323
0.027763616 0.029857367 0.016767817 -0.09091904 0.005647638 0.003114 0.051861674 -0.09366484
00000000: 2dd2 a2bd 77e3 64bd 46c5 bb3d 1f66 a5ba
00000010: 020a 9abc 395f 50bd 8449 18bd a7cc bfbd
00000020: db73 06bd e235 f1bb 429b 753b 1d44 863d
00000030: 0c15 873b 88ca 15bd 1476 713d 02ed bcbb
00000040: 6bd6 063c f58c 6bbb 6120 79bd b1fe b43d
00000050: 1a6b 253d 5725 f83c 10cf ec3a 50c2 823d
00000060: 88a7 9fbc c2b9 ce3b b28c b7bb 844f e0bc
00000070: 107c 2e3b dd71 6fbd 12af 96bd 91b3 a13d
00000080: 0980 a6bd 3652 a8bd 18c9 71bd e52e c23d
00000090: c10f e23b 6ec4 ae3b a49f 94bd b89d 05bc
000000a0: 7509 98bb d8ce 163d 5c4c 50bc 98f7 07bb
000000b0: 280e f63c d6de 993c eca1 dcbb c0f9 17bd
000000c0: 8beb a13d b081 2c3b 8683 68bd 38a8 d1bc
000000d0: d4f0 153d 1189 a83d a058 373b 6a3b dbbb
000000e0: 8670 e33c 7097 f43c a95c 893c c333 babd
000000f0: d20f b93b 4014 4c3b e86c 543d 5ad3 bfbd

convs.0.convs.<subject___has_region___region>.lin_root.weight f4 [64, 64]
0.07279899 -0.03965463 0.09131122 0.018037021 0.035890352 0.00747357 0.056452975 -0.0015343879
0.017455505 0.048845936 0.05206591 0.06857022 -0.008375608 0.0032216115 0.057756122 0.027074274
0.04238831 -0.08208324 -0.10330783 0.053214066 -0.022928491 0.014042301 -0.03764116 -0.05502121
0.016880285 -0.044516023 0.011938509 -0.0915027 0.046448916 -0.08236136 -0.08374519 0.054953042
-0.10236303 -0.052622076 -0.0046681794 -0.09398204 -0.042027883 0.079531744 -0.06904405 -0.066401236
-0.042908747 -0.069319405 0.029369373 -0.00988309 0.023208492 -0.029333826 -0.11125116 -0.023994662
0.06532681 -0.057836056 0.029298905 0.036531243 -0.028406551 -0.038652744 -0.016514216 -0.060299613
0.08510275 0.03481673 0.015475162 0.05713635 0.03361014 -0.027109534 -0.0686136 0.02691688
-0.026642397 0.041879766 0.0818355 0.0095024705 -0.017087584 0.07360483 0.07985965 -0.016689222
0.0126685 -0.0017177435 -0.046457224 -0.013969463 0.023302933 -0.08110183 0.085029274 0.039571375
-0.008272402 -0.050786268 -0.012119274 -0.06265515 -0.006531014 -0.09345859 0.016236862 0.084101476
0.026434189 -0.01159859 -0.05323002 0.065358035 -0.043498002 0.04943097 -0.019310225 -0.08979357
-0.019471388 -0.03191902 0.012056203 0.072030656 -0.020889182 0.091146216 -0.002876658 -0.047471024
0.041650742 0.032209847 -0.034325454 -0.011732541 0.08010155 -0.021749368 0.04440096 0.06914625
-0.08075897 -0.06355718 -0.055976935 0.040837344 0.05698721 -0.0745943 -0.03640619 0.025268584
-0.031656645 0.025870191 -0.00391295 -0.0038951966 0.0036729518 0.03476238 -0.09804259 0.0091071995
0.07225549 0.034945697 0.016957153 0.007546947 0.0066864043 -0.039045382 0.070472494 0.006661419
0.006397835 0.052816577 0.084763296 -0.03642416 0.0042008357 0.07708551 0.015829332 -0.06908233
-0.07637986 -0.055333782 0.006882735 -0.07697617 -0.07534958 0.0045843394 0.013073793 -0.016477788
-0.040219873 -0.05638003 0.069182545 0.030292641 -0.080211975 -0.032496173 0.07453912 0.088818446
0.040095627 -0.060703695 -0.010336696 -0.09583432 -0.08804631 -0.03182702 0.014563693 0.043710493
0.008368293 -0.05356121 -0.0052044694 0.038877077 0.07692116 0.0013808124 0.03924351 0.06776006
0.0147528965 0.033079777 -0.016892606 -0.091845624 -0.018851813 -0.066624224 -0.07620176 0.009834679
0.070078775 -0.066760026 -0.08529898 -0.032011528 -0.09271387 0.029757297 0.07520699 -0.093487345
0.0049281227 0.063483156 0.09066682 -0.05559795 -0.09246205 0.012149634 0.00993916 0.09596623
0.077723764 -0.08708418 0.08678594 -0.06401546 -0.030381102 -0.06488642 0.036688995 -0.09418212
-0.038469464 -0.0055406755 0.03679872 -0.0071546775 -0.06927926 -0.03250785 -0.030206338 0.0450226
-0.09036503 -0.0983199 0.046840765 0.014439175 0.094560586 -0.0960633 0.053316463 -0.020198634
-0.060902487 -0.018912522 -0.0979736 -0.020851944 -0.008332452 0.014305837 0.08218776 0.058578983
-0.011295065 -0.06540212 0.046654176 0.05084983 0.030866552 -0.061695673 -0.03715944 0.07953923
0.06039952 0.039650828 -0.07840767 -0.034329653 -0.04806369 0.08994261 0.09464093 0.1067964
0.009951324 0.12302475 0.059615545 0.05131914 -0.070004955 0.012691278 0.01068859 0.09168679
00000000: a317 953d e56c 22bd 6001 bb3d 60c2 933c
00000010: c301 133d d9e4 f43b 3c3b 673d 841d c9ba
00000020: d9fe 8e3c ad12 483d 1043 553d 8b6e 8c3d
00000030: d939 09bc ac21 533b af91 6c3d deca dd3c
00000040: 5d9f 2d3d 421b a8bd 0e93 d3bd fef6 593d
00000050: 88d4 bbbc ae11 663c 9e2d 1abd ec5d 61bd
00000060: 8648 8a3c 6f56 36bd bc99 433c c465 bbbd
00000070: 3841 3e3d 13ad a8bd 9982 abbd 7116 613d
00000080: b5a3 d1bd 3f8a 57bd 87f7 98bb a879 c0bd
00000090: 6e25 2cbd 8ae1 a23d f866 8dbd 5ffd 87bd
000000a0: 15c1 2fbd 55f7 8dbd 0a98 f03c afec 21bc
000000b0: bc1f be3c 7e4d f0bc a6d7 e3bd 7490 c4bc
000000c0: 10ca 853d 80e5 6cbd 4204 f03c c9a1 153d
000000d0: dbb4 e8bc 5752 1ebd d248 87bc bafc 76bd
000000e0: 5a4a ae3d fd9b 0e3d 898b 7d3c ce07 6a3d
000000f0: c9aa 093d d014 debc 4a85 8cbd ca80 dc3c
00000100: 2841 dabc 1e8a 2b3d 5f99 a73d 40b0 1b3c
00000110: 43fb 8bbc 21be 963d 758d a33d d6b7 88bc
00000120: 8a8f 4f3c e825 e1ba ee49 3ebd 2de0 64bc
00000130: cbe5 be3c b718 a6bd d423 ae3d 9815 223d
00000140: f888 07bc 4305 50bd eb8f 46bc 5851 80bd
00000150: 1e02 d6bb 3867 bfbd 2b03 853c 653d ac3d
00000160: 838c d83c 0308 3ebc b907 5abd 6fda 853d
00000170: f62a 32bd 2178 4a3d 7a30 9ebc b1e5 b7bd
00000180: 7682 9fbc 85bd 02bd 6187 453c cf84 933d
00000190: ca1f abbc deaa ba3d 5086 3cbb fa70 42bd
000001a0: f899 2a3d 79ee 033d d998 0cbd d839 40bc
000001b0: 480c a43d bb2b b2bc c8dd 353d 8d9c 8d3d
000001c0: f564 a5bd 442a 82bd 1248 65bd 0f45 273d
000001d0: 6c6b 693d e5c4 98bd a81e 15bd 1000 cf3c
000001e0: 66aa 01bd b9ed d33c 3438 80bb 8e46 7fbb
000001f0: e8b5 703b ff62 0e3d 8eca c8bd 5d36 153c
00000200: b0fa 933d 3823 0f3d bae9 8a3c 614c f73b
00000210: a019 db3b 0dee 1fbd e253 903d 0848 da3b
00000220: eea4 d13b 3256 583d 6198 ad3d 8031 15bd
00000230: 2aa7 893b 02df 9d3d 84ac 813c 097b 8dbd
00000240: 0b6d 9cbd ada5 62bd 9188 e13b afa5 9dbd
00000250: e150 9abd 3a38 963b 7633 563c 6dfc 86bc
00000260: 98bd 24bd bfee 66bd 94af 8d3d 4628 f83c
00000270: 2d46 a4bd b51a 05bd f7a7 983d 72e6 b53d
00000280: 503b 243d 70a4 78bd 3f5b 29bc c944 c4bd
00000290: a051 b4bd 0d5d 02bd 8e9c 6e3c c609 333d
000002a0: 2a1b 093c 0063 5bbd 418a aabb 923d 1f3d
000002b0: d788 9d3d 60fc b43a cebd 203d c9c5 8a3d
000002c0: 22b6 713c a97e 073d 5d62 8abc 8f19 bcbd
000002d0: 1e6f 9abc 4872 88bd ab0f 9cbd a221 213c
000002e0: 7685 8f3d 7bb9 88bd 3bb1 aebd 851e 03bd
000002f0: c5e0 bdbd 93c5 f33c 1f06 9a3d 4b76 bfbd
00000300: 177c a13b 7503 823d 87af b93d adba 63bd
00000310: be5c bdbd 420f 473c dcd7 223c f189 c43d
00000320: a32d 9f3d 3159 b2bd d4bc b13d 8a1a 83bd
00000330: cae1 f8bc 2ce3 84bd 3347 163d 8ee2 c0bd
00000340: 2892 1dbd 8e8e b5bb 41ba 163d c971 eabb
00000350: 49e2 8dbd f426 05bd 4873 f7bc 9e69 383d
00000360: 4d11 b9bd f25b c9bd 1adc 3f3d 4a92 6c3c
00000370: fba8 c13d d6bc c4bd 5d62 5a3d 9b77 a5bc
00000380: e374 79bd 6fee 9abc 62a6 c8bd b2d1 aabc
00000390: d684 08bc 0863 6a3c 0e52 a83d 84f0 6f3d
000003a0: f00e 39bc 8cf1 85bd 7318 3f3d e947 503d
000003b0: dadb fc3c 9ab4 7cbd 7f34 18bd 77e5 a23d
000003c0: 7d65 773d e868 223d 3394 a0bd 409d 0cbd
000003d0: 6fde 44bd d533 b83d 1bd3 c13d 12b8 da3d
000003e0: e10a 233c 66f4 fb3d 6e2f 743d 0534 523d
000003f0: c25e 8fbd 14ef 4f3c 321f 2f3c 49c6 bb3d

convs.0.convs.<region___rev_has_region___subject>.lin_rel.weight f4 [64, 64]
-0.052034825 -0.010491846 0.0057650497 -0.024421949 0.039417155 0.06589833 0.03591697 0.059776276
-0.056936175 0.07301707 0.017877182 0.090302765 0.012567039 -0.01121967 0.080974706 0.08933955
-0.049493596 -0.020439472 -0.035403434 -1.9809231e-05 0.088129625 -0.011868875 0.0011683386 0.037907302
-0.078762874 -0.07275205 0.0039345566 -0.04744257 -0.00069953874 0.00016329251 0.005959905 0.004371713
-0.032389324 -0.0004794815 -0.06750528 -0.021682397 0.0879211 -0.088561565 0.07273963 0.0070961583
0.03892769 -0.08793907 -0.06267122 0.07401686 0.085068814 -0.0043570576 -0.013088353 0.012148051
-0.05295081 -0.027362283 0.07429068 -0.010016515 -0.0072942395 -0.014983433 0.0887764 -0.09004344
-0.066009484 -0.007883995 0.0047515836 -0.0102884155 -0.0038381214 -0.0037318422 -0.0024772277 -0.008697812
0.0089063775 0.046900377 -0.01413924 0.043537907 -0.0056080474 0.015275378 -0.03420266 -0.06875016
0.008731023 -0.08801571 -0.044288754 -0.014115077 -0.00013438892 0.094985366 -0.030687232 -0.006142373
-0.011360787 -0.014019302 0.008776307 0.051545456 -0.0063763824 -0.015415603 -0.0018606288 0.03310501
0.081834614 0.0015632487 0.0028198296 -0.05499696 -0.007869968 0.040243164 -0.048946165 0.08902004
-0.032031115 0.04079089 -0.02189811 0.06218267 -0.06878138 -0.07139806 0.060664702 -0.038483497
0.049360678 0.04876555 -0.0067830565 -0.007251563 -0.023709852 -0.047772773 -0.046173174 0.059530087
-0.095023505 0.053499967 0.087754406 -0.042539556 0.012425815 -0.008279407 0.025324333 0.045898877
0.02334446 -0.0040957765 0.004552057 0.08419054 -0.08980139 0.02967116 -0.017908439 0.005772489
-0.05279251 -0.0077467468 -0.06602475 0.027972642 -0.084624566 -0.03862914 -0.00076437555 0.06440639
-0.093460865 0.06485282 -0.00942365 -0.015088059 0.08136587 0.038476408 9.150244e-05 0.0048978073
0.0056058685 0.0026000962 -0.058731697 0.08350026 -0.00180146 0.0043002684 -0.09042036 0.049630225
-0.054597095 -0.092003845 -0.04162634 -0.0018202425 0.044570044 -0.05867581 -0.08750458 0.0069290763
-0.021447044 0.08856912 0.014633452 -0.0073191477 0.004297586 -0.022387456 -0.005954472 0.07413033
-0.03283403 -0.017272567 0.001398094 0.06996863 0.064003795 0.0061409976 -0.007608244 -0.07033131
-0.061945364 0.07701108 -0.019920552 0.0107089095 -0.038380727 0.022251252 -0.079905085 0.004046683
0.020721406 -0.05502504 0.09084356 -0.069414146 0.0777712 -0.0075513124 0.04892231 0.0043910416
0.024985317 0.024226274 0.08969991 0.013647399 -0.0055259764 -0.0077954493 -0.08094972 -0.05409943
-0.0052833036 -0.0031568473 0.003838047 0.09018818 -0.09077927 0.0008044848 0.077799976 0.007363933
-0.08053993 0.061473176 0.08773901 0.007339497 -0.006679978 -0.081612155 -0.007347946 0.021115344
0.010030308 -0.0056942883 0.08964185 0.032106783 -0.000646797 0.071187854 0.049003083 0.04603584
0.0023748865 0.050257824 0.0077930856 0.00881473 -0.058590412 0.00605385 0.0918683 0.056509845
0.075866744 -0.002022264 -0.05336204 0.0077566872 -0.0067727705 -0.0007213438 -0.02043416 -0.0074084257
0.027646692 0.0058753 0.04770942 -0.08538553 -0.001629468 0.058287475 -0.032713406 0.05082889
0.069085106 0.00026460062 -0.03208276 -0.007832607 -0.06023567 0.068913065 -0.07373722 -0.087646015
00000000: 7822 55bd fee5 2bbc bee8 bc3b 8a10 c8bc
00000010: e273 213d b4f5 863d ac1d 133d f8d7 743d
00000020: e835 69bd f989 953d 2b73 923c a8f0 b83d
00000030: fbe5 4d3c b5d2 37bc 11d6 a53d a7f7 b63d
00000040: ccb9 4abd ae70 a7bc 3103 11bd 002c a6b7
00000050: 4e7d b43d ab75 42bc f022 993a b044 1b3d
00000060: 6e4e a1bd 07ff 94bd 74ed 803b 2453 42bd
00000070: 4061 37ba 8039 2b39 4f4b c33b 9640 8f3b
00000080: abaa 04bd eb62 fbb9 3540 8abd 489f b1bc
00000090: fa0f b43d c45f b5bd 84f8 943d e486 e83b
000000a0: a472 1f3d 6619 b4bd c559 80bd 2796 973d
000000b0: 8f38 ae3d a6c5 8ebb 8870 56bc 9e08 473c
000000c0: f3e2 58bd de26 e0bc b625 983d 4f1c 24bc
000000d0: 8404 efbb 137d 75bc 67d0 b53d b268 b8bd
000000e0: fb2f 87bd df2b 01bc 2cb3 9b3b be90 28bc
000000f0: fe88 7bbb ec91 74bb fc58 22bb 4581 0ebc
00000100: 0eec 113c 9c1a 403d 45a8 67bc ce54 323d
00000110: b6c3 b7bb 9445 7a3c 1718 0cbd e2cc 8cbd
00000120: 910c 0f3c 9541 b4bd 2068 35bd ed42 67bc
00000130: c0ea 0cb9 b087 c23d ca63 fbbc f645 c9bb
00000140: 9822 3abc 37b1 65bc 80ca 0f3c 5421 533d
00000150: f9f0 d0bb ba91 7cbc 58e0 f3ba 1e99 073d
00000160: e898 a73d ece5 cc3a e4cc 383b 7e44 61bd
00000170: 0af1 00bc 04d6 243d c67b 48bd 2450 b63d
00000180: 0f33 03bd 5914 273d aa63 b3bc 41b3 7e3d
00000190: 41dd 8cbd 2539 92bd 8d7b 783d dfa0 1dbd
000001a0: 6c2e 4a3d 63be 473d 6744 debb 859e edbb
000001b0: 2a3b c2bc 62ad 43bd 1520 3dbd d2d5 733d
000001c0: af9b c2bd c822 5b3d 95b8 b33d f53d 2ebd
000001d0: a595 4b3c 5aa6 07bc fa74 cf3c 7600 3c3d
000001e0: e23c bf3c dd35 86bb 6c29 953b 176c ac3d
000001f0: cbe9 b7bd ef10 f33c b8b4 92bc 2627 bd3b
00000200: f53c 58bd 6cd8 fdbb fc37 87bd e226 e53c
00000210: a54f adbd 9739 1ebd 6060 48ba 7fe7 833d
00000220: 6968 bfbd 8ed1 843d a765 1abc e833 77bc
00000230: 26a3 a63d 7099 1d3d 00e5 bf38 c97d a03b
00000240: 6fb1 b73b 6066 2a3b a690 70bd 2f02 ab3d
00000250: f81e ecba 44e9 8c3b 4f2e b9bd 1049 4b3d
00000260: 34a1 5fbd 836c bcbd 6280 2abd 3495 eeba
00000270: 148f 363d 0c56 70bd 9a35 b3bd 4e0d e33b
00000280: b6b1 afbc ba63 b53d 25c1 6f3c 76d5 efbb
00000290: c4d2 8c3b e665 b7bc bb1d c3bb a4d1 973d
000002a0: fa7c 06bd 337f 8dbc 4040 b73a b74b 8f3d
000002b0: 6c14 833d 6c3a c93b 944e f9bb dd09 90bd
000002c0: 6cba 7dbd fcb7 9d3d 6d30 a3bc 6c74 2f3c
000002d0: 1c35 1dbd 4248 b63c 47a5 a3bd 0a9a 843b
000002e0: f0bf a93c f061 61bd 300c ba3d 0129 8ebd
000002f0: 8246 9f3d 0071 f7bb c362 483d bae2 8f3b
00000300: 02ae cc3c 2e76 c63c 96b4 b73d 5799 5f3c
00000310: 4013 b5bb f870 ffbb f8c8 a5bd 5d97 5dbd
00000320: 901f adbb 1ce3 4ebb be87 7b3b 95b4 b83d
00000330: 7bea b9bd 10e4 523a 9855 9f3d 264d f13b
00000340: 1ef2 a4bd 4ccb 7b3d 83b0 b33d 2a80 f03b
00000350: b8e3 dabb 4624 a7bd 0ac7 f0bb 16fa ac3c
00000360: 2956 243c 2797 babb 2596 b73d 6782 033d
00000370: d08d 29ba f0ca 913d 75b7 483d 1490 3c3d
00000380: fca3 1b3b 26db 4d3d 245d ff3b a86b 103c
00000390: 80fc 6fbd 605f c63b 7325 bc3d de76 673d
000003a0: 0660 9b3d f687 04bb 2892 5abd cf2b fe3b
000003b0: 1eee ddbb 9018 3dba 8a65 a7bc 61c2 f2bb
000003c0: 517b e23c 9785 c03b f46a 433d 9cde aebd
000003d0: e093 d5ba d9be 6e3d 7efe 05bd f431 503d
000003e0: 7e7c 8d3d 18ba 8a39 3669 03bd 5654 00bc
000003f0: aeb9 76bd 4b22 8d3d 8a03 97bd c17f b3bd

convs.0.convs.<region___rev_has_region___subject>.lin_rel.bias f4 [64]
-0.06894258 -0.045780815 -0.079903424 0.033472694 -0.0898028 0.052172124 0.051585495 0.0008791499
0.045162834 0.07255199 -0.03206763 -0.00292774 0.019401386 0.0822513 -0.0021532937 0.09344364
0.055643514 0.014354472 -0.08369928 0.008029176 0.035251558 0.00535187 -0.04114844 0.06881132
-0.008001008 -0.009513289 -0.018587254 0.056274634 0.05538611 0.0071216207 -0.07462792 -0.029082224
0.026309896 0.006458221 0.054884803 0.00024205726 -0.03520582 -0.03105912 0.008662637 -0.07887216
-0.0035887242 -0.07001238 -0.046397157 -0.017187294 0.027934225 0.035048425 0.02440174 -0.07121311
-0.007401108 0.0019651826 0.011340824 0.061494768 -0.0145333875 -0.077621505 0.0016541991 -0.063679606
-0.002475137 0.013634026 -0.05879658 0.03996335 -0.015846115 0.05510546 0.003207122 0.004167457
00000000: c431 8dbd aa84 3bbd 68a4 a3bd aa1a 093d
00000010: 88ea b7bd 70b2 553d 504b 533d c076 663a
00000020: aafc 383d 2396 943d 5959 03bd 54df 3fbb
00000030: a8ef 9e3c 5f73 a83d 461e 0dbb 615f bf3d
00000040: 74ea 633d 052f 6b3c 876a abbd ce8c 033c
00000050: f063 103d bd5e af3b 448b 28bd f3ec 8c3d
00000060: a916 03bc a0dd 1bbc 4c44 98bc 3b80 663d
00000070: 8cdc 623d 7c5c e93b 86d6 98bd d83d eebc
00000080: da87 d73c 7c9f d33b e3ce 603d c0d0 7d39
00000090: fa33 10bd b26f febc bced 0d3c ba87 a1bd
000000a0: cd30 6bbb a762 8fbd f20a 3ebd 5ecc 8cbc
000000b0: 51d6 e43c f08e 0f3d 28e6 c73c 2ed8 91bd
000000c0: fe84 f2bb 4bca 003b ddce 393c f0e1 7b3d
000000d0: 721d 6ebc 06f8 9ebd b6d1 d83a 746a 82bd
000000e0: e835 22bb 4061 5f3c afd4 70bd 9cb0 233d
000000f0: b6cf 81bc 43b6 613d 942e 523b 2a8f 883b

convs.0.convs.<region___rev_has_region___subject>.lin_root.weight f4 [64, 64]
0.044633947 0.13632889 -0.022402985 -0.073353626 -0.0737905 0.11510656 0.08853065 -0.10844623
0.119176604 0.059573263 -0.11899735 0.038491808 0.047048282 -0.01630842 -0.0062437262 -0.031166004
-0.0235533 -0.034772374 -0.11642214 -0.0032814424 -0.028717406 -0.042326 -0.08360011 -0.14273752
0.044267595 -0.12723179 0.10606677 0.078384355 -0.12571682 0.026521087 0.10530104 0.08172062
-0.0562319 -0.046615683 -0.03824871 0.0022078934 0.027471077 -0.08972844 -0.06208724 -0.039712645
0.036040075 -0.02014386 0.14125587 0.043911528 0.014835359 -0.0018058191 0.094843164 -0.011192646
-0.010564191 -0.100470416 -0.05593194 -0.0010559051 -0.009973384 0.070327766 0.10079023 -0.05439823
-0.05468774 0.118493244 0.028252788 0.13405007 -0.04524537 0.016549608 -0.054689396 -0.057732247
0.01987886 -0.045743294 -0.0735834 -0.025788886 -0.10763985 -0.05121458 -0.08281464 -0.07312013
-0.08008393 -0.022977643 0.11209145 0.050570525 0.06791228 0.08530663 -0.010211684 0.10358563
-0.039870888 0.0044421228 0.07386459 0.002179719 0.12753345 0.07147921 0.12986498 -0.04590898
0.07657692 0.09759942 -0.003880316 0.021917533 0.014768374 0.09003538 0.09544353 -0.049323026
-0.123392224 0.15265465 -0.058597814 0.004853011 0.0627357 0.07735681 0.029813573 -0.0057209637
0.11178779 0.13234168 -0.010030023 -0.05495671 -0.101454765 0.07883107 0.032065112 0.017829899
-0.018584726 0.0967889 -0.032979034 -0.022372872 0.12805131 0.100657955 0.06308709 0.07051639
-0.02553034 0.03434714 -0.03498317 -0.043454256 0.061236244 0.010310474 -0.04543952 -0.016522724
-0.023239728 0.05723577 0.04506132 -0.0121470485 0.019934386 0.11539751 -0.045508794 0.13536082
-0.11073957 -0.020185487 -0.0489679 0.003017949 -0.08455209 0.062791735 -0.05483272 -0.019270722
-0.09934856 -0.059811864 0.060460333 -0.07114211 0.11493352 -0.13609025 -0.059626676 -0.09858608
0.08718993 -0.09025467 -0.027670871 0.029673165 -0.09311931 -0.074325405 0.114481926 0.058885492
-0.031703677 0.012279479 -0.009265277 0.04267932 0.0026375093 0.09794627 -0.0571798 -0.08508919
0.017975496 0.013171713 -0.06844198 0.061155774 -0.10348195 -0.094415 0.022682995 -0.048135214
-0.07998922 -0.14322953 0.042298406 0.004103721 0.0863586 -0.09666649 0.06419775 -0.003041461
-0.09210276 -0.008422083 -0.032133047 0.047034435 -0.08687249 0.04463067 -0.08183138 -0.037651952
-0.13370126 0.04612395 -0.06153313 0.06713326 0.072681285 0.1227356 0.10845251 -0.13253933
-0.08822884 -0.056610316 0.10048668 0.075155385 -0.114030816 -0.11377082 0.08030827 0.095376626
-0.048906505 -0.02661434 0.11098379 0.04640653 -0.059896473 -0.03691682 -0.09175387 0.018399665
-0.016105147 -0.051894967 0.12817611 0.12804186 -0.08586913 0.034886934 -0.04194649 -0.096710935
-0.007406898 -0.035527505 0.056223117 0.080654815 -0.107337885 -0.10809556 -0.10967888 -0.057214405
0.1373044 0.10850064 -0.028142158 -0.027818523 0.06478744 -0.110651486 -0.006340562 -0.064710915
0.030836387 0.04384967 0.10468766 0.09999598 -0.097209014 0.11660099 -0.12014854 0.023782842
-0.11961115 0.08711936 0.04661781 -0.031382296 -0.10570146 0.010865761 0.051986314 -0.064853966
00000000: 16d2 363d cd99 0b3e 7786 b7bc 6d3a 96bd
00000010: 791f 97bd fdbc eb3d 8f4f b53d 0f19 debd
00000020: dd12 f43d 1803 743d e2b4 f3bd 96a9 1d3d
00000030: b3b5 403d 3c99 85bc 2c98 ccbb d94f ffbc
00000040: daf2 c0bc 7a6d 0ebd bb6e eebd 780d 57bb
00000050: c440 ebbc 075e 2dbd 8936 abbd c929 12be
00000060: f051 353d 0d49 02be 8939 d93d fa87 a03d
00000070: e9bb 00be c042 d93c 12a8 d73d 245d a73d
00000080: 6c53 66bd 16f0 3ebd aeaa 1cbd 4eb2 103b
00000090: 060b e13c 8bc3 b7bd 314f 7ebd baa9 22bd
000000a0: c29e 133d bc04 a5bc 61a5 103e 93dc 333d
000000b0: 0110 733c 3cb1 ecba 223d c23d 5c61 37bc
000000c0: 6e15 2dbc 6fc3 cdbd e418 65bd 4c66 8aba
000000d0: 6867 23bc 0108 903d 1c6b ce3d aed0 5ebd
000000e0: 4000 60bd 96ac f23d 6472 e73c 6c44 093e
000000f0: 3653 39bd 0b93 873c fd01 60bd a678 6cbd
00000100: fed8 a23c 525d 3bbd e5b2 96bd 3743 d3bc
00000110: 4872 dcbd 61c6 51bd b99a a9bd 02c0 95bd
00000120: 0b03 a4bd 9c3b bcbc 3490 e53d 0a23 4f3d
00000130: 9815 8b3d 3eb5 ae3d e84e 27bc b424 d43d
00000140: a84f 23bd 3a8f 913b 5146 973d 9ed9 0e3b
00000150: 2198 023e b163 923d 53fb 043e 0e0b 3cbd
00000160: 5cd4 9c3d 34e2 c73d e64c 7ebb 668c b33c
00000170: 0df7 713c 7864 b83d e677 c33d f106 4abd
00000180: 10b5 fcbd 8051 1c3e 4304 70bd 0206 9f3b
00000190: 937b 803d 3f6d 9e3d 983b f43c ec76 bbbb
000001a0: fff0 e43d 9484 073e f754 24bc 4a1a 61bd
000001b0: 84c7 cfbd 2f72 a13d b556 033d 0210 923c
000001c0: ff3e 98bc 4239 c63d 0615 07bd 5047 b7bc
000001d0: e21f 033e c225 ce3d ce33 813d e66a 903d
000001e0: 0125 d1bc 96af 0c3d 834a 0fbd 17fd 31bd
000001f0: dbd2 7a3d 43ed 283c ca1e 3abd aa5a 87bc
00000200: 3e61 bebc 0e70 6a3d 3892 383d 6a04 47bc
00000210: 704d a33c 8855 ec3d 6e67 3abd 079c 0a3e
00000220: 6dcb e2bd 095c a5bc 9192 48bd c8c8 453b
00000230: a529 adbd f498 803d 4698 60bd a2dd 9dbc
00000240: 4277 cbbd 49fd 74bd 41a5 773d f4b2 91bd
00000250: 4462 eb3d 3e5b 0bbe 1a3b 74bd 80e7 c9bd
00000260: a290 b23d 71d7 b8bd 06ae e2bc 2315 f33c
00000270: 56b5 bebd eb37 98bd 8075 ea3d ea31 713d
00000280: b7db 01bd de2f 493c 63cd 17bc 83d0 2e3d
00000290: 10da 2c3b 0e98 c83d 5e35 6abd 3e43 aebd
000002a0: 5941 933c 2bce 573c 4f2b 8cbd 7a7e 7a3d
000002b0: 58ee d3bd a75c c1bd b0d1 b93c 6e29 45bd
000002c0: 63d1 a3bd c3aa 12be 1841 2d3d 8278 863b
000002d0: c7dc b03d 15f9 c5bd 1c7a 833d 4053 47bb
000002e0: 5fa0 bcbd c7fc 09bc f19d 03bd 2ea7 403d
000002f0: 34ea b1bd a6ce 363d 3697 a7bd ef38 1abd
00000300: fce8 08be 78ec 3c3d 2a0a 7cbd 2a7d 893d
00000310: edd9 943d cd5c fb3d 591c de3d 64b8 07be
00000320: 52b1 b4bd 38e0 67bd f6cb cd3d 11eb 993d
00000330: fd88 e9bd ad00 e9bd aa78 a43d d254 c33d
00000340: 3052 48bd 5106 dabc 784b e33d c614 3e3d
00000350: 0156 75bd 1736 17bd 74e9 bbbd e5ba 963c
00000360: f1ee 83bc d18f 54bd 9940 033e 681d 033e
00000370: 28dc afbd 9ae5 0e3d 15d0 2bbd 6210 c6bd
00000380: 90b5 f2bb 4a85 11bd 364a 663d 5a2e a53d
00000390: f7d3 dbbd 3461 ddbd 529f e0bd a759 6abd
000003a0: 8699 0c3e 9535 de3d 628a e6bc ace3 e3bc
000003b0: 47af 843d 3f9d e2bd 7dc4 cfbb 2887 84bd
000003c0: 979c fc3c b69b 333d 7c66 d63d b1ca cc3d
000003d0: 8515 c7bd 80cc ee3d 7010 f6bd 3cd4 c23c
000003e0: b1f6 f4bd a36b b23d 51f2 3e3d b98a 00bd
000003f0: 027a d8bd 4e06 323c 9aef 543d 28d2 84bd

convs.0.convs.<region___is_functionally_connected___region>.att_src f4 [1, 1, 64]
-0.06963234 -0.08781013 -0.026406735 0.23273772 -0.09427029 -0.0017739477 0.25931078 0.045671128
-0.21373741 -0.05535744 -0.1450713 -0.22970708 0.2624871 -0.2174612 -0.22301234 0.10940233
0.08492403 0.06285767 0.015102974 0.03385732 0.1101945 0.21099336 -0.030598076 0.25522748
-0.19266969 0.12759455 -0.055923637 -0.16518784 -0.16680686 -0.013719171 0.0067418185 -0.246938
-0.22194174 0.24562845 0.10939929 0.025863996 0.064011484 0.20815952 -0.062054627 -0.20347771
-0.20797117 0.13064095 -0.18810034 0.051427625 -0.27349174 0.26230824 0.2727054 -0.09562719
0.23637366 -0.12302659 0.16027692 -0.044682257 0.11299704 -0.19120824 -0.26566088 -0.1460382
0.0036150208 0.081512734 0.037834894 0.12003255 -0.1448631 -0.017637864 -0.15244684 -0.05848522
00000000: 669b 8ebd ccd5 b3bd f052 d8bc cc52 6e3e
00000010: c810 c1bd cf83 e8ba 62c4 843e a611 3b3d
00000020: fbdd 5abe 7cbe 62bd 928d 14be 5538 6bbe
00000030: b664 863e 26ae 5ebe 595d 64be 540e e03d
00000040: a6ec ad3d 86bb 803d 7772 773c f9ad 0a3d
00000050: a7ad e13d a50e 583e d1a8 fabc 2dad 823e
00000060: 344b 45be 25a8 023e 2f10 65bd 0027 29be
00000070: 6bcf 2abe 60c6 60bc 79ea dc3b 51dd 7cbe
00000080: b244 63be 0686 7b3e bc0c e03d bbe0 d33c
00000090: 7418 833d c527 553e fe2c 7ebd 765c 50be
000000a0: 65f6 54be bec6 053e 609d 40be c6a5 523d
000000b0: 1c07 8cbe 444d 863e 0ba0 8b3e 30d8 c3bd
000000c0: f00b 723e 5df5 fbbd a21f 243e be04 37bd
000000d0: fe6a e73d 18cc 43be b404 88be 0a8b 15be
000000e0: fce9 6c3b 26f0 a63d c3f8 1a3d a0d3 f53d
000000f0: fe56 14be 487d 90bc 061b 1cbe 338e 6fbd

convs.0.convs.<region___is_functionally_connected___region>.att_dst f4 [1, 1, 64]
0.16742042 0.21998729 0.0413578 0.066188164 0.005796442 -0.18927874 -0.09795516 0.22178091
0.15623134 0.17260973 -0.007059181 0.020540066 0.0010967231 0.13827135 0.002111094 0.24479817
0.005050825 -0.2505549 0.26855478 0.045017336 -0.023436408 0.20807938 -0.13988593 0.19001156
-0.11209065 0.00861919 -0.2117951 0.23688015 -0.1674679 -0.14961125 0.21307272 0.14985311
-0.08191072 0.15077591 -0.046082355 0.020791726 -0.051986653 0.14155215 0.24104235 0.18338196
0.079642035 -0.095198706 0.26238248 0.07011667 -0.26466835 -0.01886707 -0.18509284 -0.16687332
0.16929471 -0.031171706 0.12187346 0.039356004 -0.038762655 0.26899955 0.18787521 0.094306335
0.10133197 0.21379921 0.2178651 0.02629644 0.18436393 -0.17450297 0.1337286 -0.019449698
00000000: 4270 2b3e 5944 613e cc66 293d a98d 873d
00000010: 14f0 bd3b 49d2 41be b79c c8bd 891a 633e
00000020: 1cfb 1f3e 9bc0 303e b450 e7bb a443 a83c
00000030: ecbf 8f3a 0197 0d3e 485a 0a3b 5fac 7a3e
00000040: 6481 a53b bb48 80be 0380 893e 1964 383d
00000050: b6fd bfbc c312 553e 423e 0fbe 6492 423e
00000060: c88f e5bd 8137 0d3c d1e0 58be b690 723e
00000070: b57c 2bbe b133 19be bc2f 5a3e 1873 193e
00000080: cfc0 a7bd 0065 1a3e dac0 3cbd 6953 aa3c
00000090: f5ef 54bd 0cf3 103e ced3 763e 7bc8 3b3e
000000a0: 5d1b a33d 8af7 c2bd ff56 863e 5499 8f3d
000000b0: 9c82 87be 1d8f 9abc fa88 3dbe d7e0 2abe
000000c0: 985b 2d3e ce5b ffbc cb98 f93d c333 213d
000000d0: 97c5 1ebd 4fba 893e 5c62 403e ae23 c13d
000000e0: 2387 cf3d 2eee 5a3e 0718 5f3e a26b d73c
000000f0: e6c9 3c3e e8b0 32be 26f0 083e f954 9fbc

convs.0.convs.<region___is_functionally_connected___region>.bias f4 [64]
-0.00038951673 -0.0002939304 0.00068657706 -0.00079473807 0.00089329196 -0.00019104755 -0.00050959084 -0.00055170176
0.0001848817 -0.0012400795 -0.0015520761 -0.0030084704 2.0736747e-05 0.0009206183 0.0005999249 -0.0006823919
-0.0025872851 -0.00050779013 -0.00057010155 -0.00013411703 0.0024035235 -0.00033315888 0.00012335644 -0.0005370461
0.00052210095 -0.00017121085 -0.0012845194 -0.0012058159 4.2254105e-06 -0.0012525092 -7.856237e-05 -0.0014738704
-0.00063146587 -0.0026985097 -0.003880023 -0.0005154554 -0.0019088206 -0.00030273877 0.0003448734 0.0003245849
0.0006323529 0.00060736045 0.002201544 0.0018092452 0.0003023583 0.00077997637 0.00030463433 -0.00013830437
0.0026897253 -0.0014076331 -0.00048024906 0.0003038098 -0.0019382446 0.002322895 -0.0016681282 0.0049078176
-0.00076701934 0.0008268306 -0.0024727988 -0.00028913445 -0.00065010437 -0.00052946433 0.0006087213 0.004104979
00000000: 0d38 ccb9 ac1a 9ab9 68fb 333a f855 50ba
00000010: cf2b 6a3a f053 48b9 1096 05ba 14a0 10ba
00000020: cedc 4139 2a8a a2ba 086f cbba c229 45bb
00000030: d3f3 ad37 a655 713a 4744 1d3a 8ce2 32ba
00000040: 718f 29bb 381d 05ba de72 15ba c4a1 0cb9
00000050: 6f84 1d3b d4ab aeb9 3e59 0139 8ec8 0cba
00000060: 9add 083a 1087 33b9 525d a8ba 780c 9eba
00000070: 00c8 8d36 3c2b a4ba dac1 a4b8 e22e c1ba
00000080: f588 25ba 7bd9 30bb fc47 7ebb a01f 07ba
00000090: 6431 faba e9b8 9eb9 20d0 b439 0c2d aa39
000000a0: 7cc4 253a 4537 1f3a c747 103b 3224 ed3a
000000b0: d885 9e39 5477 4c3a 54b7 9f39 cc05 11b9
000000c0: 1a46 303b 5480 b8ba f0c9 fbb9 a948 9f39
000000d0: b20c feba b63b 183b 18a5 daba c2d1 a03b
000000e0: cc11 49ba aabf 583a ae0e 22bb f896 97b9
000000f0: c46b 2aba c0cb 0aba 9892 1f3a 0f83 863b

convs.0.convs.<region___is_functionally_connected___region>.lin.weight f4 [64, 64]
0.13552426 -0.0060638227 -0.11504894 -0.016463004 0.067843944 0.05481553 -0.10034266 0.16724995
0.16589454 -0.10679293 0.02801239 0.04168371 0.14645511 -0.17804219 0.1859242 0.13639987
0.09185328 0.16317986 -0.010546034 -0.08211982 -0.023389712 0.114959046 -0.10271218 -0.0075199534
0.0686974 -0.06763879 0.15938652 -0.025800949 -0.16176029 0.17374156 -0.042831678 0.09843854
0.10033617 -0.07376636 0.012038991 -0.08953072 0.16945152 -0.11126055 0.14400202 -0.005268852
0.16099225 -0.1428343 -0.114475675 0.017796032 0.13426884 0.15792304 -0.05443182 0.13001235
-0.004999472 0.08411968 -0.011810413 -0.12898248 -0.08057338 -0.059698623 -0.120162405 -0.0064371694
-0.032344017 -0.009898009 0.0780868 0.17260511 0.08494465 -0.009425505 -0.015412094 -0.17785555
0.049302164 -0.085010774 0.15585957 -0.012619041 -0.0044047544 0.05087803 -0.17241746 0.041824885
-0.100807875 -0.12550175 -0.15590838 0.074317195 0.003730697 0.149957 0.089624844 -0.026934333
-0.17618702 0.0010933112 0.007019814 0.13903835 0.043855436 -0.055567123 -0.17839117 -0.1507736
-0.046499968 0.0973705 -0.139395 0.029637348 -0.089029774 -0.17167702 0.014547889 0.1466805
0.0116295405 -0.084160544 0.008643965 0.041021757 -0.13700578 0.17879173 -0.13220298 0.11050704
-0.046303064 -0.10572254 -0.08521564 -0.1550135 0.00541761 -0.15370385 0.013631757 -0.15929127
0.11303299 0.077570274 0.030311465 -0.08350706 -0.16441317 -0.16352618 -0.1722134 -0.0064167026
-0.04946343 0.08987808 0.1536631 0.012833022 -0.18485613 -0.09290291 0.024103187 -0.07412653
0.0380817 0.0075715063 -0.0014612414 -0.006864572 -0.030585658 0.037804782 -0.06347442 0.0013724957
-0.018323626 -0.1816227 -0.0043023364 0.0041968357 -0.055743 0.09341379 -0.09155077 0.04629601
0.17943044 -0.14544201 0.14567171 0.0037388513 -0.15367529 -0.14101481 0.17586896 -0.042809565
0.16305609 0.08106526 -0.17119174 0.013960636 0.12684283 0.16831666 0.10598967 0.03686785
-0.1812156 0.0427672 0.073355235 0.026206568 -0.18635432 0.04950691 0.061367743 0.070261024
-0.0027347114 -0.015253043 -0.033720054 0.14155978 0.06754665 -0.06692643 -0.003427416 0.07573103
0.14520836 0.005597166 -0.004593365 0.16302711 0.06839865 -0.0006395625 -0.009580929 0.07229345
-0.049811643 -0.14428414 -0.146394 -0.07548063 -0.18414044 -0.097469985 0.126263 0.09612532
-0.005489685 -0.0066708326 -0.16272956 -0.058992974 0.0074261366 -0.0029685246 -0.10964832 0.07728721
-0.01077206 0.07782838 -0.09092378 -0.008660433 -0.09608111 0.18123716 -0.02107358 -0.14857394
-0.008291604 -0.122021295 0.007909888 -0.0011260407 0.09205863 -0.12973887 -0.18224567 0.14757417
-0.1120139 -0.007942594 -0.026056947 0.14049256 0.18493347 -0.12626502 -0.0677305 0.1724653
0.16043882 0.011453696 -0.05626396 0.11456117 0.16828969 -0.12045134 0.1545633 0.038175583
-0.04729423 0.021116197 0.08092396 -0.034576017 -0.14451267 -0.002354379 0.15298449 0.14537703
-0.010033429 0.083771184 -0.039460793 0.09421975 0.11578917 -0.008571367 -0.11451128 0.10440721
0.11101427 0.015762694 -0.14122772 -0.100467354 0.09958117 0.012383088 0.107867956 0.1328081
00000000: dfc6 0a3e 08b3 c6bb c79e ebbd 6cdd 86bc
00000010: c4f1 8a3d 4086 603d 7480 cdbd 9243 2b3e
00000020: 42e0 293e 40b6 dabd 3d7a e53c 8abc 2a3d
00000030: 54f8 153e b150 36be ea62 3e3e 68ac 0b3e
00000040: 931d bc3d 9f18 273e 46c9 2cbc 702e a8bd
00000050: c89b bfbc a66f eb3d c35a d2bd f169 f6bb
00000060: 39b1 8c3d 3586 8abd 3836 233e 835c d3bc
00000070: 7da4 25be 4fe9 313e 4570 2fbd 259a c93d
00000080: 0d7d cd3d d112 97bd 303f 453c e25b b7bd
00000090: b384 2d3e 92dc e3bd 4475 133e 56a6 acbb
000000a0: 27db 243e 2843 12be 3972 eabd fcc8 913c
000000b0: c57d 093e 94b6 213e e6f3 5ebd f521 053e
000000c0: 9cd2 a3bb f046 ac3d 7680 41bc fc13 04be
000000d0: a803 a5bd 8b86 74bd b517 f6bd e4ee d2bb
000000e0: 297b 04bd 422b 22bc f9eb 9f3d 65bf 303e
000000f0: 76f7 ad3d 6f6d 1abc 0283 7cbc c41f 36be
00000100: 11f1 493d 211a aebd a799 1f3e 18c0 4ebc
00000110: c255 90bb 7b65 503d 348e 30be 9250 2b3d
00000120: 5c74 cebd 8883 00be 72a6 1fbe 9d33 983d
00000130: b67e 743b 548e 193e 3b8d b73d 64a5 dcbc
00000140: 5f6a 34be 704d 8f3a 7806 e63b 1260 0e3e
00000150: c2a1 333d 5a9a 63bd 2dac 36be 6564 1abe
00000160: c076 3ebd 2f6a c73d 90bd 0ebe 06ca f23c
00000170: 3e55 b6bd 1acc 2fbe 455a 6e3c 6a33 163e
00000180: d489 3e3c 5d5c acbd 6b9f 0d3c 6e06 283d
00000190: 3e4b 0cbe 2e15 373e 3860 07be 8451 e23d
000001a0: 48a8 3dbd 0f85 d8bd 8a85 aebd dcbb 1ebe
000001b0: 3586 b13b 8b64 1dbe bc57 5f3c 401d 23be
000001c0: d77d e73d 2add 9e3d c04f f83c c005 abbd
000001d0: ed5b 28be 6873 27be b658 30be 3443 d2bb
000001e0: 2a9a 4abd 0012 b83d dc59 1d3e 9841 523c
000001f0: ed4a 3dbe e243 bebd 0c74 c53c a6cf 97bd
00000200: 8ffb 1b3d 661a f83b 2087 bfba 34f0 e0bb
00000210: c68e fabc 30d9 1a3d e0fe 81bd 50e5 b33a
00000220: 6e1b 96bc 4dfb 39be 9dfa 8cbb 9c85 893b
00000230: c652 64bd bb4f bf3d f87e bbbd e3a0 3d3d
00000240: 9dbc 373e c0ee 14be f72a 153e 8407 753b
00000250: 0e5d 1dbe 3066 10be fe16 343e 1559 2fbd
00000260: 2df8 263e 8b05 a63d e34c 2fbe 27bb 643c
00000270: 16e3 013e 345b 2c3e 1d11 d93d be02 173d
00000280: 9590 39be a92c 2f3d 453b 963d 28af d63c
00000290: abd3 3ebe c2c7 4a3d be5c 7b3d 03e5 8f3d
000002a0: d838 33bb e6e7 79bc 0a1e 0abd 0cf5 103e
000002b0: e655 8a3d b910 89bd 809e 60bb df18 9b3d
000002c0: 80b1 143e 6e68 b73b f083 96bb 94f0 263e
000002d0: 9714 8c3d 50a8 27ba 54f9 1cbc 970e 943d
000002e0: 4b07 4cbd 39bf 13be 4fe8 15be 9795 9abd
000002f0: 508f 3cbe 589e c7bd 164b 013e 5add c43d
00000300: d1e2 b3bb 0097 dabb 94a2 26be 9ea2 71bd
00000310: f356 f33b 948b 42bb 4c8f e0bd c248 9e3d
00000320: 4b7d 30bc 7c64 9f3d 3f36 babd 7de4 0dbc
00000330: 2cc6 c4bd 3c96 393e 80a2 acbc c423 18be
00000340: 82d9 07bc 4de6 f9bd 7a98 013c a897 93ba
00000350: 3c89 bc3d 44da 04be 9c9e 3abe af1d 173e
00000360: 8b67 e5bd a721 02bc 6175 d5bc 48dd 0f3e
00000370: 335f 3d3e 9e4b 01be 4ab6 8abd be9a 303e
00000380: 134a 243e 48a8 3b3c 0a75 66bd 0c9f ea3d
00000390: 2254 2c3e 31af f6bd d745 1e3e 005e 1c3d
000003a0: 98b7 41bd e0fb ac3c 76bb a53d 959f 0dbd
000003b0: 21fb 13be ed4b 1abb f7a7 1c3e b7dd 143e
000003c0: 4063 24bc 3a90 ab3d a4a1 21bd 49f6 c03d
000003d0: df22 ed3d eb6e 0cbc e484 eabd 73d3 d53d
000003e0: 735b e33d c420 813c 009e 10be d4c1 cdbd
000003f0: 36f1 cb3d 6fe2 4a3c e0e9 dc3d d9fe 073e

convs.1.convs.<subject___has_region___region>.lin_rel.weight f4 [64, 64]
0.10253595 0.110250056 -0.032824785 0.020841062 0.019014046 0.058956474 0.01348041 -0.09855837
0.019786134 -0.09321298 -0.11655912 0.05677706 0.05990854 -0.017451718 -0.07004133 -0.035791352
0.05628249 -0.11862628 -0.10549624 0.07590078 -0.04051712 -0.08555451 -0.014285237 -0.06642686
0.02825223 0.090304494 -0.07266402 0.11776781 -0.020510614 -0.07638711 0.06325604 0.06984666
0.024090514 -0.02344136 -0.03333339 -0.124191746 0.041651487 0.0070853233 0.020367816 0.0877374
-0.02592799 0.008262023 0.11584242 0.00906758 0.0894797 0.11591275 0.09288776 -0.06777345
-0.048274577 -0.058056504 -0.08708587 0.122099 0.06503363 -0.014918834 0.05785285 0.05309385
-0.035683915 0.115664646 0.05903539 -0.08853561 0.0010050982 0.023250788 0.054185495 -0.065577954
0.059473902 -0.023177266 0.09336354 -0.051397756 -0.07459077 0.12270643 0.083329886 -0.015127197
0.013698086 -0.0947016 -0.104552716 -0.016779602 0.09043041 -0.052818134 0.027768433 0.06552027
0.09326142 0.06034307 0.045677736 -0.08907142 -0.07690936 0.011544824 -0.009293497 0.07874979
-0.03826958 0.013215169 -0.08921237 0.11114241 -0.07897128 -0.012849629 -0.06837247 -0.12248425
0.041777194 0.05454576 -0.1244055 0.025646731 -0.07673174 -0.093663484 0.082536906 0.007737711
0.07229312 -0.115665 -0.011879876 0.12412238 0.12238625 -0.06636749 0.0427323 -0.035829812
-0.110718936 -0.11054011 -0.002542749 0.008505851 -0.05156921 0.02496326 -0.06049888 0.022830933
0.050098583 0.05791168 0.03238952 -0.0071902573 -0.042120606 0.10744156 0.09504484 0.03550662
0.06822914 -0.067757174 0.011273235 0.027553096 -0.095462516 -0.049959615 0.03872454 0.030758858
-0.12147786 -0.05156617 0.032985985 0.104769155 0.07411994 0.10654682 -0.10679817 -0.08675976
0.044289142 0.04233052 0.07121128 0.021533698 0.10756113 0.028898403 0.03283848 0.01956141
-0.05125539 -0.10228658 0.074927926 0.12122972 0.10896213 -0.11861497 -0.079482585 0.02516058
-0.0655781 0.08702324 0.08931948 -0.10522792 0.07085027 0.03861524 0.09826833 0.013811588
0.044529885 0.109176666 -0.07864268 0.03965293 -0.08001739 0.04272175 -0.103419006 -0.11959103
-0.06696281 -0.058784902 0.024635777 0.1044786 0.036443025 0.091292694 0.0643993 0.051161885
-0.047058493 -0.06888743 0.042298704 0.027810335 -0.124607 -0.10607387 -0.10111429 0.10560945
-0.112672195 -0.025319934 0.12191349 0.04482068 0.0153999925 0.08085355 0.10097174 -0.120585755
0.0023105294 0.09774017 -0.007148117 -0.016948596 0.08315626 -0.01874286 -0.034352258 0.08815873
-0.070710406 -0.06690909 0.11410914 -0.07002923 -0.058067456 -0.07938346 0.11905031 0.036094695
-0.10500914 -0.05141999 -0.10217008 -0.11118345 0.048012003 0.11310841 -0.010510623 0.1194648
-0.0687318 -0.03432122 0.095131636 0.11551246 -0.09075311 0.09502651 -0.017943084 0.11996496
-0.032116786 -0.078417405 0.026620269 0.103919685 -0.11315021 0.0691535 0.085191965 0.07960108
0.044434533 0.084396705 -0.07603058 -0.021271765 -0.023763105 -0.04385081 0.045326546 0.12420887
-0.0609646 -0.079134405 -0.052689105 0.1080672 -0.033921063 -0.062618986 0.036978066 0.043391168
00000000: 5efe d13d c8ca e13d 4873 06bd e0ba aa3c
00000010: 58c3 9b3c 587c 713d f0dc 5c3c f8d8 c9bd
00000020: 8816 a23c 72e6 bebd 8cb6 eebd 108f 683d
00000030: a862 753d e8f6 8ebc d471 8fbd f499 12bd
00000040: 7888 663d 56f2 f2bd 6a0e d8bd de71 9b3d
00000050: 48f5 25bd 3437 afbd a00c 6abc ce0a 88bd
00000060: 3871 e73c 90f1 b83d e0d0 94bd 4030 f13d
00000070: e005 a8bc d870 9cbd 628c 813d c40b 8f3d
00000080: 7859 c53c 1808 c0bc 9888 08bd 3e58 febd
00000090: c09a 2a3d 002c e83b 68da a63c aaaf b33d
000000a0: f066 d4bc 705d 073c ca3e ed3d 3090 143c
000000b0: 2241 b73d aa63 ed3d f03b be3d cecc 8abd
000000c0: 90bb 45bd a8cc 6dbd 145a b2bd 0a0f fa3d
000000d0: 5a30 853d 206e 74bc 1cf7 6c3d f078 593d
000000e0: 4c29 12bd 96e1 ec3d 18cf 713d 2852 b5bd
000000f0: 80bd 833a 7078 be3c 9cf1 5d3d bc4d 86bd
00000100: e89a 733d 40de bdbc 6235 bf3d 7486 52bd
00000110: 0cc3 98bd 824d fb3d dca8 aa3d 10d8 77bc
00000120: f06d 603c eaf2 c1bd bc1f d6bd 6075 89bc
00000130: 9433 b93d d457 58bd a07a e33c 7e2f 863d
00000140: d8ff be3d 4c2a 773d 9418 3b3d 146b b6bd
00000150: a882 9dbd 8026 3d3c c043 18bc 9247 a13d
00000160: 90c0 1cbd 7084 583c fab4 b6bd a29e e33d
00000170: b2bb a1bd 4087 52bc de06 8cbd 06d9 fabd
00000180: 901e 2b3d 606b 5f3d 50c8 febd 1819 d23c
00000190: 8825 9dbd a4d2 bfbd 1c09 a93d a08c fd3b
000001a0: 6a0e 943d c6e1 ecbd d0a3 42bc e033 fe3d
000001b0: a4a5 fa3d aeeb 87bd 1008 2f3d 48c2 12bd
000001c0: 9cc0 e2bd da62 e2bd 40a4 26bb 205c 0b3c
000001d0: 3c3a 53bd c07f cc3c accd 77bd f007 bb3c
000001e0: 2c34 4d3d cc34 6d3d e0aa 043d 409c ebbb
000001f0: a886 2cbd 520a dc3d dea6 c23d 646f 113d
00000200: b8bb 8b3d 46c4 8abd 60b3 383c 08b7 e13c
00000210: da81 c3bd 74a2 4cbd a09d 1e3d 00fa fb3c
00000220: 62c9 f8bd 0c37 53bd 501c 073d 3691 d63d
00000230: 32cc 973d 3835 da3d 00b9 dabd 1aaf b1bd
00000240: 8868 353d c462 2d3d 38d7 913d 7067 b03c
00000250: 0249 dc3d 58bc ec3c a481 063d 403f a03c
00000260: 2cf1 51bd a07b d1bd d073 993d 4a47 f83d
00000270: 8a27 df3d 68ec f2bd c4c7 a2bd 901d ce3c
00000280: d04d 86bd 3e39 b23d 22ed b63d bc81 d7bd
00000290: f219 913d 042b 1e3d e840 c93d 004a 623c
000002a0: f864 363d 0498 df3d 6a0f a1bd 1c6b 223d
000002b0: 28e0 a3bd 00fd 2e3d 58cd d3bd 24ec f4bd
000002c0: cc23 89bd 70c8 70bd f8d0 c93c e0f8 d53d
000002d0: 4845 153d aaf7 ba3d c8e3 833d 208f 513d
000002e0: 68c0 40bd da14 8dbd 6841 2d3d 80d2 e33c
000002f0: f431 ffbd 423d d9bd 0215 cfbd c449 d83d
00000300: aec0 e6bd c06b cfbc c8ad f93d e495 373d
00000310: 4050 7c3c 8c96 a53d 46ca ce3d aaf5 f6bd
00000320: 406c 173b 002c c83d c03a eabb c8d7 8abc
00000330: d44d aa3d a08a 99bc f4b4 0cbd 908c b43d
00000340: 9ed0 90bd a207 89bd 0eb2 e93d 7c6b 8fbd
00000350: 24d8 6dbd cc93 a2bd a6d0 f33d 08d8 133d
00000360: 080f d7bd c49d 52bd 8c3e d1bd 26b4 e3bd
00000370: 3ca8 443d 62a5 e73d c034 2cbc f6a9 f43d
00000380: 42c3 8cbd 6894 0cbd 60d4 c23d cc91 ec3d
00000390: c4dc b9bd 429d c23d 60fd 92bc 30b0 f53d
000003a0: e48c 03bd 4e99 a0bd c012 da3c d8d3 d43d
000003b0: 4cbb e7bd 5aa0 8d3d 2079 ae3d e405 a33d
000003c0: fc00 363d 2ed8 ac3d ecb5 9bbd 2042 aebc
000003d0: d8aa c2bc e89c 33bd 54a8 393d 3861 fe3d
000003e0: 04b6 79bd 3811 a2bd 88d0 57bd 5652 dd3d
000003f0: d0f0 0abd 623e 80bd 5076 173d f0ba 313d

convs.1.convs.<subject___has_region___region>.lin_rel.bias f4 [64]
-0.06358507 0.049595147 0.09254323 -0.009167373 0.09446408 -0.08099511 0.07007609 0.053483263
-0.093866006 0.033845946 -0.037059337 0.10778636 -0.034335658 -0.029017463 0.042677343 0.04548824
-0.031443626 0.05501513 -0.01721853 0.122390494 0.08605914 -0.093737856 -0.037984803 0.03488809
-0.04150729 0.022454754 0.050194234 0.08627246 -0.08692521 -0.08488493 -0.08145256 -0.01679413
-0.015124366 -0.109954014 0.0013850927 -0.015048206 -0.10516323 -0.028573588 -0.07411702 0.01989901
0.015745088 -0.11780617 0.06275296 0.086231455 -0.018438876 -0.020907894 0.07465877 -0.07422969
-0.06527284 0.05029124 0.028192416 0.11881958 -0.03989327 -0.04718837 0.027714103 0.08585775
-0.09807916 0.103549376 0.086878985 -0.0803967 0.051413536 0.050353453 0.10538939 0.011045247
00000000: e438 82bd 4824 4b3d 4e87 bd3d c032 16bc
00000010: 6276 c13d c4e0 a5bd 0e84 8f3d 4411 5b3d
00000020: d23c c0bd 0ca2 0a3d 88cb 17bd 18bf dc3d
00000030: 8ca3 0cbd 08b6 edbc 70ce 2e3d e051 3a3d
00000040: 08cb 00bd 8c57 613d e00d 8dbc dea7 fa3d
00000050: c63f b03d a2f9 bfbd f495 1bbd d0e6 0e3d
00000060: 8c03 2abd 08f3 b73c 7898 4d3d 9eaf b03d
00000070: d805 b2bd 26d8 adbd 9ad0 a6bd d893 89bc
00000080: 30cc 77bc 922f e1bd 008c b53a c08c 76bc
00000090: d25f d7bd 2813 eabc aaca 97bd 4003 a33c
000000a0: d8fb 803c 5c44 f1bd a084 803d 1e9a b03d
000000b0: 200d 97bc 0847 abbc b2e6 983d bc05 98bd
000000c0: c4ad 85bd 30fe 4d3d c8f3 e63c ae57 f33d
000000d0: 2067 23bd 9848 41bd b008 e33c 30d6 af3d
000000e0: badd c8bd b211 d43d 9ced b13d 06a7 a4bd
000000f0: 0097 523d 6c3f 4e3d 64d6 d73d 20f7 343c
