model_fold_4.pth (torch, 200819 bytes, 36 tensors)

convs.0.convs.<subject___has_region___region>.lin_rel.weight f4 [64, 64]
-0.001251908 0.0683465 0.009153672 -0.001002498 -0.062084004 0.015589379 0.06799551 -0.040707584
-0.050979134 0.0403587 -0.008769598 -0.0045829173 -0.017064743 -0.056286287 0.02021209 0.031426106
0.0005380772 0.07508542 0.0052315057 -0.001583402 0.062635675 0.024273662 -0.039741 -0.06323483
-0.03753192 -0.031769756 0.07962996 -0.03774774 -0.0032116114 -0.022130128 -0.054336593 0.018718388
-0.011514387 0.03408761 -0.0019722572 0.00636948 -0.034234487 -0.075365916 0.0034438195 -0.07841123
-0.02480803 -0.028203331 -0.035462 -0.050749794 -0.041741148 0.0048999907 -0.043324865 -0.059643373
0.07415132 -0.009294102 0.04239907 -0.037948985 -0.059724264 0.005734442 0.018940425 -0.0006433353
-0.0024703979 -0.071081944 -0.05623816 -0.0060033575 0.00016640592 0.0044191154 0.08431542 -0.0030831303
0.04959631 -0.009122898 -0.08498133 0.04796366 0.07081458 -0.072078496 -0.047373906 -0.020964585
-0.050333567 0.07963594 -0.026279049 -0.0064276257 -0.03399149 0.036922827 -0.034743723 0.015633676
-0.06129944 -0.008854233 -0.0069466475 0.047341295 0.0032682307 0.03197447 -0.051641986 -0.010545941
0.0782404 -0.00028739183 -0.0836069 -0.031822976 0.013355917 -0.01965366 0.016985323 0.0057805832
-0.07160899 -0.007828559 -0.079179585 -0.0047581913 -0.027626384 -0.04115521 -0.014770327 0.075782605
-0.02345625 0.06102036 -0.02199671 -0.040773213 -0.064742416 0.042211976 0.07346096 -0.047011044
0.048560873 0.07299899 -0.0089447405 -0.068594754 0.03881464 -0.020204429 -0.058425143 -0.058005597
-0.031004004 0.067444816 -0.05353661 -0.017057858 -0.02717158 -0.050410453 0.07601081 0.065229125
-0.056940313 -0.0011937232 0.0032574777 0.02324288 0.07954087 0.016331296 0.08391039 0.06264224
0.015519835 0.007985141 0.018524492 -0.0017748042 -0.047033083 0.018905379 -0.08549161 0.059118025
-0.034667745 -0.026445337 -0.07548392 -0.045871526 0.005011443 0.022850292 -0.03399314 -0.01284615
-0.03348889 -0.033376478 0.08528545 0.045333795 -0.083462685 0.024269177 0.0013853195 -0.059385236
0.007376705 0.06729902 0.06480295 -0.018556554 0.07407377 -0.0038274885 0.07089421 0.0059785326
0.024744358 0.01193331 -0.073354945 -0.044191003 0.064573735 0.0024915738 0.08043732 -0.0803992
-0.038106013 -0.044523083 0.07804432 -0.010693011 0.03347353 -0.05942235 -0.031740617 0.010123536
-0.020875905 -0.006266528 0.007205524 -0.006263072 -0.07300609 0.047664627 -0.07315537 -0.036543235
-0.0024604527 0.0009905184 0.0074879304 -0.031007992 0.12945478 0.12213674 0.02500139 0.0080598
-0.05146059 0.036964994 -0.015402861 -0.10271534 -0.021289775 -0.08590709 0.019944403 -0.058153745
0.06549902 0.04022637 0.008805186 0.077431194 -0.0642041 0.022709377 -0.06225203 -0.072062194
0.08002466 0.00022072112 0.052977785 0.047827523 0.07107013 0.07551885 -0.015877485 -0.031650186
0.082503155 -0.08352131 0.12753469 0.07843268 0.024804646 0.039482255 -0.024933884 0.054314267
-0.059058286 -0.009274496 -0.065498434 0.05326818 0.0028858185 -0.07757714 -0.13464268 0.07527771
-0.0037494344 -0.0057140305 0.018828237 -0.103930846 -0.06910496 -0.06186814 -0.05008517 0.11029338
-0.01831535 -0.027599247 0.1134901 0.049619928 0.028459461 -0.07683016 -0.12503025 -0.063986816
00000000: 1017 a4ba 40f9 8b3d 48f9 153c 4066 83ba
00000010: cc4b 7ebd 986a 7f3c 3b41 8b3d ffbc 26bd
00000020: 7fcf 50bd 2a4f 253d 5cae 0fbc 4c2c 96bb
00000030: 5ccb 8bbc 738c 66bd d393 a53c a9b8 003d
00000040: c00d 0d3a 62c6 993d 0d6d ab3b 288a cfba
00000050: 2247 803d 8fd9 c63c 75c7 22bd 4381 81bd
00000060: 12bb 19bd 0121 02bd 0815 a33d 609d 1abd
00000070: e679 52bb 3e4a b5bc 0c90 5ebd 4e57 993c
00000080: d7a6 3cbc 739f 0b3d fc40 01bb 12b7 d03b
00000090: 7639 0cbd 7259 9abd b4b1 613b 1196 a0bd
000000a0: 363a cbbc ac0a e7bc 9a40 11bd 04df 4fbd
000000b0: c4f8 2abd 1a90 a03b 6a75 31bd 9c4c 74bd
000000c0: a6dc 973d 4a46 18bc a6aa 2d3d 6570 1bbd
000000d0: 6ea1 74bd fce7 bb3b f328 9b3c 80a5 28ba
000000e0: 66e6 21bb 6993 91bd fc59 66bd d0b7 c4bb
000000f0: 407d 2e39 3ace 903b 90ad ac3d 580e 4abb
00000100: 8025 4b3d 3578 15bc b10a aebd 8b75 443d
00000110: 3c07 913d e49d 93bd 240b 42bd ecbd abbc
00000120: 922a 4ebd 2b18 a33d 2947 d7bc d59e d2bb
00000130: a93a 0bbd 643c 173d 6f4f 0ebd 3212 803c
00000140: 1f15 7bbd 5811 11bc b4a0 e3bb f2e8 413d
00000150: d02f 563b a9f7 023d 8c86 53bd e2c8 2cbc
00000160: 813c a03d 14ad 96b9 183a abbd cf58 02bd
00000170: c7d2 5a3c b600 a1bc ce24 8b3c 0c6b bd3b
00000180: bca7 92bd 5b43 00bc e828 a2bd 9aea 9bbb
00000190: ba50 e2bc 5e92 28bd 3eff 71bc e933 9b3d
000001a0: 5227 c0bc 7cf0 793d 7232 b4bc d001 27bd
000001b0: ac97 84bd 77e6 2c3d b372 963d a78e 40bd
000001c0: c4e7 463d 7f80 953d f68c 12bc 687b 8cbd
000001d0: 1afc 1e3d c283 a5bc 344f 6fbd 4797 6dbd
000001e0: 1cfc fdbc 8220 8a3d 3449 5bbd ecbc 8bbc
000001f0: ef96 debc 317b 4ebd 8eab 9b3d d996 853d
00000200: 3f3a 69bd b476 9cba 687b 553b da67 be3c
00000210: 53e6 a23d 36c9 853c 36d9 ab3d 934a 803d
00000220: e846 7e3c 1cd4 023c adc0 973c 8ca0 e8ba
00000230: c3a5 40bd 74df 9a3c 3a16 afbd be25 723d
00000240: c4ff 0dbd e4a3 d8bc 5097 9abd c8e3 3bbd
00000250: 0837 a43b 8930 bb3c 643c 0bbd a978 52bc
00000260: a52b 09bd c6b5 08bd 23aa ae3d eeaf 393d
00000270: 7cee aabd 27d0 c63c 9c93 b53a ef3d 73bd
00000280: 49b8 f13b 12d4 893d 69b7 843d ea03 98bc
00000290: fdb3 973d 9ad6 7abb fc30 913d 91e7 c33b
000002a0: aeb4 ca3c ee83 433c 1e3b 96bd a001 35bd
000002b0: 3c3f 843d ac49 233b 52bc a43d 56a8 a4bd
000002c0: 0d15 1cbd d65d 36bd b3d5 9f3d bd31 2fbc
000002d0: 8a1b 093d da64 73bd 7302 02bd 30dd 253c
000002e0: f203 abbc 7257 cdbb 511c ec3b 753a cdbb
000002f0: 3884 95bd fc3b 433d 7cd2 95bd 5cae 15bd
00000300: 8c3f 21bb 48d4 813a 505d f53b 7904 febc
00000310: cb8f 043e d422 fa3d b7cf cc3c 400d 043c
00000320: 57c8 52bd 9b68 173d 485c 7cbc 6c5c d2bd
00000330: e567 aebc 0ef0 afbd 7262 a33c 9f32 6ebd
00000340: 5a24 863d 68c4 243d a043 103c 3f94 9e3d
00000350: 707d 83bd 0409 ba3c fcfb 7ebd 5895 93bd
00000360: f8e3 a33d 6071 6739 3cff 583d cbe6 433d
00000370: 378d 913d a0a9 9a3d 8011 82bc a0a3 01bd
00000380: 6af7 a83d 380d abbd 7498 023e 50a1 a03d
00000390: 1d33 cb3c 25b8 213d 2542 ccbc a378 5e3d
000003a0: 1ae7 71bd 0ef4 17bc 0b24 86bd bc2f 5a3d
000003b0: 0020 3d3b c3e0 9ebd c5df 09be 332b 9a3d
000003c0: 12b9 75bb c33c bbbb ad3d 9a3c b2d9 d4bd
000003d0: e786 8dbd 7269 7dbd 1b26 4dbd 7fe1 e13d
000003e0: 130a 96bc d117 e2bc 7f6d e83d 443e 4b3d
000003f0: d123 e93c 2259 9dbd ee07 00be 850b 83bd

convs.0.convs.<subject___has_region___region>.lin_rel.bias f4 [64]
-0.079572774 0.07377224 0.014839117 0.031916358 -0.023964267 0.028613139 -0.009920461 -0.0847313
0.053485803 0.0043265335 -0.082065925 0.08262709 -0.0037636226 0.005439791 -0.075287625 0.0015138481
-0.08106394 0.009931155 0.007948078 -0.009416338 0.065589026 -0.056274086 0.005080997 -0.041958086
0.01711141 -0.023714386 0.0053941784 0.016348563 0.010035591 -0.029544804 -0.02812968 0.031074028
-0.003191254 -0.034195226 -0.006098862 -0.04428991 0.038964957 -0.045729995 0.0082034115 -0.007648855
0.06514702 -0.00038714428 0.020117728 -0.018181786 -0.0021948498 0.07891212 -0.07573424 0.0511877
-0.08000939 0.021094682 -0.0128398705 -0.020312183 -0.063509196 0.007002 -0.009962461 0.0063975183
0.045838326 0.059742425 0.008408526 0.006645464 0.005663802 0.0066404054 0.08201003 -0.009967484
00000000: 0df7 a2bd e615 973d c51f 733c baba 023d
00000010: b650 c4bc 1a66 ea3c 6e89 22bc 9b87 adbd
00000020: ee13 5b3d 98c5 8d3b 2e12 a8bd 6438 a93d
00000030: 1ca7 76bb 4640 b23b 6630 9abd 506c c63a
00000040: da04 a6bd 48b6 223c a838 023c fc46 1abc
00000050: 8a53 863d a87f 66bd 7e7e a63b 3edc 2bbd
00000060: 3a2d 8c3c ac44 c2bc a6c1 b03b 6ced 853c
00000070: 526c 243c f207 f2bc 3770 e6bc f68e fe3c
00000080: 5c24 51bb 4b10 0cbd f6d8 c7bb 5669 35bd
00000090: b899 1f3d 604f 3bbd 9a67 063c 3fa3 fabb
000000a0: cd6b 853d a0f9 cab9 efcd a43c f8f1 94bc
000000b0: 78d7 0fbb ad9c a13d 8e1a 9bbd 32aa 513d
000000c0: f7db a3bd c1ce ac3c 525e 52bc bc65 a6bc
000000d0: 1c11 82bd 0971 e53b 9739 23bc 46a2 d13b
000000e0: f8c0 3b3d 79b4 743d eac3 093c 31c2 d93b
000000f0: 6a97 b93b c297 d93b e0f4 a73d a84e 23bc

convs.0.convs.<subject___has_region___region>.lin_root.weight f4 [64, 64]
-0.08030294 -0.021836666 0.0135752745 0.04570818 0.0134878885 -0.08856309 0.04646028 0.051999185
0.066781394 0.07976205 0.047977358 0.02159647 0.0002250222 0.07247428 -0.0146179395 -0.08248349
-0.0053962152 -0.02935886 -0.05130788 0.06253015 0.06549073 -0.05658139 -0.02065646 0.042888165
0.045409255 -0.030115789 0.07260747 -0.039428093 -0.05655139 0.0013018618 0.04012765 -0.02353236
0.016021926 0.071527585 0.050343778 0.08584278 0.023551969 -0.048351802 0.04814188 -0.04323832
0.016619282 0.070742175 -0.052676696 0.0323252 0.027156182 0.005913924 0.019246168 -0.07742018
0.016047444 0.0725571 -0.05894063 0.011611983 -0.027303793 -0.046535604 -0.013524822 0.018687842
-0.051874775 0.04796145 -0.0041091135 -0.024099853 0.016240988 -0.050334625 0.027155595 -0.06977165
-0.036905058 0.030297052 0.0630794 0.06045396 -0.038095873 0.050559953 0.03972584 0.10224775
-0.039086457 0.062317405 0.03561916 0.07351605 0.0078368345 0.003976513 -0.05184796 -0.06752495
0.018357169 0.01980929 0.046979703 0.0058418512 -0.09356352 0.03736898 0.06930107 0.088653505
-0.036426045 0.023421925 -0.07735255 -0.0106667075 -0.051722027 0.031153355 0.034109753 0.03807053
0.044535726 -0.015274512 -0.02482371 -0.049073633 0.07439181 -0.041644193 0.026599053 -0.0377058
0.087558396 -0.0340653 0.0068857614 0.06290892 -0.014933026 0.0029643488 0.06267463 -0.04485507
0.0063703014 0.03730346 0.00019683456 0.047395766 -0.005757072 0.050019443 -0.07597721 -0.016286429
-0.024675399 0.05272467 0.044785306 0.023452533 -0.022682007 -0.042516127 -0.009861253 -0.0887579
-0.07483667 0.048669916 0.032583416 -0.085983396 -0.003334947 0.01981087 0.06342737 0.03808229
0.026572471 0.009859486 0.08043614 -0.0417793 0.08125988 -0.008069992 0.036481842 0.0708614
-0.0572206 0.019558398 0.01372203 0.056996193 0.046544973 -0.076255895 0.0025845226 -0.06567729
0.019498624 -0.003542407 -0.061723877 -0.055891313 -0.0372009 0.081216365 0.06830937 0.06587873
0.05767311 -0.034884784 0.030265104 0.0038412209 0.05020717 -0.076866135 -0.004318474 0.07907081
-0.052657533 0.0007613786 0.062452585 0.07706506 -0.08697705 0.082301155 0.030046392 0.016848767
0.05354472 -0.034532364 -0.06404613 0.074855216 0.0065544033 0.035185646 0.046372958 0.035348237
-0.0014826567 0.020664584 0.010319408 0.09438573 0.032596663 0.06654055 -0.05627629 -0.0042344574
-0.08493844 -0.052041292 -0.0028460105 -0.084582046 -0.022203824 0.08679445 -0.036961358 0.002942876
0.04731131 -0.020383684 0.034333993 -0.042056613 -0.04893273 -0.07707415 0.013332099 -0.0011591052
0.08355222 0.09063711 0.015851779 -0.02403971 0.020414226 0.034789883 -0.07670444 0.080639325
0.12180126 -0.0016884943 0.08012317 0.010117315 0.08386923 -0.0856514 -0.069948025 0.039654307
-0.0077112718 -0.04288303 0.0487886 -0.07335004 0.04009435 -0.014252408 0.02158245 0.03699709
-0.025762977 0.030899646 -0.047582317 0.06863248 0.039394043 -0.05828088 -0.0028639054 -0.056617804
0.08135064 0.03563213 -0.10439689 0.06456369 -0.05882071 0.012039384 0.070420526 -0.049066823
-0.04584807 -0.0049069757 -0.021034066 0.0005026697 -0.024383744 -0.08837755 -0.08199278 0.06864005
00000000: de75 a4bd cfe2 b2bc d46a 5e3c 8038 3b3d
00000010: 4efc 5c3c 9160 b5bd 224d 3e3d 19fd 543d
00000020: afc4 883d 495a a33d e883 443d 15eb b03c
00000030: f0f3 6b39 656d 943d 1580 6fbc 1bed a8bd
00000040: bcd2 b0bb fe81 f0bc 3628 52bd cf0f 803d
00000050: 0120 863d e3c1 67bd bd37 a9bc 80ab 2f3d
00000060: 0eff 393d 63b5 f6bc 3ab3 943d 5a7f 21bd
00000070: 6ea2 67bd 3ca3 aa3a e45c 243d f0c6 c0bc
00000080: 6a40 833c 0e7d 923d 4735 4e3d 57ce af3d
00000090: 0ff0 c03c 8a0c 46bd 6c30 453d aa1a 31bd
000000a0: 2925 883c 46e1 903d 85c3 57bd 6e67 043d
000000b0: a476 de3c 97c9 c13b 24aa 9d3c 798e 9ebd
000000c0: ee75 833c d198 943d bb6b 71bd 3040 3e3c
000000d0: 34ac dfbc 1e9c 3ebd 3797 5dbc 3f17 993c
000000e0: a57a 54bd 3a73 443d bea5 86bb 0e6d c5bc
000000f0: d20b 853c ae2b 4ebd 6975 de3c 70e4 8ebd
00000100: c229 17bd 8631 f83c c62f 813d 929e 773d
00000110: 6b0a 1cbd f417 4f3d 90b7 223d 4567 d13d
00000120: 1f19 20bd 8940 7f3d 65e5 113d 958f 963d
00000130: 1166 003c 694d 823b 875e 54bd 854a 8abd
00000140: c661 963c 1847 a23c ca6d 403d 006d bf3b
00000150: 3b9e bfbd 3710 193d b8ed 8d3d f88f b53d
00000160: 7a33 15bd 56df bf3c 046b 9ebd 6ac3 2ebc
00000170: 7ada 53bd 5235 ff3c abb6 0b3d d8ef 1b3d
00000180: 186b 363d f241 7abc 185b cbbc 6f01 49bd
00000190: bc5a 983d 1a93 2abd 42e6 d93c 6671 1abd
000001a0: d151 b33d 0e88 0bbd f4a1 e13b 64d6 803d
000001b0: a7a9 74bc 8545 423b 8e5b 803d f3b9 37bd
000001c0: f6bd d03b 83cb 183d 6065 4e39 1022 423d
000001d0: d2a5 bcbb 30e1 4c3d f199 9bbd 1e6b 85bc
000001e0: 1024 cabc d3f5 573d cc70 373d 871f c03c
000001f0: 9ecf b9bc 6425 2ebd 1891 21bc b4c6 b5bd
00000200: f843 99bd 1b5a 473d 3076 053d 1018 b0bd
00000210: 208f 5abb 684a a23c 35e6 813d 2dfc 1b3d
00000220: 83ae d93c ae89 213c b4bb a43d c520 2bbd
00000230: 946b a63d 0038 04bc fc6d 153d c81f 913d
00000240: 2660 6abd ef38 a03c 5ed2 603c d774 693d
00000250: f1a5 3e3d 0d2c 9cbd 1861 293b d181 86bd
00000260: 94bb 9f3c ba27 68bb 2dd2 7cbd 4aee 64bd
00000270: f95f 18bd c454 a63d c8e5 8b3d 6deb 863d
00000280: a43a 6c3d 59e3 0ebd 86ee f73c febc 7b3b
00000290: 09a6 4d3d fe6b 9dbd fc81 8dbb e0ef a13d
000002a0: 6daf 57bd 4197 473a 48ce 7f3d 49d4 9d3d
000002b0: 0621 b2bd 828d a83d da23 f63c 6d06 8a3c
000002c0: b551 5b3d cf71 0dbd 9e2a 83bd b14d 993d
000002d0: 52c6 d63b d31e 103d 92f1 3d3d 50c9 103d
000002e0: b455 c2ba c648 a93c bc12 293c 4e4d c13d
000002f0: 1484 053d 6946 883d f881 66bd 34c1 8abb
00000300: 34f4 adbd 4029 55bd 2284 3abb 5a39 adbd
00000310: cbe4 b5bc 4ac1 b13d cb64 17bd 44dd 403b
00000320: 81c9 413d affb a6bc cda1 0c3d 8e43 2cbd
00000330: b06d 48bd 0dd9 9dbd e06e 5a3c 1eed 97ba
00000340: 6d1d ab3d f39f b93d 97db 813c edee c4bc
00000350: bc3b a73c d67f 0e3d 3817 9dbd 3b26 a53d
00000360: f072 f93d 7850 ddba 9e17 a43d 18c3 253c
00000370: a1c3 ab3d 006a afbd e940 8fbd 8e6c 223d
00000380: d6ae fcbb 1ea6 2fbd 8ed6 473d 8c38 96bd
00000390: f939 243d ef82 69bc aecd b03c 438a 173d
000003a0: e10c d3bc 4121 fd3c ade5 42bd 308f 8c3d
000003b0: a65b 213d efb7 6ebd 5cb0 3bbb 12e8 67bd
000003c0: 2a9b a63d fff2 113d 09ce d5bd f839 843d
000003d0: fced 70bd d640 453c a338 903d 4bfa 48bd
000003e0: 30cb 3bbd b2ca a0bb a24f acbc 98c5 033a
000003f0: 6bc0 c7bc 4aff b4bd d5eb a7bd 2893 8c3d

convs.0.convs.<region___rev_has_region___subject>.lin_rel.weight f4 [64, 64]
0.059761472 0.0034095435 -0.07927197 0.06565763 0.01653609 0.06505844 0.046402574 -0.0473994
-0.03517704 0.007727078 -0.072698645 -0.08083124 0.057451762 -0.04050153 -0.0018507363 0.005854757
0.0034341593 0.02855971 -0.0076131667 0.072007954 -0.069022775 -0.008914745 -0.033275247 0.00636052
-0.04739531 0.011539085 0.0010562917 -0.07833184 -0.0010154066 0.079723746 0.031208903 0.06406801
0.027150083 -0.009757532 0.0019587006 -0.030881587 0.0046399212 -0.003893432 -0.059898373 -0.063464284
0.04543598 -0.047686055 0.0017983995 0.008663465 0.046810545 0.04270103 -0.052040942 -0.020522917
-0.008453033 -0.0046325848 -0.0051213885 0.043569222 0.009214349 -0.012830988 0.013714587 0.020259285
-0.0011174064 0.030930065 -0.027269203 0.03627636 0.008894269 0.00417302 -0.050359044 0.031412296
-0.017528541 0.036427982 0.00017949473 -0.0049152337 0.07904063 0.00900769 0.05458143 -0.061035898
-0.05286578 0.0056309816 -0.008882883 0.061598938 0.04102865 0.045309752 -0.038304366 0.0032339094
0.010785793 -0.0009761732 -0.043326914 -0.007123755 -0.008417288 -0.03962952 0.055535518 0.0022813808
-0.0049574543 0.0025930824 -0.0007581855 0.0717224 -0.007193974 0.06544009 -0.037208952 -0.00869675
-0.061030693 0.024971299 0.0012764009 0.004149693 -0.00023593381 0.06391515 0.008852523 0.009254482
-0.008216617 0.06864085 0.059787333 0.0053899107 -0.07490408 0.0028374768 -0.055380166 -0.010242633
-0.060893662 0.0834518 0.06798259 0.0006645983 0.014813257 0.048888393 0.014612847 0.08121506
-0.06948507 0.077946246 0.017219137 -0.027261518 0.00863293 -0.0061706104 0.007303429 0.015473902
0.07756985 -0.018860804 -0.00078678504 0.054648038 -0.009538208 0.07680139 0.008587731 0.041889366
0.002394384 -0.047701284 0.008118801 0.005032577 -0.056926597 -0.009464344 0.03468987 -0.009781679
0.08024138 -0.043720923 -0.009322511 0.04217648 0.07783505 0.0006518541 0.002064907 -0.0067232167
-0.04964934 0.04655226 -0.07814087 0.0016798209 -0.046380956 0.002009614 0.06337461 0.035347097
0.004767823 -0.03711833 -0.0010406368 -0.080355324 0.08114632 -0.07422742 -0.077096805 -0.008934729
-0.0062537505 -0.081744425 -0.08477 -0.0743476 0.017168934 -0.005815008 -0.0035373708 -0.034210946
-0.0017487034 0.056917775 -0.00079601444 0.07164478 -0.06555523 0.0025384119 0.010191129 0.029212756
0.028295904 0.02385013 -0.0042049894 -0.073925465 0.032636028 -0.02433383 0.040753145 0.02949609
-0.03959195 -0.019729478 -0.08043768 -0.07110133 -0.044296667 -0.0038416358 0.0019158805 -0.036227137
-0.033206064 -0.06304042 -0.007563764 -0.0489459 0.003296482 -0.054536916 -0.042514417 0.0067784595
0.014783479 -0.0075410972 -0.01006791 0.06309948 0.06072238 -0.0672783 -0.010298798 -0.007025684
-0.031004725 0.08163584 -0.07751636 0.08404389 0.008486015 0.00754481 0.004943017 0.0015163636
0.024214948 0.030142443 -0.067693375 -0.026994005 0.005686518 0.08305707 0.002305117 -0.067726724
0.0050867023 0.033666484 0.031621024 0.082051694 0.03483868 -0.01708199 -0.035054147 -0.0066094613
0.006456979 -0.034358807 -0.009833276 -0.0833599 0.001423395 -0.008475029 0.007907188 0.08488997
-0.074377514 -0.0505167 -0.009650301 0.028092146 0.07673064 -0.009002045 -0.0038674967 0.032707214
00000000: 72c8 743d a672 5f3b 5859 a2bd 8277 863d
00000010: b276 873c 5c3d 853d a010 3e3d e025 42bd
00000020: cd15 10bd 6e33 fd3b 07e3 94bd d98a a5bd
00000030: 8a52 6b3d efe4 25bd 6894 f2ba 43d9 bf3b
00000040: a20f 613b 0ef6 e93c df77 f9bb e878 933d
00000050: d05b 8dbd 270f 12bc a04b 08bd e96b d03b
00000060: 9621 42bd 6e0e 3d3c 4573 8a3a 726c a0bd
00000070: 6417 85ba 3446 a33d d0a9 ff3c 1736 833d
00000080: da69 de3c 0ede 1fbc 8b5d 003b 62fb fcbc
00000090: 7b0a 983b f328 7fbb ff57 75bd 90f9 81bd
000000a0: 141b 3a3d 7452 43bd 46b8 eb3a 35f1 0d3c
000000b0: 6abc 3f3d 46e7 2e3d e228 55bd ad1f a8bc
000000c0: 977e 0abc f0cc 97bb 52d1 a7bb a475 323d
000000d0: c8f7 163c 1039 52bc 26b3 603c cdf6 a53c
000000e0: f075 92ba 0c61 fd3c aa63 dfbc 8596 143d
000000f0: 45b9 113c d4bd 883b 4945 4ebd 2eaa 003d
00000100: 0498 8fbc 8235 153d c036 3c39 f80f a1bb
00000110: 0ee0 a13d fd94 133c c790 5f3d c700 7abd
00000120: ca89 58bd 1984 b83b 8389 11bc 2b4f 7c3d
00000130: a80d 283d b896 393d 0ae5 1cbd ffef 533b
00000140: e5b6 303c e0e5 7fba 9077 31bd 636e e9bb
00000150: aae8 09bc 9052 22bd 3679 633d 3883 153b
00000160: 2472 a2bb b4f0 293b f8c0 46ba 32e3 923d
00000170: 6ebb ebbb 7405 863d 6a68 18bd d07c 0ebc
00000180: 52fb 79bd 9c90 cc3c e84c a73a 26fa 873b
00000190: 0065 77b9 f2e5 823d 2c0a 113c 1ca0 173c
000001a0: fd9e 06bc 9393 8c3d 90e3 743d d99d b03b
000001b0: 4f67 99bd f6f4 393b 50d6 62bd b7d0 27bc
000001c0: a26b 79bd c7e8 aa3d 753a 8b3d 7038 2e3a
000001d0: 4eb3 723c 323f 483d b96a 6f3c 1554 a63d
000001e0: 304e 8ebd 48a2 9f3d 260f 8d3c 8c53 dfbc
000001f0: 2271 0d3c d532 cabb 9a51 ef3b 4086 7d3c
00000200: f1dc 9e3d f981 9abc 4040 4eba 9fd6 5f3d
00000210: 2546 1cbc 0c4a 9d3d 8eb3 0c3c 2f94 2b3d
00000220: 19eb 1c3b 6c62 43bd b804 053c 51e8 a43b
00000230: dd2b 69bd 5610 1bbc f716 0e3d 5643 20bc
00000240: 9855 a43d b614 33bd 72bd 18bc 3fc1 2c3d
00000250: fc67 9f3d 30e1 2a3a 6453 073b 6e4e dcbb
00000260: 1b5d 4bbd 95ad 3e3d 5208 a0bd 702d dc3a
00000270: f5f9 3dbd bab3 033b 8cca 813d 1ec8 103d
00000280: 663b 9c3b 6409 18bd fa65 88ba 5591 a4bd
00000290: 0b30 a63d 8c04 98bd eee4 9dbd f862 12bc
000002a0: 43ec ccbb 9f69 a7bd e59b adbd 8e43 98bd
000002b0: dda5 8c3c d38b bebb 3cd3 67bb c720 0cbd
000002c0: c034 e5ba 9d22 693d a0ab 50ba 80ba 923d
000002d0: d241 86bd 7c5b 263b b1f8 263c 974f ef3c
000002e0: d0cc e73c 5961 c33c 02ca 89bb 3c66 97bd
000002f0: 5bad 053d be57 c7bc c5ec 263d c9a1 f13c
00000300: 2b2b 22bd b79f a1bc 83bc a4bd 939d 91bd
00000310: 6c70 35bd f4c3 7bbb 481e fb3a e862 14bd
00000320: 1503 08bd 561b 81bd 74d9 f7bb 7f7b 48bd
00000330: ca09 583b 1a62 5fbd 9923 2ebd d71d de3b
00000340: 6836 723c 4f1b f7bb e0f3 24bc 4d3a 813d
00000350: 08b8 783d 35c9 89bd 4abc 28bc b637 e6bb
00000360: 9ffd fdbc b130 a73d e6c0 9ebd 341f ac3d
00000370: ed08 0b3c 743a f73b 08f9 a13b b8c0 c63a
00000380: 6d5e c63c 49ed f63c d3a2 8abd 8822 ddbc
00000390: f855 ba3b d319 aa3d 7211 173b 4fb4 8abd
000003a0: 5aae a63b dee5 093d 0c85 013d b80a a83d
000003b0: 01b3 0e3d 88ef 8bbc f094 0fbd 2e94 d8bb
000003c0: 1195 d33b d2bb 0cbd c01b 21bc 98b8 aabd
000003d0: 3691 ba3a d9da 0abc 268d 013c cbda ad3d
000003e0: 3d53 98bd 99ea 4ebd 4c1c 1ebc 8021 e63c
000003f0: f424 9d3d 507d 13bc d475 7dbb 00f8 053d

convs.0.convs.<region___rev_has_region___subject>.lin_rel.bias f4 [64]
0.05286314 0.0122960685 -0.06456916 0.057579797 0.06781551 -0.0008776244 -0.0008844929 -0.0017019697
0.0042319368 0.056045085 0.016976558 0.054241717 0.003893327 0.0036533156 0.07170551 -0.085607216
0.03644886 0.007339726 0.075047046 -0.014027174 -0.07541956 -0.004148001 0.002596308 -0.020844102
-0.008352449 -3.1838194e-05 0.009951249 0.049857385 -0.0011293695 0.003609486 0.06466371 -0.05140677
0.030859746 -0.04259621 -0.013424982 0.017108232 0.0042359703 0.009005911 -0.004687742 -0.0020035638
-0.029885137 -0.049958818 -0.003793376 0.0042830473 -0.05891212 -0.00978961 0.017224569 -0.010010087
0.05085843 -0.043417335 -0.060437538 -0.051696807 0.001376499 0.02168543 0.016289784 0.010130794
-0.002083242 0.036519274 -0.009847335 -0.06800561 -0.011022579 0.07265423 -0.07459152 0.001885592
00000000: 0587 583d 7375 493c d63c 84bd cbd8 6b3d
00000010: dce2 8a3d 6010 66ba 50dd 67ba a014 dfba
00000020: 0fac 8a3b 888f 653d 6c12 8b3c 902c 5e3d
00000030: 3027 7f3b 776c 6f3b 57da 923d d652 afbd
00000040: 664b 153d 1682 f03b 44b2 993d 3bd2 65bc
00000050: 9275 9abd f4eb 87bb d226 2a3b 40c1 aabc
00000060: b6d8 08bc 008a 05b8 900a 233c 4237 4c3d
00000070: 5a07 94ba 208d 6c3b 686e 843d e88f 52bd
00000080: 94cd fc3c 5d79 2ebd 75f4 5bbc 9026 8c3c
00000090: e5cd 8a3b 878d 133c a19b 99bb 394e 03bb
000000a0: add1 f4bc 9ea1 4cbd 4a9a 78bb ce58 8c3b
000000b0: d64d 71bd 9a64 20bc 8a1a 8d3c 5901 24bc
000000c0: ee50 503d 60d6 31bd 5a8d 77bd 08c0 53bd
000000d0: a46b b43a a5a5 b13c 2772 853c a1fb 253c
000000e0: 0087 08bb 3c95 153d b756 21bc 8646 8bbd
000000f0: 0c98 34bc becb 943d 70c3 98bd f825 f73a

convs.0.convs.<region___rev_has_region___subject>.lin_root.weight f4 [64, 64]
0.0859469 -0.018777126 -0.0097554 0.12641351 -0.11822905 -0.025387464 -0.029528977 0.046838596
0.05024652 -0.071354955 -0.08091478 0.004776304 0.011164978 -0.10603167 -0.06388264 -0.09393076
-0.0016785404 0.0777158 -0.037021846 -0.14878155 0.073409416 0.020339984 -0.06831512 -0.08720883
-0.06882497 -0.11249317 0.042734906 -0.023795217 0.037064377 0.060042784 -0.09594161 0.100224964
-0.0056795375 -0.10089058 0.042779695 0.016057214 -0.116523266 0.059194393 -0.09714747 0.016930707
0.105239324 0.120131806 0.003457801 0.06413484 -0.049966797 0.0016344569 0.09109507 0.08913534
-0.0053272694 0.074311 -0.07375712 0.022986377 0.09439297 -0.1067027 0.03387456 -0.061514284
-0.066496074 -0.025038738 0.14462829 -0.03361544 0.09150846 -0.06673479 -0.12889515 -0.010269038
-0.08907964 -0.019907048 -0.10900135 -0.027942212 -0.077348754 0.12997581 0.012984184 0.06538795
-0.018645056 0.11777257 -0.019779336 0.03196024 0.12261364 -0.11568327 0.047818173 -0.052768577
0.07778755 -0.0030849213 -0.008390584 0.08698923 0.112285204 -0.014796567 -0.007451672 -0.0011900491
0.036616363 -0.068211734 -0.02522501 -0.1213149 -0.06529555 -0.002568448 -0.11048068 -0.08745127
-0.03804444 0.064765155 0.03213769 0.004070937 0.058887877 0.0063954326 0.07314503 -0.038690317
0.12111106 0.0082725575 0.15037459 -0.054692075 0.10177911 0.002035908 -0.13085957 -0.049832694
-0.025988556 -0.11446413 -0.015381431 -0.004061005 0.024855975 0.048062354 -0.010323901 0.10170112
0.13398845 -0.05752554 0.11037798 -0.069993705 0.0068766642 0.016506094 0.01642641 -0.08619849
0.053736497 0.0016187467 -0.025838405 -0.12569232 -0.03174978 -0.033351764 -0.08629032 0.0656044
0.041813094 -0.060528345 0.013263097 -0.033477075 0.07471529 0.09447855 0.058004417 -0.003872625
0.03773885 -0.10629845 -0.06975285 -0.029192893 -0.10553644 -0.030219916 0.10944257 0.029478468
-0.112233825 -0.13413393 0.09842607 -0.070004836 -0.12908126 -0.095668405 -0.019492652 -0.04175806
0.046186633 0.086576395 -0.09513925 0.03049158 0.1151326 0.052168585 -0.059070297 0.10742674
0.123501785 0.0793003 0.062401004 -0.03061007 0.04604018 -0.04285142 0.068862304 -0.029772576
-0.10898606 -0.00042033568 -0.034401804 -0.039020084 0.051446915 0.07225824 -0.09706916 0.017297268
-0.1445075 0.09445228 0.017661985 -0.013648708 -0.0764663 0.09687886 0.13688171 0.041496422
-0.066355884 -0.09015788 -0.0068760924 0.078404196 0.1056976 -0.086816184 -0.1540523 0.0248501
-0.0617433 0.0724057 -0.00019314559 0.045848943 -0.03481166 0.0028005645 -0.103358455 -0.043306317
0.024810694 -0.023708474 0.07041588 -0.05214588 -0.024392007 -0.14978969 0.074543506 0.069042385
0.120879404 -0.029400496 -0.085856445 0.1041638 -0.0997956 0.084413715 -0.054191127 -0.104666606
0.114985384 -0.021864934 -0.008875896 0.068582885 0.031755228 0.0720935 -0.05426607 -0.035803486
0.0838138 -0.10719289 -0.0108555155 0.11862014 0.099760406 0.057141606 0.03144337 -0.13665892
-0.035128325 -0.11395343 0.050013494 0.14928973 0.058034774 0.03126353 0.06479229 -0.060526125
0.033965252 0.029843243 -0.07769298 -0.1301954 -0.024755374 -0.016211735 0.123748854 0.08527062
00000000: ee04 b03d 7dd2 99bc 1dd5 1fbc 8b72 013e
00000010: 1222 f2bd 5ff9 cfbc c1e6 f1bc d4d9 3f3d
00000020: 4ccf 4d3d 8c22 92bd a6b6 a5bd 8b82 9c3b
00000030: 50ed 363c 2227 d9bd e7d4 82bd c55e c0bd
00000040: 7802 dcba 7629 9f3d 38a4 17bd 315a 18be
00000050: ad57 963d 0aa0 a63c cce8 8bbd 8b9a b2bd
00000060: 1bf4 8cbd d262 e6bd cc0a 2f3d 30ee c2bc
00000070: d1d0 173d 6cef 753d 097d c4bd bf42 cd3d
00000080: 6a1b babb b89f cebd c339 2f3d 6b8a 833c
00000090: c0a3 eebd d275 723d 41f5 c6bd 44b2 8a3c
000000a0: b787 d73d aa07 f63d 469c 623b 2159 833d
000000b0: fca9 4cbd 463b d63a 0d90 ba3d 978c b63d
000000c0: 6090 aebb 5e30 983d f90d 97bd ed4d bc3c
000000d0: 1a51 c13d f286 dabd 0dc0 0a3d 67f6 7bbd
000000e0: 182f 88bd 0a1e cdbc 7019 143e 58b0 09bd
000000f0: ca68 bb3d 40ac 88bd 17fd 03be 783f 28bc
00000100: 636f b6bd 1b14 a3bc 1a3c dfbd 11e7 e4bc
00000110: 0669 9ebd 6118 053e 9dbb 543c 1eea 853d
00000120: 84bd 98bc bf32 f13d 4608 a2bc bee8 023d
00000130: dc1c fb3d 5aeb ecbd fddc 433d dd23 58bd
00000140: 144f 9f3d 642c 4abb a978 09bc 6927 b23d
00000150: c9f5 e53d 4d6d 72bc 282d f4bb 6cfb 9bba
00000160: 0afb 153d 98b2 8bbd aea4 cebc f273 f8bd
00000170: acb9 85bd 6853 28bb b243 e2bd a719 b3bd
00000180: 7dd4 1bbd 98a3 843d cfa2 033d 7f65 853b
00000190: 6a34 713d c790 d13b 10cd 953d bd79 1ebd
000001a0: 1309 f83d 9f89 073c ccfb 193e cc04 60bd
000001b0: 9171 d03d de6c 053b 0d00 06be 5e1d 4cbd
000001c0: f4e5 d4bc 2b6c eabd 6602 7cbc 2e12 85bb
000001d0: c29e cb3c 08dd 443d 9425 29bc ad48 d03d
000001e0: 4534 093e e79f 6bbd da0d e23d dc58 8fbd
000001f0: a455 e13b ca37 873c ae90 863c d588 b0bd
00000200: cd1a 5c3d 202c d43a 10ab d3bc 7db5 00be
00000210: 0f0c 02bd dc9b 08bd fbb8 b0bd 9a5b 863d
00000220: 3544 2b3d 92ec 77bd 764d 593c 421f 09bd
00000230: 5404 993d f87d c13d 0a96 6d3d decb 7dbb
00000240: 0d94 1a3d 00b3 d9bd 95da 8ebd ef25 efbc
00000250: 7d23 d8bd c28f f7bc 6d23 e03d d47c f13c
00000260: d9da e5bd 685a 09be 9b93 c93d b25e 8fbd
00000270: e12d 04be cced c3bd 0eaf 9fbc 800a 2bbd
00000280: 322e 3d3d f74e b13d 5ed8 c2bd 7ac9 f93c
00000290: a4ca eb3d baae 553d b2f3 71bd 8d02 dc3d
000002a0: 81ee fc3d 3268 a23d 3298 7f3d f8c1 fabc
000002b0: a194 3c3d f884 2fbd ae07 8d3d 9ee5 f3bc
000002c0: 1534 dfbd 8060 dcb9 e8e8 0cbd 86d3 1fbd
000002d0: 00ba 523d 21fc 933d 32cc c6bd 00b3 8d3c
000002e0: c6f9 13be 3270 c13d deaf 903c d59e 5fbc
000002f0: 5d9a 9cbd 6c68 c63d b82a 0c3e 27f8 293d
00000300: 98e5 87bd b2a4 b8bd d850 e1bb 6192 a03d
00000310: fc77 d83d afcc b1bd e3bf 1dbe 7092 cb3c
00000320: 8be6 7cbd 7149 943d 2087 4ab9 1acc 3b3d
00000330: ac96 0ebd ad89 373b 99ad d3bd f761 31bd
00000340: cc3f cb3c 4638 c2bc 3336 903d eb96 55bd
00000350: bfd1 c7bc 7862 19be 44aa 983d 1866 8d3d
00000360: 9f8f f73d 4fd9 f0bc 81d5 afbd d553 d53d
00000370: a361 ccbd 19e1 ac3d 84f7 5dbd 725b d6bd
00000380: 757d eb3d 171e b3bc 356c 11bc 2f75 8c3d
00000390: c511 023d c2a5 933d 1946 5ebd ada6 12bd
000003a0: 92a6 ab3d f287 dbbd 55db 31bc 1eef f23d
000003b0: 2f4f cc3d 510d 6a3d c3ca 003d 51f0 0bbe
000003c0: b8e2 0fbd 6a60 e9bd f3da 4c3d 68df 183e
000003d0: dfb5 6d3d 300e 003d d2b1 843d 3eea 77bd
000003e0: 261f 0b3d d179 f43c 7f1d 9fbd f151 05be
000003f0: c8cb cabc 79ce 84bc 0a70 fd3d 5da2 ae3d

convs.0.convs.<region___is_functionally_connected___region>.att_src f4 [1, 1, 64]
0.22914605 -0.25880376 0.0034726218 -0.17779453 -0.22286972 0.051469464 0.010706654 0.10619668
-0.0041563353 0.009290302 -0.00016640173 -0.077074155 0.1298894 -0.054541484 0.16535468 -0.06903772
-0.09956947 0.029065069 -0.25370848 0.2008683 0.14582765 -0.18111421 -0.18889071 -0.07473552
0.15149711 -0.22664496 0.006584575 0.06352002 -0.0338666 -0.007675635 -0.053464316 -0.010443356
-0.22642581 0.0050612204 -0.058190547 -0.23974268 0.04389892 -0.13093816 -0.25199035 0.11505928
0.11644235 -0.0035942988 0.08654728 0.013835819 -0.117579415 0.004597554 0.20930243 -0.07932114
-0.2101178 0.04671027 0.20731458 -0.23842067 0.25805202 -0.2250904 -0.21597923 -0.11363613
0.20207888 0.15534595 0.18081388 -0.22728647 -0.11612197 -0.06457547 -0.0089588165 -0.0407276
00000000: 43a5 6a3e ed81 84be ed94 633b c50f 36be
00000010: f637 64be a5d1 523d f66a 2f3c a57d d93d
00000020: de31 88bb 5a36 183c 207c 2eb9 0ed9 9dbd
00000030: ba01 053e e466 5fbd bd52 293e a663 8dbd
00000040: 14eb cbbd de19 ee3c 14e6 81be 6bb0 4d3e
00000050: d853 153e 0176 39be 916c 41be f00e 99bd
00000060: 0f22 1b3e 9e15 68be 6bc3 d73b c916 823d
00000070: b4b7 0abd e583 fbbb 66fd 5abd 9c1a 2bbc
00000080: 2bdc 67be 98d8 a53b 3659 6ebd 1b7f 75be
00000090: 5bcf 333d a714 06be e104 81be 33a4 eb3d
000000a0: 5479 ee3d 548e 6bbb b33f b13d a2af 623c
000000b0: 7acd f0bd 14a7 963b 6053 563e 1f73 a2bd
000000c0: 1f29 57be 4553 3f3d 464a 543e 8c24 74be
000000d0: 651f 843e 197e 66be a929 5dbe 0fba e8bd
000000e0: c4ed 4e3e 0213 1f3e 4627 393e c9bd 68be
000000f0: 5bd1 edbd 2540 84bd 00c8 12bc fcd1 26bd

convs.0.convs.<region___is_functionally_connected___region>.att_dst f4 [1, 1, 64]
0.24996859 -0.0010160811 -0.15809135 -0.11353554 0.07863394 -0.025234316 0.004057162 -0.15372154
0.11058564 0.09536778 0.10503381 0.0038527523 0.16234021 -0.035454944 0.07594501 0.26038337
0.20300254 -0.16183153 -0.07215442 -0.014278348 0.18588406 0.060577653 0.07646567 -0.230685
0.1062214 0.029639231 0.07945386 -0.009892877 -0.22474232 -0.00847623 0.08248003 0.008282622
0.01124023 0.22311111 -0.16629061 -0.21836863 -0.021315096 0.05607559 0.019917455 -0.10607941
0.25132352 -0.22103617 0.1242819 0.0011077984 -0.23411244 0.083155364 -0.06818308 0.20955817
0.17489715 -0.09902726 -0.21101458 -0.009145285 0.15741876 2.276746e-05 -0.25981927 -0.20115969
0.002458174 0.11824292 -0.12913097 -0.2415351 0.12798305 0.21868451 0.15251185 0.003346059
00000000: c4f7 7f3e 062e 85ba b3e2 21be 5285 e8bd
00000010: d50a a13d 32b8 cebc f1f1 843b 2e69 1dbe
00000020: b97a e23d 2f50 c33d f71b d73d 757e 7c3b
00000030: 833c 263e 3439 11bd 0f89 9b3d f850 853e
00000040: e6df 4f3e 2ab7 25be b2c5 93bd bbef 69bc
00000050: 6458 3e3e 4620 783d 089a 9c3d b038 6cbe
00000060: 9b8a d93d f9cd f23c b5b8 a23d bc15 22bc
00000070: da22 66be e3df 0abc 4aeb a83d d6b3 073c
00000080: f128 383c 3d77 643e 1648 2abe 079c 5fbe
00000090: ff9c aebc 85af 653d ee29 a33c 2940 d9bd
000000a0: 7aad 803e 4e57 62be 8287 fe3d 8c33 913a
000000b0: 2cbb 6fbe 5c4d aa3d 92a3 8bbd 6b96 563e
000000c0: 3d18 333e cece cabd 3514 58be 1bd6 15bc
000000d0: 6232 213e c0fc be37 0807 85be cefc 4dbe
000000e0: 5119 213b 5829 f23d e93a 04be fa54 77be
000000f0: fd0d 033e d5ee 5f3e 112c 1c3e 8e49 5b3b

convs.0.convs.<region___is_functionally_connected___region>.bias f4 [64]
7.049879e-06 0.00019974311 0.00049126847 0.0009098975 0.000574522 -0.0007739788 -0.00055364426 0.0007033912
0.0014589137 -0.0008358193 0.000505625 0.00015146675 5.0867093e-06 -0.0010412047 0.0004981625 -0.00027037342
-0.0022939877 -5.1696086e-05 -0.000112020585 -0.0016483561 -0.0013961481 -5.765166e-05 -0.0006085145 -0.00031124445
0.0009504154 -0.00011808594 -0.001336302 -1.6229711e-05 0.00023646129 -6.4172564e-05 0.0007834169 0.0010646809
0.00047329135 -0.0012912431 0.00014149971 -0.0001737994 -0.0009215368 -0.0015278389 0.0009179887 0.00012666242
0.0022745102 0.00090019946 0.00026576364 0.0008517901 -0.0006251129 0.0010020111 -0.0009890168 4.3440028e-05
0.00016716777 -0.000118927914 -0.002295455 -7.822558e-05 -0.0020969154 -3.817304e-05 -0.000302827 0.00088051695
8.772302e-05 0.00065421546 0.002634525 6.623665e-05 -0.0002746476 0.000183067 0.0005126427 3.2851905e-05
00000000: 008e ec36 2272 5139 78c8 003a 3086 6e3a
00000010: 859b 163a d7e4 4aba 7022 11ba c963 383a
00000020: 0539 bf3a e21a 5bba eb8b 043a 0cd3 1e39
00000030: 80ae aa36 0879 88ba 1f97 023a e8c0 8db9
00000040: ba56 16bb 40d4 58b8 98ec eab8 a70d d8ba
00000050: f5fe b6ba 00cf 71b8 b884 1fba 862e a3b9
00000060: 4c25 793a e8a4 f7b8 db26 afba 0a25 88b7
00000070: 98f2 7739 6294 86b8 385e 4d3a c38c 8b3a
00000080: 1724 f839 ee3e a9ba 8a5f 1439 ec3d 36b9
00000090: 4a93 71ba c441 c8ba 2ea5 703a afd0 0439
000000a0: f30f 153b 5dfb 6b3a 3156 8b39 aa4a 5f3a
000000b0: 9ede 23ba ea55 833a e6a1 81ba 6033 3638
000000c0: c249 2f39 f068 f9b8 586f 16bb 0a0d a4b8
000000d0: 676c 09bb fd1b 20b8 c0c4 9eb9 7ed2 663a
000000e0: f0f7 b738 a87f 2b3a ffa7 2c3b 88e8 8a38
000000f0: 94fe 8fb9 acf5 3f39 df62 063a 77ca 0938

convs.0.convs.<region___is_functionally_connected___region>.lin.weight f4 [64, 64]
0.08237196 -0.008058849 -0.13173842 0.009841865 -0.045168586 0.010120309 0.04221771 -0.045682672
-0.009240946 0.07937902 0.12882626 0.006366494 0.10983436 -0.13096571 -0.002512635 0.036596365
-0.08716723 0.047732864 0.09091934 -0.17660005 -0.0152458325 0.022268074 0.101797044 0.004307307
0.008791443 0.0002728263 -0.13640237 -0.121186994 -0.038219277 -0.04088439 -0.17199603 0.0023411429
0.1679838 -0.0006018318 -0.17052346 -0.00092862453 -0.06615796 0.00059995614 0.12653911 -0.00990648
0.006548833 -0.010054238 0.004320309 -0.023818327 0.06827918 0.09527223 0.113812014 0.13824525
0.003187851 0.16634433 -0.14184314 -0.1307986 0.08314976 -0.086406335 0.004862829 0.07214454
0.12958705 -0.010744427 -0.01118456 -0.012658155 -0.08138419 -0.012096573 0.14241998 -0.17527115
-0.009910194 0.1274686 -0.015759844 -0.095358096 -0.0004752986 0.059837382 -0.15411445 0.0012832247
-0.007293406 -0.14077984 0.05688955 -0.09842216 -0.13056605 0.04097833 0.1717919 0.1601925
-0.00028344803 0.12970679 0.1481739 0.0045115883 0.06295782 -0.029194156 0.016645016 0.14756645
0.007154436 -0.06320047 0.0067977905 0.004571044 -0.008756317 0.06381078 0.13391277 -0.12647185
0.12891735 0.008780645 0.1402796 -0.12067605 0.009859771 -0.12989247 0.023207106 -0.09966687
-0.00880489 0.13354702 0.1482259 0.17541622 -0.00235184 0.1438278 -0.10434501 0.0033551196
-0.17073318 -0.039746284 -0.06949604 0.13989238 0.16971926 -0.15946048 0.0066921925 0.01243532
0.04063285 0.0065296628 0.08319498 0.16570316 0.16881293 0.115878105 0.16221485 -0.16247119
0.1284064 0.15101121 0.1662714 -0.07354292 -0.14970736 0.013335264 0.004812534 0.0845914
-0.010701768 -0.0031682076 -0.109073065 0.025331214 0.08963189 -0.008928825 -0.1646034 0.10384289
0.030418405 -0.058654092 0.11366296 0.0020230636 -0.023312759 -0.009163414 0.015971169 -0.011221504
-0.16275157 0.055351768 -0.043363083 -0.16382208 0.06571611 0.009803923 -0.09763971 0.007934524
-0.17058137 0.11336395 -0.016983083 0.13575034 0.049087152 -0.0043792403 0.043838263 -0.052953787
0.004418947 -0.13568567 0.08814453 -0.12736996 -0.15728317 0.0063728 0.15491983 0.09538466
-0.004422876 0.16389802 -0.08908928 -0.0056885546 -0.17110087 0.15434319 -0.085620075 -0.035323285
0.10921857 -0.00068411883 -0.0090465825 -0.078118004 0.098762594 -0.11645295 0.16230318 -0.005342738
-0.022808246 0.071373746 -0.08701086 0.0066953003 0.052329924 0.048854016 0.028914206 -0.056850757
-0.13244781 -0.0022298475 -0.089425445 -0.107905045 0.1302914 -0.003492318 0.0025972151 0.0032931753
-0.0018031583 0.1512549 -0.09491733 -0.17124334 -0.059532143 -0.0052250503 -0.12152645 -0.07736699
-0.11663346 0.02232322 0.00021601515 -0.1666659 0.12141076 0.023873586 0.0013405834 0.07111942
0.04161437 -0.009634524 0.17166023 0.13752122 -0.16160494 -0.014778319 0.1755862 -0.060143087
0.15610272 -0.09908502 -0.16617389 0.06589933 0.116599396 -0.0046793227 0.0570161 -0.14883134
0.0021628318 -0.113514446 -0.096008934 -0.0720108 0.10868321 -0.011845274 -0.0396591 -0.16983806
-0.08190745 0.07063793 0.15328869 0.082314156 0.0030235113 0.026994087 -0.11971188 0.014521394
00000000: a1b2 a83d 4309 04bc 70e6 06be c63f 213c
00000010: b202 39bd a7cf 253c 7aec 2c3d c11d 3bbd
00000020: 5667 17bc 7891 a23d 08eb 033e 069e d03b
00000030: d6f0 e03d e01b 06be 05ab 24bb 12e6 153d
00000040: bc84 b2bd 8983 433d eb33 ba3d a5d6 34be
00000050: a8c9 79bc 896b b63c f87a d03d 4f24 8d3b
00000060: fc09 103c 200a 8f39 10ad 0bbe e330 f8bd
00000070: d18b 1cbd 6476 27bd ba1f 30be dc6d 193b
00000080: f203 2c3e 40c4 1dba b49d 2ebe f06e 73ba
00000090: d37d 87bd 6046 1d3a 7893 013e ca4e 22bc
000000a0: 9897 d63b 88ba 24bc 6191 8d3b a71e c3bc
000000b0: f4d5 8b3d 161e c33d 4616 e93d 2a90 0d3e
000000c0: 44eb 503b 2b56 2a3e 543f 11be 11f0 05be
000000d0: 6c4a aa3d cef5 b0bd 5e58 9f3b 84c0 933d
000000e0: 78b2 043e 6509 30bc 723f 37bc 2664 4fbc
000000f0: c1ac a6bd b430 46bc 8bd6 113e 487a 33be
00000100: 5e5e 22bc 2187 023e ca1a 81bc 1b4b c3bd
00000110: 8031 f9b9 0b18 753d 2ed0 1dbe e031 a83a
00000120: 86fd eebb 9728 10be 0405 693d 8f91 c9bd
00000130: 1bb3 05be e5d8 273d 37ea 2f3e 8109 243e
00000140: c09b 94b9 dbd1 043e e6ba 173e f2d5 933b
00000150: 08f0 803d 9528 efbc 215b 883c a91b 173e
00000160: c26f ea3b 3f6f 81bd 00c0 de3b b2c8 953b
00000170: a876 0fbc 3aaf 823d 6e20 093e d681 01be
00000180: e902 043e b2dc 0f3c 75a5 0f3e 0125 f7bd
00000190: e08a 213c 8802 05be d41c be3c 251e ccbd
000001a0: 6342 10bc 8dc0 083e 88c8 173e 4fa0 333e
000001b0: 5421 1abb 9847 133e d6b2 d5bd 91e1 5b3b
000001c0: aed4 2ebe 00cd 22bd f153 8ebd f33f 0f3e
000001d0: e3ca 2d3e 9c49 23be 2e4a db3b 83bd 4b3c
000001e0: a26e 263d c8f6 d53b 2162 aa3d 17ae 293e
000001f0: 4cdd 2c3e 8051 ed3d a61b 263e d95e 26be
00000200: f87c 033e afa2 1a3e 0d43 2a3e ac9d 96bd
00000210: e34c 19be 277c 5a3c 76b2 9d3b 423e ad3d
00000220: 7856 2fbc b4a1 4fbb b361 dfbd 6883 cf3c
00000230: ed90 b73d 354a 12bc cb8d 28be 95ab d43d
00000240: 0530 f93c 463f 70bd 20c8 e83d 6095 043b
00000250: 66fa bebc 2522 16bc f8d5 823c 66da 37bc
00000260: 59a8 26be 89b8 623d 7d9d 31bd fac0 27be
00000270: 2b96 863d a2a0 203c 54f7 c7bd ceff 013c
00000280: e2ac 2ebe 5c2b e83d 1b20 8bbc 2302 0b3e
00000290: 9c0f 493d bb7f 8fbb c08f 333d 12e6 58bd
000002a0: d0cc 903b 2ff1 0abe 1f85 b43d 456d 02be
000002b0: d70e 21be ecd2 d03b 4ea3 1e3e 0859 c33d
000002c0: c6ed 90bb e2d4 273e 7174 b6bd 0e67 babb
000002d0: 1135 2fbe 240c 1e3e 9459 afbd 26af 10bd
000002e0: fcad df3d 7056 33ba 1e38 14bc 55fc 9fbd
000002f0: 0b44 ca3d e27e eebd ce32 263e 2212 afbb
00000300: 5cd8 babc 662c 923d c032 b2bd 4064 db3b
00000310: e757 563d 261b 483d 7cdd ec3c 57dc 68bd
00000320: 66a0 07be a222 12bb b024 b7bd 52fd dcbd
00000330: 1c6b 053e 60df 64bb 0a36 2a3b 50d2 573b
00000340: f457 ecba 91e2 1a3e 0464 c2bd 6a5a 2fbe
00000350: fad7 73bd e636 abbb dce2 f8bd 9672 9ebd
00000360: 86dd eebd 2fdf b63c 2082 6239 77aa 2abe
00000370: 34a6 f83d 8a92 c33c 84b6 af3a 0fa7 913d
00000380: d473 2a3d 1fda 1dbc b3c7 2f3e 5dd2 0c3e
00000390: c47b 25be c320 72bc decc 333e 9958 76bd
000003a0: 64d9 1f3e 16ed cabd 7d29 2abe 3af6 863d
000003b0: aacb ee3d 0155 99bb b789 693d 3e67 18be
000003c0: 4cbe 0d3b 437a e8bd 55a0 c4bd 667a 93bd
000003d0: 4e95 de3d ae12 42bc 9571 22bd 07ea 2dbe
000003e0: 18bf a7bd 9eaa 903d b6f7 1c3e 5394 a83d
000003f0: 1a26 463b b422 dd3c 812b f5bd 24eb 6d3c

convs.1.convs.<subject___has_region___region>.lin_rel.weight f4 [64, 64]
-0.0016369224 0.017984092 -0.046490014 0.11445384 0.024720207 -0.020422652 0.00030709803 -0.010121539
0.04794675 0.053241774 0.08379832 -0.11670403 0.05822417 0.08878338 0.023425862 0.0428717
0.052107275 -0.08659664 -0.100519836 0.047507316 -0.098100945 0.10477811 -0.043356046 0.08070019
-0.008814186 -0.085333675 -0.08846833 0.020939514 -0.051268935 0.0020881891 0.04694082 0.07783654
0.084831715 -0.011383966 -0.046414003 0.029444754 -0.071915865 0.06890811 0.033994764 -0.110595465
0.03925924 -0.08728847 -0.08959372 -0.0064097643 0.019805744 0.056698218 0.06680183 -0.030302852
0.03450279 0.123488486 -0.01748474 -0.01747632 0.056741536 -0.022621796 0.014900759 0.09799902
0.062263682 0.10587679 0.015318006 -0.08228873 0.097194746 -0.035135955 -0.11108714 -0.055097133
0.045826644 -0.0069181323 -0.0013254136 0.09981547 0.057475448 -0.06226419 0.056638703 0.00880374
0.093679145 -0.11273906 0.057553664 -0.08967993 -0.013747513 0.008539021 0.10201764 0.077697605
0.053012863 -0.02108638 -0.0077997 0.12373085 -0.08493529 -0.059206367 -0.05646141 0.087897554
0.041242152 -0.0893995 -0.04253848 0.08292784 -0.031747356 0.08227579 0.11294721 0.042613417
0.07533561 0.06382963 -0.043091163 -0.08600648 -0.06730828 -0.070693776 0.072918445 0.07644364
-0.043892443 -0.082415804 0.10771072 -0.044820428 -0.022620827 0.0021791607 0.12249613 -0.049221173
0.02186282 0.06469005 -0.089250654 0.12463239 0.027687043 0.070927426 -0.11296514 0.037256137
0.02396129 -0.1157804 -0.09507288 -0.07398926 -0.06740722 0.0018421859 0.039696828 -0.08464898
0.08054499 -0.0045965165 0.039548576 -0.06944159 0.09193964 -0.024956703 0.058424294 -0.028235033
0.07536888 -0.002548471 0.049865305 -0.09832436 -0.09030926 -0.08094184 -0.0046245605 -0.058325738
0.09055336 0.045697927 0.022426888 0.02409327 -0.014605194 0.10550395 0.10390435 0.08793083
-0.052892298 -0.008364573 -0.03522195 0.010598049 -0.060577422 0.111700445 0.0971387 0.027777597
0.022107795 -0.09526546 0.034814492 -0.032899052 0.0015168041 -0.028664425 0.0018538982 -0.015120968
-0.09102684 -0.027227417 -0.031851858 -0.0884379 -0.10704182 0.11768173 -0.0877147 0.051152244
0.046703592 0.039539233 -0.059034586 0.052511916 -0.09703241 0.10752207 -0.020203814 -0.055038124
-0.09853724 0.06959686 0.02343133 0.087249234 -0.045770466 0.076632395 -0.08579475 -0.00806278
0.1233556 0.060619354 -0.04728651 -0.09429197 0.014412165 0.03898914 0.06169629 0.02412188
0.08732575 -0.0067030787 -0.018157125 0.083277315 -0.06331496 0.017811045 0.062016055 -0.052744493
-0.10244483 -0.075559616 -0.062076077 0.07220513 0.12476671 0.07142602 0.11454199 0.112604246
-0.0038446933 0.019308 -0.12025511 0.07850589 -0.047409385 -0.0028701127 0.04697165 0.12164168
-0.11442295 0.12172586 0.050932363 0.07823579 -0.12350479 0.11206104 -0.050240546 -0.022076279
0.11017589 -0.093015626 -0.020864725 0.07476467 -0.058717117 0.010100663 0.1139441 0.103541285
-0.09292179 0.033840865 -0.11034554 -0.09657547 0.041069344 0.010065496 -0.028434873 -0.04382518
-0.07239483 -0.08603422 -0.05228381 0.0022823662 -0.04570517 -0.024788499 0.07449518 0.012936443
00000000: 008e d6ba 6053 933c 506c 3ebd c666 ea3d
00000010: 0882 ca3c 684d a7bc 0002 a139 d0d4 25bc
00000020: d063 443d 0c14 5a3d 749e ab3d 8602 efbd
00000030: 787c 6e3d 10d4 b53d 98e7 bf3c 3c9a 2f3d
00000040: 706e 553d 9459 b1bd 58dd cdbd 0897 423d
00000050: 26e9 c8bd e895 d63d 1c96 31bd 2446 a53d
00000060: 6069 10bc 6cc3 aebd e22e b5bd 5889 ab3c
00000070: 60ff 51bd 00da 083b 0445 403d c468 9f3d
00000080: 40bc ad3d d083 3abc 9c1c 3ebd 2036 f13c
00000090: a048 93bd b21f 8d3d 183e 0b3d e07f e2bd
000000a0: 4cce 203d 4cc4 b2bd ea7c b7bd 0009 d2bb
000000b0: a83f a23c 643c 683d 66cf 883d b03d f8bc
000000c0: cc52 0d3d 88e7 fc3d 283c 8fbc 802a 8fbc
000000d0: d069 683d 5851 b9bc 5022 743c b6b3 c83d
000000e0: 3408 7f3d eed5 d83d 60f8 7a3c fe86 a8bd
000000f0: 0a0e c73d b8ea 0fbd a881 e3bd 88ad 61bd
00000100: b8b4 3b3d 80b1 e2bb 80b9 adba 0e6c cc3d
00000110: 606b 6b3d bc08 7fbd fcfd 673d 903d 103c
00000120: dada bf3d bce3 e6bd 64bd 6b3d 1caa b7bd
00000130: 403d 61bc 40e7 0b3c a0ee d03d ec1f 9f3d
00000140: 0424 593d 58bd acbc a094 ffbb 9a66 fd3d
00000150: 8ef2 adbd 6082 72bd 1444 67bd a203 b43d
00000160: 88ed 283d 1617 b7bd d43c 2ebd 12d6 a93d
00000170: 8409 02bd 3680 a83d de50 e73d 688b 2e3d
00000180: 8e49 9a3d 1cb9 823d 5c80 30bd 2a24 b0bd
00000190: ecd8 89bd e6c7 90bd 4456 953d 7c8e 9c3d
000001a0: 90c8 33bd 9ec9 a8bd 7097 dc3d a095 37bd
000001b0: 504f b9bc 40d0 0e3b 40df fa3d 249c 49bd
000001c0: a819 b33c 387c 843d 0cc9 b6bd 443f ff3d
000001d0: f0cf e23c 6642 913d 445a e7bd e499 183d
000001e0: 784a c43c 461e edbd 92b5 c2bd ae87 97bd
000001f0: cc0c 8abd 8075 f13a 2499 223d 725c adbd
00000200: c6f4 a43d 609e 96bb b0fd 213d 6437 8ebd
00000210: da4a bc3d 0072 ccbc 504e 6f3d 284d e7bc
00000220: 005b 9a3d 4004 27bb 903f 4c3d 485e c9bd
00000230: 10f4 b8bd d6c4 a5bd a089 97bb f8e6 6ebd
00000240: 0a74 b93d c02d 3b3d 98b8 b73c 405f c53c
00000250: a04a 6fbc 7412 d83d cecb d43d 1415 b43d
00000260: 98a5 58bd 900b 09bc e444 10bd 70a3 2d3c
00000270: 0820 78bd 34c3 e43d a8f0 c63d d88d e33c
00000280: 681b b53c 8a1a c3bd a499 0e3d 28c1 06bd
00000290: 80cf c63a a8d1 eabc 80fe f23a f0bd 77bc
000002a0: 486c babd 080c dfbc 1877 02bd ee1e b5bd
000002b0: be38 dbbd 1e03 f13d c4a3 b3bd 0485 513d
000002c0: 444c 3f3d e4f3 213d 40ce 71bd bc16 573d
000002d0: eeb8 c6bd 8834 dc3d 7882 a5bc a86f 61bd
000002e0: e4cd c9bd cc88 8e3d 10f3 bf3c baaf b23d
000002f0: d079 3bbd 72f1 9c3d 28b5 afbd c019 04bc
00000300: dca1 fc3d 004c 783d 80af 41bd 261c c1bd
00000310: 0021 6c3c 14b3 1f3d 40b5 7c3d 409b c53c
00000320: d8d7 b23d 80a5 dbbb 40be 94bc 4c8d aa3d
00000330: 46ab 81bd 78e8 913c 8c04 7e3d 9c0a 58bd
00000340: 98ce d1bd 00bf 9abd 7c43 7ebd 48e0 933d
00000350: b085 ff3d ce47 923d fe94 ea3d 0e9d e63d
00000360: 40f7 7bbb d02b 9e3c 5048 f6bd b2c7 a03d
00000370: 5830 42bd 8018 3cbb 5865 403d 461f f93d
00000380: 9456 eabd 684b f93d 749e 503d 163a a03d
00000390: 14f0 fcbd 4280 e53d 08c9 4dbd 50d9 b4bc
000003a0: e6a3 e13d fa7e bebd 80ec aabc 381e 993d
000003b0: 5c81 70bd 407d 253c 865b e93d 740d d43d
000003c0: c84d bebd b89c 0a3d d8fc e1bd 5cc9 c5bd
000003d0: 5438 283d c0e9 243c 40f0 e8bc 0882 33bd
000003e0: be43 94bd b632 b0bd 8c27 56bd c093 153b
000003f0: 5835 3bbd 4011 cbbc ee90 983d 60f3 533c

convs.1.convs.<subject___has_region___region>.lin_rel.bias f4 [64]
0.048538104 -0.11380175 -0.09183806 0.04977517 -0.07480052 0.0761894 -0.100775406 0.1158012
0.038701907 -0.07425545 0.08419733 -0.0651305 0.037923455 -0.044795185 0.002033621 -0.06626062
-0.035164714 -0.050095797 -0.044855043 0.004975915 -0.07583894 0.11972302 0.077618405 -0.099949345
0.09749718 0.06529477 0.043034494 0.062409222 -0.00432463 -0.019822612 -0.10022539 0.033015683
-0.026441455 0.008728191 0.037676826 0.07102388 -0.021079302 -0.0913471 -0.09196629 -0.08616035
0.031283706 0.11420038 -0.02035436 -0.043336302 -0.042989343 -0.018664688 -0.11315817 0.025015473
-0.07203229 0.002327755 -0.03124234 -0.109423235 0.071318924 0.047394052 -0.057480425 0.056981012
0.0062160045 0.10055673 -0.11973816 -0.11604971 -0.060021028 0.093981 -0.06336513 0.11382908
00000000: e4cf 463d e410 e9bd 9815 bcbd 0ce1 4b3d
00000010: 0431 99bd 3009 9c3d 5663 cebd 2e29 ed3d
00000020: e485 1e3d 3e13 98bd a66f ac3d 2463 85bd
00000030: a055 1b3d 287b 37bd 8046 053b a6b3 87bd
00000040: e008 10bd 4031 4dbd ecb9 37bd 000d a33b
00000050: 7251 9bbd 5831 f53d 66f6 9e3d 3eb2 ccbd
00000060: 9aac c73d 44b9 853d f044 303d d0a0 7f3d
00000070: a0b5 8dbb 0863 a2bc f842 cdbd 743b 073d
00000080: c09b d8bc b000 0f3c 0453 1a3d f874 913d
00000090: 80ae acbc 3014 bbbd d258 bcbd d674 b0bd
000000a0: 5823 003d e4e1 e93d 30be a6bc 6881 31bd
000000b0: 9815 30bd b0e6 98bc 78bf e7bd 40ed cc3c
000000c0: aa85 93bd 408d 183b f0ef ffbc 4a19 e0bd
000000d0: a80f 923d 4420 423d 9870 6bbd ec64 693d
000000e0: a0af cb3b b0f0 cd3d 4839 f5bd 78ab edbd
000000f0: 9cd8 75bd 1c79 c03d 94c5 81bd 381f e93d
