model_fold_2.pth (torch, 200819 bytes, 36 tensors)

convs.0.convs.<subject___has_region___region>.lin_rel.weight f4 [64, 64]
00000000: aa1e 9a3d b024 aebd a6d1 983c 75e2 983c
00000010: 227c cb3c cf2a b73d 565b b43d b69f 69ba
00000020: 7250 aebd 7fad 1d3d 10b3 c5bc f82c 5bbd
00000030: 908a 7ebd f08f d9bb 06b8 9abd e474 83bd
00000040: cfe2 9c3d c827 2cbc c670 ca3b 04a5 84bd
00000050: 8ca2 fb3b 0fce 803c ae39 84bc 8484 7a3d
00000060: 7cde 17bd 5362 febc 6c9a 21bd 6e99 d03c
00000070: 66cf 85bd 6598 42bd 50c1 8d3d d9cc 04bd
00000080: 6fbd ad3d 08c0 8a3d bd0c 4ebd 76ab ad3d
00000090: 511d a23d e5f8 e43c 8a51 d5bc 75bb 84bd
000000a0: 1e01 74bd c6fd 503d c786 bb3c b42d 143d
000000b0: 5e59 b9bc 3207 303d 56bd 1f3d 9470 033d
000000c0: 9db7 923c e7aa 033c 1ae6 773a edee d83b
000000d0: cd43 28bd d33a 473d 0dc9 6f3d 91db 03bd
000000e0: 9664 9aba d060 bfbc b647 ed3d 6061 353c
000000f0: 2e39 b5bc 5088 9b3c e0ac 063a 0fdf 9dbd
00000100: a435 babd d296 393d e91b 1c3d ca8d 64bd
00000110: c99c a1bd 29fb 9dbd c64d 803d 8262 8a3d
00000120: f558 edbc e022 b13c fcac 1c3d 94d4 9d3c
00000130: 4f7b 873c 225a 953d c874 5bbd 9214 c8bd
00000140: 1928 c43d 88aa 3db9 7584 42bd 1862 df39
00000150: 1e1e d43c 0e91 383c 93cf 483d abe1 14bd
00000160: 2d5e e43c e2ae 27bd 2174 39bd 7f30 a33d
00000170: f8df b2bd b874 8fbc db37 82bd e089 e4b8
00000180: a6fb 963d 4d2b b4bc 0170 16bd 76a4 88bd
00000190: e0be df3c 2612 533d e6b3 5f3d 707e d1bd
000001a0: 8ffe a1bd b4d7 abbb 38b6 cdbc 675d d5bc
000001b0: 6168 82bc 4eeb 05bd 62fc 7bbc 5207 61bd
000001c0: 2558 8c3c fa31 7a3c cf89 6c3c 9639 823d
000001d0: 6606 5b3c a2a0 99bc 339c 49bc 8908 19bc
000001e0: c207 d03d 2614 bd3b 4c9b 083d 646c 953d
000001f0: 485c 7cbd dc9f 953d a7c9 833a c178 5d3c
00000200: 6913 d1bb c445 893c 02dd 59bb 78b4 133d
00000210: 8126 8dbb 4fb5 fe3b c88f 3b3d bcb3 803c
00000220: 944b 253b b6ed 67bb a48d b7bb 66c8 b23c
00000230: ac0f 6ebb fc21 44ba 926d aabc 547e 083d
00000240: 04ab bc3b f420 70b9 6c51 38bd ac81 d039
00000250: e663 91bc c212 683a 6d4a 3abc 4b2b 143c
00000260: 3ea2 cebc 4a3d cd3c 4f5b 22bc ee1f c93b
00000270: 56af 4a3c cf37 b5bc 7ea2 ad3b 6dd3 483b
00000280: ae10 42bd f13b 5dbc 1f11 7f3d 9796 01bc
00000290: 9faa c03c ee74 f13c 8270 713c 767b 36bd
000002a0: 6315 72bb 6cc2 a4bc ffdc 8e3c 93ff 813c
000002b0: d05d 303c ac01 523b 482e 283d eb64 4a3d
000002c0: 743b 94bc bdae 4b3c 0231 8e3c 98e3 513b
000002d0: e0da 193a 0ded 9a3b ad5b 953c 8221 ee3b
000002e0: 841c 3abd fdc9 cdbb 63d4 ee3b ddea 06bb
000002f0: e725 263d 9245 553d bece 613c d646 c53c
00000300: 9a85 f63a 66d1 093c d2ef 813c 241e 8abd
00000310: f41a d53c 02c8 9f3b 1e97 71bd 70e6 823d
00000320: f052 9ebc abd2 b0bc e39d 893d d011 8c3c
00000330: 11c4 debc baa0 0fbd 37c4 95bd 460d 87bd
00000340: 6fe6 00bd 1457 f83a c257 92bc 9c84 9bbd
00000350: 7731 f4bc 547b 1aba 5537 cd3d ad70 953c
00000360: 6c3c 8ebd 4e08 97bd 5e61 35bc e4ed c13c
00000370: 7823 07bc 8563 64bd 433a 3ebb 9792 a6bc
00000380: 1938 78bd 3d85 00bb 542b 9c3d e63c 063a
00000390: 82c2 223b f751 753d 360c 13bb 8334 babc
000003a0: b1dd 25bc 215f bcbd 16a2 603c 58d1 dcba
000003b0: 9d6e ac3b 80cb 38bd 6e28 8dbd 87b0 493d
000003c0: bcdf 2a3c 5b38 3f3c 62e7 083b 2a21 3fbc
000003d0: 062d fd3c 8fc4 e0ba ae59 ce3c 6e02 08bc
000003e0: 3084 bbbd c5cc cfbb d3da 953d d022 163d
000003f0: de3e a5bd b4ea 9abd bee1 8cbc bbc1 49bc
0.0752538 -0.08503091 0.018654656 0.01866267 0.024839465 0.08943712 0.088064834 -0.00089120434
-0.085114375 0.038495537 -0.024133235 -0.053509682 -0.062143862 -0.006639473 -0.07554631 -0.064187795
0.07660448 -0.010507531 0.0061779944 -0.06476787 0.007679289 0.015723256 -0.016140785 0.061161533
-0.037077412 -0.031052744 -0.03945391 0.025463786 -0.06533699 -0.047508616 0.06921637 -0.03242192
0.08483397 0.06774908 -0.050305117 0.08479969 0.07915748 0.027950713 -0.026039857 -0.06481067
-0.059571378 0.051023267 0.022891415 0.0361764 -0.022625621 0.042975612 0.038998924 0.032089785
0.01790982 0.008036352 0.000945659 0.006620279 -0.041080285 0.048640084 0.058541346 -0.032191817
-0.0011779245 -0.023361593 0.115859434 0.011070579 -0.022121992 0.018985897 0.0005137455 -0.07708561
-0.090922624 0.04530985 0.038112555 -0.055799283 -0.078912325 -0.077139206 0.06264834 0.0675707
-0.028973082 0.021623075 0.03825091 0.019266404 0.01653829 0.07292582 -0.05357817 -0.097695485
0.095779605 -0.00018087972 -0.047489602 0.0004260696 0.025893267 0.0112650525 0.049026083 -0.036348026
0.027876938 -0.040938266 -0.045276765 0.07968234 -0.08734125 -0.01751171 -0.0635831 -0.000108975684
0.07372217 -0.021993304 -0.03672791 -0.066719934 0.027312696 0.05153098 0.054614924 -0.10229194
-0.07909881 -0.0052442197 -0.025111303 -0.026045514 -0.015918912 -0.032695107 -0.015379997 -0.05493862
0.017131874 0.015270704 0.014437153 0.0635864 0.013368225 -0.018753354 -0.012305307 -0.009340414
0.1015773 0.005770224 0.033351228 0.072960645 -0.061611444 0.073058814 0.0010054604 0.0135175595
-0.0063804877 0.0167569 -0.0033243303 0.03606078 -0.0043075685 0.0077730785 0.045791417 0.015710704
0.002522205 -0.003538949 -0.0056016017 0.021824073 -0.003632526 -0.00074818707 -0.0208042 0.0333236
0.0057576913 -0.0002290046 -0.044999525 0.00039769465 -0.01774783 0.0008852893 -0.011370284 0.009043525
-0.025223847 0.025053639 -0.009909465 0.0061378395 0.012370905 -0.022121338 0.0052989116 0.0030643598
-0.04737919 -0.013503061 0.062272187 -0.007909439 0.023518858 0.029474702 0.014736297 -0.044551335
-0.0036939017 -0.020112239 0.017439364 0.015868938 0.010764554 0.0032044454 0.041059762 0.04941265
-0.018094756 0.012431798 0.017357353 0.0032026526 0.0005869102 0.0047279657 0.018232191 0.007267178
-0.04543735 -0.0062801824 0.007288502 -0.0020586767 0.04056349 0.0520683 0.013782201 0.024081629
0.0018808127 0.008411741 0.015861426 -0.0674403 0.026013829 0.0048761377 -0.058982007 0.06391609
-0.019326657 -0.02158483 0.067195676 0.017098337 -0.027193101 -0.03506539 -0.07312816 -0.065943286
-0.03146976 0.001894685 -0.017864112 -0.075936526 -0.029808743 -0.0005893011 0.10020319 0.018242205
-0.06945118 -0.07374631 -0.011070577 0.023673005 -0.0082482025 -0.05575897 -0.0029026426 -0.020333571
-0.060600374 -0.0019610666 0.07625452 0.0005120769 0.0024835174 0.05989262 -0.0022437698 -0.022730118
-0.010123656 -0.09197832 0.013710519 -0.0016847057 0.0052622096 -0.045115948 -0.06892477 0.049240615
0.010429319 0.011671151 0.0020889868 -0.011665622 0.030905258 -0.0017148423 0.025189247 -0.0083013605
-0.09156072 -0.006341549 0.07317128 0.036654294 -0.080686316 -0.07564297 -0.017197486 -0.012314255

convs.0.convs.<subject___has_region___region>.lin_rel.bias f4 [64]
00000000: 2386 3c3c a621 1a3c 95d1 313c 50db 9b3c
00000010: abbd 9a3b 258d 3b3c 08af 26bb ee7d 1f3b
00000020: 3a99 21bc 5896 803c fa56 04bc 6dad 8aba
00000030: 541d a1bc a715 323c 84bb 273c 691a 5e3c
00000040: 8248 983c 0611 873c f1a6 55bc c00c cc3a
00000050: c5ef 8b3c 5487 a5bb c53a 9cbc ee43 693c
00000060: 26a6 b13b 3ac3 1e3c 7672 a2bb cc12 9e3c
00000070: b4b6 cbba 8ea9 05bc 5336 c3ba dd59 a93b
00000080: 0905 a13c afa4 38bc f73c a0bc a6cb 91bc
00000090: c175 9c3c 18d9 a43c 42ac 5e3b ee0e ed3b
000000a0: 9eb7 8fbc 64ef 3c3c 65f8 6c3c 5802 88bb
000000b0: 2c2b 673c 12cc 1bbc a42d 1eba 1d24 3b3b
000000c0: a67e eebb bede 88bc a9ac bb3a 98c4 6c3b
000000d0: cd35 96bc b80a d43b 182f 8cbc 4b3a 96bc
000000e0: 19d3 4c3c 709f bcbb 09ee 9cbc ce44 e6ba
000000f0: 0821 773b 55de 713b d472 21b9 5f68 503c
0.01150659 0.0094074365 0.010853191 0.019025475 0.004722317 0.011447226 -0.0025433917 0.0024336535
-0.009863192 0.01569669 -0.008077377 -0.0010580249 -0.019667305 0.01086942 0.010237578 0.013556101
0.018589262 0.01648761 -0.01304029 0.0015567765 0.017082104 -0.0050515328 -0.019070992 0.014237387
0.0054214178 0.0096901 -0.0049574925 0.019296072 -0.0015542121 -0.008158101 -0.0014893509 0.0051681832
0.019655721 -0.011269732 -0.01956032 -0.017797302 0.019099118 0.02012305 0.0033977185 0.007234446
-0.01754361 0.011531685 0.014463519 -0.00415067 0.014109414 -0.009509103 -0.00060340227 0.002855546
-0.0072782813 -0.016707774 0.0014318425 0.0036127921 -0.018336201 0.0064710043 -0.0171123 -0.018338343
0.0125015015 -0.005756311 -0.019156473 -0.0017568113 0.0037708897 0.0036906202 -0.00015396933 0.0127201965

convs.0.convs.<subject___has_region___region>.lin_root.weight f4 [64, 64]
00000000: 46be 30bb 4053 21bb 0867 bfbc b738 853c
00000010: deb5 0a3c 0ff1 303d b320 0abd 7549 253c
00000020: a95d 2ebd 2cd9 383c bffa a83c ba1b 053d
00000030: 949b bcbc 4aab f43c fc78 203c bccc de3c
00000040: ba96 6d3c 1d88 b23b b8a6 093d 406b 543c
00000050: a9a8 83bb 4dec c13c 1e61 6b3c 14ad 02bc
00000060: 1fa0 b23c c30e 113d 9f02 d03c 537d 2e3c
00000070: 53b9 a2bc a7c8 c63c f809 353c 5c0b a73c
00000080: ef30 3d3d 177e 9e3b 5009 c9b8 f4c0 1f3d
00000090: 7fa2 303b 4d63 b23b aab2 8dbb 4537 153c
000000a0: ed3d 503b d221 4a3d 7616 8a3b a256 cc3c
000000b0: 81f4 0cbc c088 14bd c78e b0bc f93d f1bb
000000c0: e866 d9bc 1ece 013d 0bf7 c9bb b13a cbba
000000d0: bbda e43a b154 333d 4aa4 0b3d 501f e13b
000000e0: 781a fb3b 1df8 9abc ad5a 0fbb a199 053d
000000f0: a3e2 6abc 2b42 f03b 38d7 13bc 3df9 c4bc
00000100: 338d be3c 52de 913a 5f3f 213d 03d6 57bd
00000110: 3a2c 593c b3b3 2b3d 56df 673b 6d98 a7bc
00000120: e6f5 2c3c ac36 573d 06d8 4cbd 6aaf 32bb
00000130: c70c 6bbc a40c 243d 6fae 583d f82d 85bc
00000140: ed25 e23b ae73 053b 0284 83bc 0d3c 11bd
00000150: 70a7 123d afed b3bc 3de6 ffbc 7d36 f0bb
00000160: ec54 44bd 5f3f fa3c f422 533b 401e b33c
00000170: 6424 df3c 226c c23b b310 81bc 66fc 0dbd
00000180: 4870 84bc c026 5fbc a6f1 00bc ac65 91bc
00000190: ce73 bc3c 4bf6 003b 3734 cc3c f4d9 243c
000001a0: b47e f4bb 3e21 d9bc 9fc6 7a3d 9af7 87ba
000001b0: e32a f9bc b775 c83b 82aa 44bc 3d9c 403c
000001c0: d0c1 d33c 3908 80ba c145 68bc 3c82 763c
000001d0: 3b9b 6cbc 6b5f 753c 72fa 95bc 79ba 56bc
000001e0: 2ad3 e4bc 37a7 853c cc96 c0bb cb71 58bd
000001f0: 19c3 6b3c 7f93 a93c ad15 7a3d 09f0 2d3c
00000200: b316 dbbc 39ee ecbc 4514 253c 0530 99bb
00000210: 43b0 723d cb10 ef3c 2024 393d 4b3f 12bd
00000220: ee0b a03c 18d4 5abb db1f 7dbb 1b4a 95bc
00000230: 35c6 943c a830 473c d36a e7bc 86b8 c5bc
00000240: 9977 ab3c 9387 2d3d 822e 9e3c c055 253c
00000250: 7067 6d3c 0067 143d 32f6 cfbc e652 bfbc
00000260: 80c2 02bd 2e93 68bd 969d 8dbd cd09 463c
00000270: 40bf 133c 60b8 373b d886 78bc 48b0 8d3c
00000280: 6692 7abd 861f dcba 0aba 0e3c 2ba6 8abc
00000290: c521 d6bc 611f fd3c 41a1 f23a 4b67 32bc
000002a0: b939 933b 5084 75bd e9b8 4ebd 8739 833c
000002b0: dd84 673d ac76 a4bc 72f5 b3bc 18b6 1d3d
000002c0: 92e8 cc3c d3ec 013c 9b62 54bd 885f 5fba
000002d0: 5154 0ebd 6083 6a3b af19 08bd cb92 08bd
000002e0: 98e1 9dbc 2ad5 363d d943 3cbd c3d0 1dbd
000002f0: 0662 ffbc 70ad 743c 4843 623c ed54 32bd
00000300: f8cf 2a3d 29e7 133c 6808 b9bc f3ab b03b
00000310: 65e9 de3c 604f 343d a06b 2abd d31d 38bd
00000320: acab aabc c3bb 2f3d 2fb8 213d dbee 4b3d
00000330: b4cc a53c 2c84 0bbd 95ce 61bd d965 9f3c
00000340: 0b3c afbc d858 efbb 0dca 043c 130e abbc
00000350: ce40 043b 07d0 ba3c 2dec abbc 4fdd febc
00000360: 2f3c 6d3d a8e5 da3c 3693 433c cafc 0abc
00000370: 230e 253d 6975 f8bc 6fdd c2bc e06a 77bc
00000380: 5952 d13a 5401 63bd 699b 01bd 411c ac3c
00000390: 6ab8 a2bc 3953 c23c a205 193d 40e3 b83c
000003a0: 00bf 9c3a 5268 47bd 58de 33bd 22a0 713c
000003b0: 5cd8 45bd 9fc3 59bc 740b b53c 4fb4 773c
000003c0: b6a2 5b3b ba2b 81bc 3737 88bc b9c3 83bc
000003d0: 72ff 7e3d a2a7 3d3d c739 bcbb 6823 5fbb
000003e0: ad31 4bbd f5a5 e13c f07a 31b8 208c 0bbd
000003f0: c7ce 7b3c 54b5 8ebc 5b53 35bd 121f f3b9
-0.002696888 -0.0024616271 -0.023364559 0.016262395 0.008466212 0.04319864 -0.03372259 0.010088314
-0.04256979 0.011282247 0.020627378 0.032497145 -0.023023404 0.029866833 0.00979447 0.027197234
0.014501268 0.005448355 0.03360626 0.0129650235 -0.0040179086 0.023672247 0.014366416 -0.007975835
0.021804867 0.03541447 0.025391875 0.010649997 -0.01986376 0.0242656 0.01104974 0.020391159
0.046189245 0.0048368084 -9.5861615e-05 0.039002374 0.0026952324 0.0054439665 -0.004324277 0.009107416
0.0031775192 0.04934866 0.0042141033 0.024943653 -0.008603216 -0.036263227 -0.021552457 -0.007362124
-0.026538327 0.03169071 -0.006163483 -0.0015505162 0.0017460206 0.04378194 0.034092225 0.006870188
0.0076630674 -0.018917138 -0.0021874115 0.032617215 -0.014336261 0.0073321066 -0.00902348 -0.024044627
0.023260688 0.0011128879 0.039367076 -0.05269433 0.013255173 0.04191942 0.0035380921 -0.020458424
0.010556674 0.052542374 -0.050010704 -0.00272652 -0.014346308 0.040051118 0.052900728 -0.016257271
0.0069014938 0.002036314 -0.016054157 -0.03545766 0.035804212 -0.021963922 -0.031237716 -0.0073307143
-0.04793255 0.030547796 0.0032216879 0.02186501 0.027239032 0.0059333006 -0.015755033 -0.034664534
-0.016166821 -0.013620079 -0.0078701135 -0.017748676 0.023004439 0.0019678052 0.024927242 0.01006173
-0.0074613933 -0.026505109 0.061224576 -0.0010373474 -0.030415958 0.0061175483 -0.012003543 0.011756
0.025849253 -0.0009768076 -0.014176787 0.015045699 -0.014441307 0.014976363 -0.018307898 -0.013105982
-0.027932722 0.016315086 -0.0058773514 -0.052842896 0.014389777 0.020700214 0.061055828 0.010616311
-0.026744222 -0.028922187 0.010075633 -0.004674914 0.059250128 0.029182812 0.045200467 -0.035704892
0.019536939 -0.0033390578 -0.0038623724 -0.018223813 0.018160919 0.012157597 -0.02824918 -0.02413584
0.020931052 0.04236562 0.019309286 0.010091245 0.014489993 0.03623104 -0.02538595 -0.023354959
-0.03192377 -0.056780986 -0.06914823 0.012087298 0.0090177655 0.002803348 -0.015168868 0.017295972
-0.061174773 -0.0016794063 0.008711347 -0.016924938 -0.02613915 0.030898752 0.0018511192 -0.010888885
0.004492965 -0.059940636 -0.050469313 0.016018642 0.056523193 -0.020076118 -0.021967623 0.038503736
0.025013242 0.007929998 -0.05185185 -0.000852101 -0.03474838 0.0035783872 -0.03322762 -0.033343118
-0.01927261 0.044636883 -0.045963142 -0.03852917 -0.03117467 0.014933929 0.013809986 -0.043538023
0.04170224 0.009027281 -0.022587016 0.0053915917 0.0272109 0.04402101 -0.041606545 -0.044950318
-0.020833813 0.042903673 0.03948229 0.049788337 0.020239212 -0.034061596 -0.055128653 0.019457744
-0.021390935 -0.007304292 0.008104813 -0.020880735 0.0020180228 0.022804273 -0.02098664 -0.031111388
0.057918724 0.026720837 0.011936953 -0.008483121 0.040296685 -0.030329423 -0.023787228 -0.015101165
0.0015969976 -0.05542119 -0.03164235 0.021009566 -0.019863326 0.023721324 0.037358887 0.022569299
0.0011958778 -0.048683472 -0.043913215 0.014747651 -0.04830204 -0.013291269 0.022100188 0.0151186725
0.0033513731 -0.01576792 -0.016627891 -0.016084539 0.06225533 0.046302445 -0.0057441923 -0.0034048203
-0.04960792 0.027544955 -4.2314583e-05 -0.03406918 0.015369124 -0.017420448 -0.044268947 -0.0004637172

convs.0.convs.<region___rev_has_region___subject>.lin_rel.weight f4 [64, 64]
00000000: 311e 553c 36b9 5ebb 3a26 9ebc 86c6 f1bb
00000010: c017 a13c 2614 99bc f008 16bc f963 93bc
00000020: dabe b5bb 5edc 893c d81d 413c c085 5ab7
00000030: e346 97bc c3ae 8cbb 98f2 9abb 70fa 65bc
00000040: f3b5 163c 3f37 823c cd45 6abc 93de 8dbc
00000050: 1afb 3d3c 738a debb af72 15bc 61a2 98bc
00000060: 9b5a 2fbc 2408 cd3b c43a 4c3c 0472 9ebc
00000070: b309 8ebc 5150 cdbb 8462 203c e55c 0abc
00000080: ce5d 81bc 3fc1 973b ffea 7bbc 8954 083c
00000090: 9e36 4d3b 79d2 a13c e5d3 b43b ba7d 9f3c
000000a0: 9d1f 91bc c3dd a83b 45af 7fbc a6fc abb9
000000b0: 1fc2 2d3c 3b12 963c dda9 57bc 3869 a23c
000000c0: 3360 c6bb 09b2 84bc 9c8e 5bbc b0f6 b03b
000000d0: 6160 d0bb 1a6a 9c3c 31d7 973c b7e4 1bbc
000000e0: ecb8 2b3c 929a 3ebc da9d 9bbc ef30 873c
000000f0: 44e5 953c 959b 9c3b 26a6 49bc 1cf2 413c
00000100: a889 80ba 984f 47bc e7dc 8c3a b4d0 b13a
00000110: 6a10 4cbb c26a 2cbb 97d1 7dbc 9225 ab39
00000120: 360b 9fbc 8e2a 743b 5243 993c 21a0 0d3c
00000130: 6757 1e3c ff30 313c a150 9a3c c8f5 183b
00000140: 8e21 3fbc 7b62 bdbb 2b5a c23a 15f2 7fbb
00000150: 3cef a33b 0599 f4bb 14fc a0bc 3c32 023b
00000160: fd62 9bbc b33b 883c c231 55bb 3d28 76bc
00000170: 30dc 53bc b320 563c d64d 8ebb 6e2c 8bbc
00000180: 1dc7 643c b116 8f3c c8e1 e5b9 4ee9 6bbc
00000190: 7dc0 1e3a 8342 9dbc 1cfa 94bc 6368 febb
000001a0: b093 1bbb d33c feba be53 553b b8cb 4cbb
000001b0: b70f 443b 0d66 1cbc 9e11 6b3c 480b 873c
000001c0: fcae 2bbc 4c05 e6ba 0a72 90bb bf4c d8bb
000001d0: 214a 1d3b 70f6 503b c6ff 123c e750 a23c
000001e0: 863a 5cbc 3800 8e3b 51fc 933b 30e0 8f3c
000001f0: 997f 283c 683d e03a 5ff5 833b 5790 99bc
00000200: c2bb 133c f8d6 b7b8 5b12 2e3c 4428 61bc
00000210: b02b 0d3c 8925 8cbc a798 2a3b 5395 613c
00000220: c36e 93bc 483d 883c c1c0 5eba 2b82 f93b
00000230: 1d7e aebb cddb 9cbc 340b 933c 7441 96bb
00000240: 9d8d a6bc a038 4a3b faa6 9b3c 1c5a 153c
00000250: de08 063a cf6c a5bc 2242 4a3c 9fdf 86bc
00000260: 22c7 7bbb 75d1 fb3a 31f5 9e3c c805 943b
00000270: fa31 30bb a0d9 fd3b 9280 a2bc 43d1 71bb
00000280: 40d6 893b d18a 32bc 10e9 a43b abd7 deba
00000290: bc3d 8fbc 5de6 9abc c414 203c a404 3cbb
000002a0: 593e 6abc a08f 1cbc 3fd2 9c3c d122 423c
000002b0: 4348 8abc 9050 88bc 9e15 073c 0cc3 9dbc
000002c0: 862c 88bc de53 1ebc 6cda 37ba b317 4c3c
000002d0: d8f4 c5bb 9bbf 61bc 2e9a a63c 1181 49bc
000002e0: ef82 f33b 7792 97bc 91c6 05bc 2623 003c
000002f0: 60b5 77bb 8609 0cbc d741 9fbc 46d9 1cbc
00000300: c7af 0d3b b966 9c3c d811 46bc 7133 55bc
00000310: 3277 4abb dff6 abba 6705 723b 3b44 e23b
00000320: 84f5 193c 4dc9 103c d4c2 37ba d408 c53a
00000330: 6da5 99ba a282 8a3c f509 763c 4674 0c3b
00000340: 4404 363a 1646 9ebc ef78 0abc 3df0 46ba
00000350: be95 9ebb 4a9a 0abb cc2f 81ba 1ba1 9ebc
00000360: 409b 7c38 aafe 233c d490 92bc b126 8dba
00000370: 88e6 c6bb 5bb7 843c a0bf 4b3a 868e 32ba
00000380: 9495 7ebc 820c 113b 198f 823b 8f57 a0bc
00000390: e855 57bc eefa 03bc e3fb 4dbc daac ad3a
000003a0: bd63 4abc 082e 973c 42be 9cbb 4798 253c
000003b0: 8782 02bc b414 24bc 78ab 703c ac68 4bba
000003c0: 9c94 2b3c ce80 373c 3ec7 643c 16ca 843b
000003d0: d2bf 01bb aab3 d83a 78a6 093b 0ace 2bbb
000003e0: 3cf8 fabb 328f 34b8 f4c9 c23b 6349 22bc
000003f0: 8b93 42bb b585 06bb 7910 a2bc 558c aabb
0.0130076865 -0.0033984906 -0.019305337 -0.007378402 0.019664645 -0.018686365 -0.009157404 -0.017992007
-0.005546433 0.016828712 0.0117869 -1.3024954e-05 -0.018466419 -0.004293294 -0.0047286265 -0.01403676
0.0091986535 0.015895484 -0.014298868 -0.017318046 0.011595512 -0.006791407 -0.009121581 -0.018632116
-0.010702754 0.006257074 0.012465183 -0.019341476 -0.01733861 -0.006265678 0.009789113 -0.008444999
-0.0157918 0.004631191 -0.015375852 0.008320936 0.0031313072 0.019753681 0.005518424 0.01946913
-0.01771527 0.005153389 -0.015605752 -0.000328039 0.010605364 0.01831924 -0.013163057 0.019825563
-0.0060539483 -0.016198175 -0.0134007 0.005400501 -0.0063591455 0.019093562 0.018535228 -0.009514979
0.0104811005 -0.011633532 -0.018996168 0.016502826 0.018297799 0.004779289 -0.012307679 0.0118375085
-0.000980665 -0.012164973 0.0010746986 0.0013566227 -0.0031137713 -0.002630875 -0.015491865 0.00032643654
-0.019414525 0.003725681 0.018708859 0.008644135 0.009664393 0.010814904 0.018837275 0.0023339856
-0.011665715 -0.005779562 0.0014827898 -0.0039054204 0.005002884 -0.0074645304 -0.01965145 0.0019866368
-0.0189681 0.01663003 -0.0032530879 -0.015024242 -0.012930915 0.01306932 -0.004342775 -0.01698896
0.013963488 0.017466875 -0.00043846504 -0.014398886 0.00060559047 -0.019196754 -0.018185668 -0.0077639087
-0.0023739152 -0.0019396789 0.0032551135 -0.0031249356 0.0029916593 -0.009545815 0.014347462 0.016484872
-0.010478731 -0.0017549186 -0.0044081258 -0.0066009457 0.0024000483 0.003188517 0.008972114 0.019813968
-0.013441687 0.004333522 0.0045161624 0.017562956 0.010284328 0.0017108144 0.0040270532 -0.018745584
0.009016933 -8.766161e-05 0.0106244935 -0.01374251 0.008616373 -0.017107742 0.002603093 0.013768512
-0.017997151 0.016630784 -0.00084973505 0.007614394 -0.0053250925 -0.019147778 0.017949678 -0.0045854393
-0.020331198 0.0030856505 0.019000519 0.009115722 0.00051130156 -0.020193486 0.012344869 -0.016464053
-0.0038418253 0.0019212203 0.019404026 0.0045172907 -0.0026885257 0.00774689 -0.019836698 -0.0036898411
0.004206449 -0.010897354 0.005032666 -0.001700153 -0.017485492 -0.018908674 0.009770576 -0.002868929
-0.014297091 -0.009555727 0.019143222 0.011849121 -0.01688016 -0.016639978 0.0082449 -0.019258045
-0.016622793 -0.00966355 -0.00070134434 0.012456822 -0.0060411505 -0.013778592 0.02033719 -0.012298838
0.00743138 -0.018502457 -0.008165018 0.00782088 -0.0037797317 -0.008547192 -0.019440575 -0.009573286
0.0021619664 0.01909195 -0.012089215 -0.013012753 -0.00308938 -0.0013119838 0.003692949 0.0069051064
0.009396914 0.008837056 -0.00070099276 0.0015032538 -0.0011722274 0.016907994 0.015017022 0.002143161
0.00069433847 -0.019320529 -0.008451684 -0.0007588899 -0.004839628 -0.0021149092 -0.0009856164 -0.01936393
6.022607e-05 0.010009447 -0.017891325 -0.0010768977 -0.006069962 0.016200712 0.000777239 -0.0006811399
-0.015538592 0.00221327 0.0039843437 -0.019573001 -0.01314304 -0.008055432 -0.0125722615 0.0013250366
-0.012352881 0.018454567 -0.0047834227 0.0101071065 -0.00796569 -0.010014702 0.014689319 -0.0007759433
0.010472443 0.011200143 0.013963519 0.004052411 -0.0019798172 0.0016533036 0.0021003764 -0.0026215338
-0.0076589864 -4.3048705e-05 0.005944485 -0.009905192 -0.0029689993 -0.0020526473 -0.019783245 -0.005204717

convs.0.convs.<region___rev_has_region___subject>.lin_rel.bias f4 [64]
00000000: ceac 003c d806 5cbc aff6 a03c ba5d b33b
00000010: 5522 a13c 95b9 44bc 65d5 80bb 2a69 943b
00000020: 65fc 9e3c 1c76 973c 96e6 95bc a999 72bc
00000030: b67d 1fbc 7c47 9d3c 4ca2 cdbb 5b8b 1fba
00000040: 88b0 70bc a1fc 833a 1038 9ebc c712 37bb
00000050: 36cc 9cbc f8a3 94ba 7f97 7abb 2c60 8fbc
00000060: 983b 97bc 64a5 b238 a880 0c3b 62bb 7cbc
00000070: 625a 79ba 6f8d 2a3c 1c7e 943c c6d8 85bc
00000080: ac40 143b d683 893b 9065 a1bc 8693 0d3c
00000090: 897c 65bb 8488 ea38 c9b6 92bc 18a3 9d3a
000000a0: 17a3 89bc 51f5 a0bc 174b a1bc 5666 d03b
000000b0: e7e7 93bc 4d31 9d3c 3142 993b 41bd 04bc
000000c0: 4f79 63bb 1444 9f3a e093 a0bc 56fa 95bc
000000d0: 1270 f1bb 4aab 9f3c b80a caba 7c6c 6eba
000000e0: 9052 8b3c 565e 4f3b f26b eebb d7c8 6c3c
000000f0: 0e3d c739 a6b7 593c e64b 52bc d72c 9d3c
0.0078537 -0.013429366 0.019648878 0.0054738196 0.019669691 -0.012007137 -0.0039316886 0.004529138
0.01940746 0.018488936 -0.018298429 -0.014807143 -0.009734562 0.019199125 -0.006275451 -0.0006086134
-0.014690526 0.0010069796 -0.019313842 -0.0027934776 -0.019140344 -0.001134037 -0.0038237271 -0.017501913
-0.018461034 8.518508e-05 0.002143899 -0.015425535 -0.0009512064 0.010409697 0.01812654 -0.016338717
0.0022621555 0.0041966243 -0.01970175 0.008641129 -0.0035016856 0.000111834175 -0.017909424 0.0012026755
-0.0168014 -0.019648226 -0.019689126 0.0063598556 -0.018054916 0.019188548 0.00467708 -0.008101762
-0.0034709757 0.0012151026 -0.019601762 -0.018307846 -0.007368096 0.019490857 -0.0015414571 -0.0009095145
0.017007142 0.0031641922 -0.0072760517 0.014452181 0.00038001727 0.013288414 -0.012835478 0.01918642

convs.0.convs.<region___rev_has_region___subject>.lin_root.weight f4 [64, 64]
00000000: 9f16 8bbd 4b15 b13d b411 abbd 9642 c23d
00000010: 2099 31bd 38d3 40bd 615e eabd 4abc bc3d
00000020: bff9 f83d 9f59 893d 6e3e 02be 1b5e 963d
00000030: dfd7 0ebe 6dc1 28bc e5fb 95bd 1e47 e03d
00000040: eb0e dc3d 5cc3 483d 7a0e a7bd e759 92bd
00000050: ebd7 0a3d 571e 12bd cbac d4bd a2eb 083e
00000060: 6c8a 2a3e 1f38 e6bb 3e7c 923d a478 61bd
00000070: 7f9b 42be 4fca 8fbb eef1 ee3c 276e d7bb
00000080: 77c9 18bd b472 0f3e 0b73 62bd 9857 f23c
00000090: 057b d43d ed1f f3bd 0124 bfbd 3c24 163d
000000a0: 0dd3 04be 5795 933d f9b6 103e d63a 0f3d
000000b0: eab6 87bd ff6e 64bd bae0 58bc 438a c53d
000000c0: 1fa8 5f3d b435 b33d adbf a33d c7c6 07be
000000d0: c832 01be 53c3 1f3d 3b0a 2fbd 371c 06be
000000e0: aa63 733d e17e 01bd d332 1a3e 484c 0cbd
000000f0: 2af6 d8bd f4e9 dfbd f1a5 a63c 237a b4bc
00000100: e3f1 adbc 4daa 7cbd 1e1f 52bd 9730 cc3c
00000110: 150f af3d 7ddd 1e3d e9b3 6e3d e370 27bc
00000120: d957 bfbd 7f29 7ebd 4c11 28be 1dfc e9bd
00000130: f246 c4bd 4c3f 853d a26f d03d 7936 d2bd
00000140: 8211 8fbd d2bf be3d cd3f 033e e63b 64bd
00000150: 0822 ec3d 55e1 77bd b137 36be 81c5 133e
00000160: fef4 d7bd 8e51 5e3c 3caa be3d 88a6 67bd
00000170: 8a14 20be cba3 a6bd ccaa f3bc 83dc 44bc
00000180: f9ed 013d 1763 be3d a17e 333d a61b 9e3c
00000190: 4afc bb3d 677f 913b 25ce 623c faff 07bb
000001a0: 0f88 2f3d d93f c13c dd62 ad3d 1930 54bd
000001b0: 2afd d03c 7642 31bc 492d 00be 5c21 a1bd
000001c0: 63b2 25bd d9a2 883d 6bd4 ea3d 7747 9f3c
000001d0: e31f 8e3c 26d8 5d3d 6bee 4bbd 97cf cebd
000001e0: 7db6 8b3d dcbe a13c 66c3 2e3e 4ad1 9dbd
000001f0: a839 e23d d99c 1f3d 23df d9bd 11a3 a5bd
00000200: f465 b43d dc1f b7bd b197 df3d 1f2e 0bbe
00000210: 98e0 89bd c874 423c 2cda 573d 7336 4a3d
00000220: b3f1 e8bd 6309 2b3e 4b7b ae3d bcc3 973d
00000230: 6d1b a9bc 112a 9b3d f7bc 7c3c 385a a5bc
00000240: 6628 083e 6434 0bbe a039 2d3e 9329 dfbd
00000250: 44f9 e4bd b298 0e3d 6651 a8bd acdd 2ebd
00000260: ff77 d6bb 6280 023e 10ca 4d3d ea25 c23d
00000270: 48bf eb3d e9c2 1b3e 952d 73bd 6576 9bbd
00000280: 08c5 d0bc 5ac7 78bd ae6e b1bc 1577 a03b
00000290: 2bbd e33d 7a48 fcbd ffdb 0abe 6f39 1cbc
000002a0: e3f2 b23d 8c8a 173d 2753 a0bd 6987 8f3b
000002b0: 8f33 f8bd ae7f 473d 3b7a 383d f900 1b3c
000002c0: 72a1 b7bd a0ad 1fbe 5382 97bd 06e7 c53d
000002d0: 4786 4fbc 0a9b fb3d 98a8 353e f243 cc3d
000002e0: 3fd2 01bd 2e84 fdbd 1348 d53d 8d58 0ebd
000002f0: 0515 113e 32fc bb3d 6e13 da3d 7497 a83c
00000300: 5cb5 bf3c 509d 18bd 3dc0 f3bd 5982 083e
00000310: 0baa 82bc 96d0 af3d db49 713d 0a2c bb3c
00000320: c438 023d 6374 16be 8e4b 5ebd 9480 59bc
00000330: 764f 673c 168d 2fbe 94b5 1c3e bd62 f83d
00000340: ece4 133b c9d7 80bc af52 91bd ecf0 b4bd
00000350: 478b abbd 0be4 18bd f2bb 45bd 3653 19be
00000360: 2282 9b3d f680 b03c e249 bd3d 4034 85bd
00000370: b0fc 2abc 652a 37be b4d5 f5bd 4e81 013e
00000380: a8f9 19be 15ef b53d 6bb4 c33d 71e3 46bd
00000390: b681 cf3c 13ac 82bc a9c4 213d d665 62bb
000003a0: d65d 683d 5701 923d aed9 c03d 43e6 b93c
000003b0: 102a d73d c6a3 553d 1bf2 e33d 4d27 aabd
000003c0: 2b3a b73b a194 463d d1fa 4ebd 2eba ce3b
000003d0: 8d22 b3bd 1872 303d b5b4 59bb c0a6 533d
000003e0: cb5e ebbd b5df b73c 7b4d 1cbd b48a 1ebe
000003f0: ca6e 793d f2ee 573d 0641 183e 4bc6 9e3d
-0.06791424 0.086466394 -0.08352986 0.094853565 -0.043358922 -0.047076434 -0.114437826 0.09215601
0.1215701 0.06706547 -0.12719128 0.07342168 -0.13949536 -0.010300023 -0.07323436 0.109510645
0.10745033 0.049014434 -0.08157058 -0.07146054 0.03389732 -0.035673466 -0.1038452 0.13371137
0.16654366 -0.007025733 0.071526036 -0.055046692 -0.1900463 -0.0043881307 0.029168095 -0.0065744105
-0.037301507 0.140086 -0.055285495 0.029582784 0.103750266 -0.11871324 -0.09333039 0.03665565
-0.12971134 0.07206219 0.14132299 0.03496822 -0.06626685 -0.055769917 -0.013237173 0.09645512
0.054603692 0.087504774 0.07995544 -0.13259421 -0.12617028 0.039004635 -0.042734366 -0.130967
0.05942122 -0.03161514 0.1505845 -0.034252435 -0.10593827 -0.10933295 0.020342799 -0.022030896
-0.021233505 -0.06168585 -0.051299207 0.024925513 0.085477985 0.038785446 0.058277044 -0.010219785
-0.093429275 -0.062051293 -0.16412848 -0.1142504 -0.09583844 0.065062135 0.10177542 -0.10264296
-0.06985761 0.093139306 0.12817307 -0.055721186 0.115299284 -0.060517628 -0.17794682 0.1443081
-0.105447754 0.013569249 0.093098134 -0.0565553 -0.15632835 -0.0813671 -0.029744528 -0.012015465
0.03172109 0.09296244 0.043821935 0.019300293 0.0917898 0.0044402364 0.013843094 -0.002075194
0.042854365 0.023590015 0.08466122 -0.051803682 0.025511343 -0.010819068 -0.12517275 -0.07867691
-0.040453326 0.06671686 0.11466297 0.019443257 0.01734919 0.054161213 -0.04978792 -0.10098188
0.06821916 0.01974433 0.17066726 -0.07705934 0.11046153 0.03896794 -0.10638263 -0.08087743
0.088085085 -0.089416236 0.10917605 -0.13591813 -0.06732291 0.011868663 0.0526983 0.049368333
-0.113742255 0.167028 0.0851961 0.0741038 -0.02064296 0.07576383 0.015425912 -0.020184621
0.13296661 -0.13594204 0.16916513 -0.108966015 -0.11180356 0.03481359 -0.082186505 -0.04269187
-0.0065450664 0.12744287 0.05024153 0.09479888 0.115110934 0.15211071 -0.059369642 -0.07590941
-0.025484577 -0.06073699 -0.021659222 0.004897008 0.11120065 -0.12318511 -0.13560484 -0.009535178
0.08737733 0.036997363 -0.0782836 0.004380156 -0.12119209 0.04870575 0.045038443 0.009460681
-0.0896634 -0.15593576 -0.07397904 0.09663205 -0.012666292 0.12285431 0.17740095 0.09973897
-0.031694647 -0.12378727 0.10414138 -0.034752417 0.14168175 0.09178962 0.10648237 0.020580031
0.023401909 -0.0372594 -0.11901901 0.13330974 -0.015950223 0.085847065 0.058908325 0.022848148
0.031792417 -0.14692836 -0.054271273 -0.013275284 0.014118066 -0.17143664 0.15303642 0.12128208
0.0022566868 -0.015727894 -0.07095849 -0.08835015 -0.083761744 -0.037326854 -0.04827494 -0.14973149
0.0759318 0.021545868 0.09242608 -0.065041065 -0.010436222 -0.17887266 -0.12003651 0.12646982
-0.15036643 0.08883492 0.09555896 -0.04855675 0.025330406 -0.015951192 0.03949419 -0.0034545562
0.056730114 0.07129162 0.09416519 0.022692805 0.1050607 0.05215814 0.11130162 -0.08308277
0.005591651 0.048481587 -0.050532166 0.0063088154 -0.087468244 0.04307756 -0.0033219282 0.051672697
-0.1149269 0.022445539 -0.03815983 -0.15482599 0.060896672 0.05271811 0.14868554 0.07752665

convs.0.convs.<region___is_functionally_connected___region>.att_src f4 [1, 1, 64]
00000000: 11b9 6e3c 2edd ec3b b342 bc3b 7085 7abd
00000010: ce15 8d3a d6e0 9e3d aa6b 1bbe 1dee 91bd
00000020: ba35 3c3e a7b1 003c abc3 c7bd ebf4 e9bb
00000030: 20eb 44bd 3b06 933c b7d5 21bd 05f2 d13d
00000040: 298f 70bc b7c4 9cbc 4182 333c a4e9 b03b
00000050: 48d4 dcbd ba8d 043c a226 99bb 1da1 c5bd
00000060: 22f1 18be bea8 79bb 7699 3c3d 1684 12be
00000070: 741d 86bb 9028 ad3d 8220 2bbd b420 b4bb
00000080: ccaf a4bd 9684 453c f015 4f3c dcba 6cbc
00000090: 0e38 c63c 6ff5 a7bc 05e5 1a3e 7195 08bd
000000a0: 1df4 243e 5aeb 253e 5bcf ad3d b986 bf3d
000000b0: fca0 f63c ae2e 18bd f6a5 5f3c 906d c8bc
000000c0: 245f cfbd 9c6a ab3c b107 9cbb 50f0 813d
000000d0: 3b2c 493d 6c4a bcbb 3baa eebb f8ee f0bd
000000e0: 2e0d f5bb baa6 f73c 3406 b23d a622 90bc
000000f0: 4641 39bc 5e30 043e 2852 843d b885 273e
0.01457049 0.007228515 0.005745256 -0.061162412 0.0010763945 0.07757728 -0.1517779 -0.07125495
0.1837987 0.007854856 -0.097541176 -0.007139792 -0.048075795 0.017947307 -0.039510455 0.1025124
-0.01468257 -0.01913677 0.010956348 0.005398946 -0.10782677 0.008090431 -0.004673795 -0.096498705
-0.14935735 -0.0038094963 0.04604479 -0.143082 -0.0040928666 0.08455002 -0.04177905 -0.0054970626
-0.08041343 0.012055537 0.012639508 -0.014448848 0.02419665 -0.020502774 0.15126427 -0.033345643
0.16108747 0.16203061 0.084868155 0.09351868 0.03010606 -0.037153892 0.013650408 -0.024466306
-0.101255685 0.020924859 -0.004761659 0.06344664 0.049114447 -0.0057461765 -0.0072834766 -0.1176433
-0.007478378 0.030230869 0.086925894 -0.017594647 -0.011307066 0.12909076 0.064609826 0.16359603

convs.0.convs.<region___is_functionally_connected___region>.att_dst f4 [1, 1, 64]
00000000: 6843 3f3b 1eae e43c 5149 3a3d a3c9 c23d
00000010: d60b efbb 43f1 c93d 48fc 0bbe 105a 08be
00000020: 14e1 24bc fc17 153e 919b 1dbe c0f2 a7bb
00000030: 8cf1 daba 29b9 f1bd 15ad a43c a38f ae3d
00000040: 3cc8 03be 264d 31bc 7ffb 30bd 51d2 f33b
00000050: 56a4 3b3e 794a 35bc 7a91 7bbd f741 393e
00000060: a630 7bbd 1913 dbbd e8ee 77bd 7bfd 223b
00000070: a1f8 6e3c 05bc 4a3d f395 89bd b298 3c3e
00000080: 1918 cc3d 84cb 3bbe 3866 4bbc d3f7 2b3d
00000090: 72c9 1dbe d712 b63d d8e8 8339 b3a5 7abc
000000a0: b08b 053b 047d 9b3c bb5f 5c3d f47f 6e3c
000000b0: c89c 8fbc 4502 e8bd a9b6 96bd fd32 aa3d
000000c0: 6e63 cbbd 0fca fc3d 4f64 363e 2d51 25bc
000000d0: 32f7 8f3c 2dd1 cd3c e8f1 803c 6086 18be
000000e0: 4101 6bbb 4859 41bc 2825 d23b 82e7 ab3d
000000f0: 6e7c 193e b0db fbbd ce43 ae3c 7270 36be
0.0029184464 0.027915057 0.045480076 0.095111154 -0.007295112 0.0986047 -0.13670456 -0.13315606
-0.010063428 0.1455993 -0.15391375 -0.0051253736 -0.0016704067 -0.118028946 0.020102063 0.0852349
-0.12869352 -0.010821616 -0.043208595 0.007440843 0.18324408 -0.011065119 -0.061418034 0.1809157
-0.06132569 -0.10697002 -0.060530573 0.0024870324 0.014585645 0.049495716 -0.06718054 0.18417624
0.09965534 -0.18339354 -0.012414508 0.04198439 -0.15408877 0.08890312 0.0002515975 -0.015298295
0.002037745 0.01898051 0.053802233 0.014556874 -0.017530814 -0.11328558 -0.073590584 0.083105065
-0.09931074 0.12343227 0.17811702 -0.010090155 0.017573927 0.025124157 0.01574035 -0.1489501
-0.0035858902 -0.011801071 0.006413121 0.08393766 0.14988872 -0.122977614 0.021272566 -0.17816332

convs.0.convs.<region___is_functionally_connected___region>.bias f4 [64]
00000000: 5e63 6bba e324 ee3a f62d 5439 892c 5ab9
00000010: a71a 93ba 5af6 1dbb e4ad 0cba 2e56 5a3b
00000020: e0c6 8539 bda2 423a 3075 87ba fbf6 253b
00000030: b9fe 15b9 60c8 2b39 3ba8 2a39 64e1 fbb9
00000040: c44e f9b8 e1da 653b 0aea a03a 5cbb 8239
00000050: e292 0f3a a64c 69b9 be54 793a 8c31 6d3b
00000060: 81ac f9b9 c78f a93a fe74 d8ba 9087 b8b9
00000070: 4e14 07ba bec0 56bb c4ec d4bb 5f01 1cba
00000080: 0a61 d93a c6e7 69ba 44b5 7739 dede 3b3b
00000090: 1826 8ab9 bbc5 ec3a cd0d ae3a bc24 9f3a
000000a0: 3548 843a 9566 9538 e03d 3238 4f46 8aba
000000b0: 2cbd 8a38 2632 5ebb c0ff 613a 73f3 95ba
000000c0: 2336 e73a 2e67 60ba a012 be39 19ee 913b
000000d0: 4852 40ba 6dd6 00ba 40ac 9f3b 55d2 983b
000000e0: 4445 123b b87a 6e3a 156e d23a 9f6b 213a
000000f0: 1a5f 25ba 7ffc ca3a a0a2 1838 403d 2b3a
-0.00089793454 0.0018168952 0.00020235017 -0.00020806691 -0.0011223153 -0.0024103136 -0.0005366488 0.0033315527
0.0002551591 0.00074247626 -0.0010334607 0.0025324214 -0.00014304639 0.00016382476 0.00016275134 -0.0004804238
-0.000118879165 0.003507309 0.001227678 0.00024935126 0.00054769043 -0.00022249165 0.0009511224 0.0036192862
-0.00047621506 0.0012936526 -0.0016514359 -0.00035196217 -0.0005152867 -0.0032768692 -0.006497951 -0.0005951132
0.0016584706 -0.00089227816 0.00023623282 0.0028666775 -0.00026349793 0.0018064299 0.001327926 0.0012141685
0.001009232 7.123981e-05 4.2496133e-05 -0.0010549518 6.615589e-05 -0.0033904403 0.00086211786 -0.0011440351
0.0017640035 -0.0008560297 0.000362535 0.0044534323 -0.00073364796 -0.00049147644 0.0048728287 0.0046637454
0.0022319118 0.0009097266 0.0016054536 0.00061576994 -0.0006308422 0.0015486627 3.639108e-05 0.0006532259

convs.0.convs.<region___is_functionally_connected___region>.lin.weight f4 [64, 64]
00000000: f792 f5bc ca0a a0bb 5485 c3bd 2860 73bb
00000010: ae18 c8b9 2474 a4bc 0376 393b 2ce0 60b9
00000020: 908c a0bc 3b4a a0bc 9d83 fabc 6726 b23b
00000030: 05df ae3d 83f6 4cbd d2d3 a6bd ac1b 493d
00000040: fc2b 17b9 97cc 713c d643 9d3b 8c7c 913b
00000050: 4f7d c23d 388d 8f38 5aff 333d 73cc 21bc
00000060: 3736 75bc a52b 8dbd 9f26 6d3a 86f0 bcbd
00000070: 47b6 9fbc 5ac8 9cbc 0596 1fbc b24b e6bb
00000080: dddf 403d 27ea 9c3d 5674 0abb 5d6c a43c
00000090: 7947 b73d 8ef0 123c 81e5 943c 4818 9e3c
000000a0: 9765 663c befa 603c e4db 15bc 9932 a23c
000000b0: 7a05 d93b 8790 633d f302 c03b 919d b2bd
000000c0: 85ab b93d 07c8 bc3d 99db a0bd 65b3 03bb
000000d0: b803 803c 6bed 573c 2eca 603d 9471 9d3c
000000e0: 22c9 023c 0531 453c feaa 97bc a4a0 033c
000000f0: 5aa8 babb 00ca 33bd a76a 093d 0132 8fbc
00000100: 1d08 8dbd 0f19 c7bd 9c6c 43bc 7319 ae3d
00000110: 9348 13bd 68ab 9c3c 4445 a4bc 4750 083c
00000120: 8830 2abc b871 a2bc 6e1a 423d e01d 1c3d
00000130: 4dad 40bd 4b05 42bc 552e 7dbc 6189 853d
00000140: dfb3 afbb 1f1a 96bd de59 a63b e65b 22bd
00000150: 9fe1 87bc b423 963c 327b 98bb 2834 583c
00000160: ced5 003c 81db 3c3c 8da8 a2bc c0ef 15bb
00000170: fbe4 36bc 0fdf cbba d045 4dbd d364 c0bd
00000180: 0a3e 443d 7f2e 91bd b471 56bc 8e1e e1bb
00000190: 7182 c6bd 8606 36bc b344 bebd eaf0 283d
000001a0: 231c cfbb 424c 90bd 2c99 f9b9 6efe fa3b
000001b0: 7494 893d 1c7d 8ebc 1550 78bd ad5b a03d
000001c0: c694 28bb 1b48 c0bc b01b fabc 0639 15bc
000001d0: f9b8 88bd 8fce 0c3d d89a 77bc 7c66 823c
000001e0: f6fe 2e3d 5193 8d3c 00fa 35bb b210 84bc
000001f0: 8c8f 453b 9329 6ebb 57ae 943c 9889 603d
00000200: 4ba6 d8ba 485a 9bbc 9a38 52bd 7f9b 8b3d
00000210: 6fd9 aa3c e2f3 65bc f7dd 263c edf5 7a3c
00000220: 70ed 1dbc 2303 8a3c 1a28 613b 5aef 003c
00000230: e5df 733d 7286 f03c 12ef 9cbc 6048 e9ba
00000240: 6fe2 01bc d0ac 96bd d238 29bd e9c6 7cbc
00000250: 56fe 4bbc d4e0 84bc a2da 55bc 2f1f 8ebd
00000260: 445a cd3c 1830 563d bcb4 453b 070c dc3c
00000270: 1dcf 73bc 7325 efbb 82f1 433c ab22 9b3c
00000280: b0c4 f838 d30b 643d a8ae 7a3d 9698 debc
00000290: 9b23 383b 15f8 573b d4df 65bc bfee a3bc
000002a0: cbe7 b7bb 4ea4 113d 114b 943c 7d7b 043d
000002b0: 2e37 f83b cba3 2d3c 1ffa 783c 95e7 513d
000002c0: 1ac4 273b 00b8 653d e015 9a3b 9e7a 9c3c
000002d0: 88f1 153d 6ee0 1ebb e2a3 bbba dea5 cdba
000002e0: 7fac c43a acbe bcbd 4ef0 983c 8fbb 9a3b
000002f0: bb83 893d 1833 79bd 5ccf 6ebb 8f2e e3bb
00000300: a5c2 913d 7ec5 ddba 6f41 0f3d 4a83 ba3b
00000310: 79c3 383d 1d4e eebc 1d33 dfbc 7048 3c3d
00000320: c939 adbd 24dc 64bc 804d d23b 9398 5bbd
00000330: 966b 7c3c a832 c13d e3f5 bebd 9116 a9bc
00000340: 326f 993b e413 983c ab1e a73d 2954 443c
00000350: 1ce3 84bc c8ae c5ba d229 0abc cf78 bb3d
00000360: 4766 983a f2c7 56ba 8c00 d039 fd9f 5dbd
00000370: d19f 9bbc 601a 6bbd 3931 97bd e2db 5a3d
00000380: 1802 78bc 5dae 533c 278c ae3d 6736 e3bc
00000390: 44dc 733a e239 a2bc f92b 933d 7606 acbc
000003a0: 315f af3d ee8a 71bd cd9c 6e3c 7af3 8a3d
000003b0: e21e 143d c231 9cbd 5dc1 9cbc e436 acbd
000003c0: 25c4 073c 355d 6abd 9aa5 b23b 8699 f63b
000003d0: 0c9e 983c 230b 42bd fa37 0c3c fd34 58bd
000003e0: 1b89 cb3a 4c7d 193c feaf 9e3c 0c6b 88bc
000003f0: d462 c83a d5e5 f73c c942 153b 8e31 b73d
-0.029977305 -0.0048840987 -0.09546915 -0.003713617 -0.0003816536 -0.020074911 0.00282991 -0.00021445815
-0.019598275 -0.019566646 -0.030580336 0.005436707 0.08538631 -0.05003978 -0.0814587 0.049098656
-0.00014416868 0.014758251 0.0047993464 0.004439896 0.09496557 6.8450754e-05 0.043944694 -0.009875405
-0.014966539 -0.0689309 0.00090465875 -0.09225564 -0.019496096 -0.019138504 -0.009740357 -0.0070280666
0.047088493 0.076618485 -0.002112647 0.020071203 0.08949179 0.0089684855 0.018175842 0.019298688
0.014062307 0.013731657 -0.009146664 0.019799517 0.0066229673 0.055557754 0.0058597266 -0.0872146
0.09065918 0.0921784 -0.07854385 -0.002009594 0.015626773 0.013179163 0.054880314 0.019219197
0.007982524 0.012035613 -0.018514153 0.008033905 -0.0056963386 -0.043893814 0.033548977 -0.017479898
-0.06886313 -0.097215764 -0.01192775 0.08500948 -0.035957884 0.019124702 -0.02005256 0.008319921
-0.010387547 -0.019829616 0.047388487 0.03811443 -0.047040273 -0.011842082 -0.015452941 0.065203436
-0.0053620185 -0.07329201 0.005076631 -0.039638422 -0.016587077 0.018327571 -0.004653358 0.013196029
0.007863475 0.011526943 -0.019855762 -0.0022878498 -0.011162992 -0.0015554148 -0.050115407 -0.09394231
0.047910728 -0.070889466 -0.013088632 -0.0068700975 -0.096928485 -0.011109954 -0.09290447 0.04124538
-0.006320493 -0.07045795 -0.00047607103 0.007659725 0.06717768 -0.017393641 -0.060623247 0.07829986
-0.0025723442 -0.023471883 -0.03053078 -0.009107834 -0.06675906 0.034376677 -0.015112601 0.015918009
0.04272362 0.01728216 -0.002776742 -0.016121242 0.0030145375 -0.0036340698 0.018149538 0.05481872
-0.0016529051 -0.018963948 -0.05132351 0.06816768 0.020855634 -0.014035197 0.0101847565 0.015317422
-0.009639129 0.016847199 0.0034356178 0.007869566 0.059539694 0.029360984 -0.019156966 -0.0017798059
-0.007927521 -0.0735718 -0.041313954 -0.015428283 -0.012450775 -0.016220488 -0.013052614 -0.069395415
0.025067456 0.05229196 0.003016754 0.026861204 -0.014880923 -0.0072981655 0.011959435 0.01893743
0.000118621974 0.05567534 0.06120172 -0.027172368 0.0028097394 0.0032954265 -0.014030416 -0.020011304
-0.0056123487 0.035557084 0.0181022 0.03234433 0.0075749373 0.010598133 0.015196352 0.051246244
0.0025599063 0.05608368 0.0047023147 0.019101437 0.036607295 -0.0024242657 -0.0014315809 -0.0015689691
0.0015005021 -0.09216055 0.018669274 0.0047220658 0.06714579 -0.060839742 -0.0036439514 -0.0069330405
0.071172036 -0.0016919819 0.03497451 0.0056919204 0.045108292 -0.029089982 -0.027246052 0.04596752
-0.08458287 -0.013968501 0.00641793 -0.053612303 0.01540651 0.0943349 -0.09324243 -0.020640643
0.004682445 0.018564172 0.08160146 0.011982956 -0.016221575 -0.0015081996 -0.008432822 0.09153902
0.0011627161 -0.00081932463 0.0003967326 -0.054107655 -0.018997105 -0.0573982 -0.07382435 0.053432353
-0.015137218 0.012919989 0.08522826 -0.027735902 0.00093025365 -0.019802991 0.071861215 -0.020999175
0.08563078 -0.058970384 0.014563751 0.06784721 0.036162265 -0.07626678 -0.019135172 -0.08408907
0.008286511 -0.057217795 0.00545187 0.0075256256 0.01863005 -0.047373902 0.008558268 -0.05278491
0.0015528532 0.009368252 0.019371029 -0.016652606 0.0015288242 0.03026096 0.0022775403 0.08944999

convs.1.convs.<subject___has_region___region>.lin_rel.weight f4 [64, 64]
00000000: 3008 16bd e61e cd3d b08b d7bc c03a 843b
00000010: c887 8bbd ec61 a53d 0076 733a aa36 e4bd
00000020: 86a3 b8bd 2857 483d b839 ea3d 1096 403c
00000030: e4d5 b2bd a0bc 413c f8de a5bc 349b 0dbd
00000040: 8079 713b 4cf4 76bd 601b 493c e644 c93d
00000050: 3473 09bd 1482 9a3d 625f b5bd 960c ebbd
00000060: 666c b73d d61d c2bd 1013 103c 00df abbc
00000070: 70c5 7fbc e046 b23c 8879 103d f8fc 1ebd
00000080: 705e 423c 1ea6 a4bd 0258 a4bd 92e0 c83d
00000090: 3885 b13d 3066 e4bc d4c3 8bbd 04ac c9bd
000000a0: d2a6 dbbd 8604 813d 30f9 1bbc 6c4e 76bd
000000b0: 0ae4 d2bd 84c4 97bd bc6d a2bd 386e b93c
000000c0: 6c8b 7a3d 70de c53d 24b7 fb3d f06a a93d
000000d0: aaf2 debd 40f6 77bb 22c8 ff3d f4a8 afbd
000000e0: 9019 56bc 401a 033c 98a9 9e3d 8c7d febd
000000f0: 0cd9 babd 60fd 3ebc 2c26 c0bd daee 8cbd
00000100: 50d1 b33c 9867 83bd 4085 0fbd 301b b23c
00000110: 8abe 9b3d 2062 6cbc d062 0e3c 941d 083d
00000120: 50d9 a9bc b8d4 a5bc d42b 1f3d f8e2 b9bc
00000130: 4057 2c3d b84d 1a3d 8822 b9bd f0e2 c7bc
00000140: 4ca9 233d ba55 fe3d 6c34 a0bd 40ca 79bd
00000150: 7018 023d ecf6 17bd a075 ea3d 20f3 90bd
00000160: 8cb8 6fbd d8bf 1a3d 2a1a a3bd ced9 d7bd
00000170: 1c78 223d c4eb 423d 206b d83b c00b 6bbb
00000180: e0d3 d33d 2c89 b33d 00cd b2bb 4495 333d
00000190: 2822 fe3d 003f 27bd 8825 b8bd 64aa bf3d
000001a0: a8f4 5c3d 98a1 8a3c 28a1 323d 6004 98bb
000001b0: 8a64 d53d daa7 e0bd 0024 913a d0cf 78bc
000001c0: 2873 e53c 48ba 88bc e07e c0bd 8ca7 c7bd
000001d0: e409 223d 9ecb e9bd 58fe f3bc 7e63 c6bd
000001e0: ec17 17bd d0b7 fbbc 8038 bd3d 2033 a5bb
000001f0: 3020 e93d 7894 213d 24f5 6a3d 9c2e a3bd
00000200: 8865 73bd b8d0 f3bc 7211 f53d 1c68 793d
00000210: de6b ee3d d694 a83d 6654 a2bd 146f 18bd
00000220: 345f 9c3d 4017 22bb 588d a63c 8cb1 653d
00000230: b0c8 743c 8220 9d3d 9eae a73d 80ff f53d
00000240: e818 35bd 608b 18bd f098 f23c ec41 7ebd
00000250: 3ca9 003d 9423 f4bd 5623 f23d b8f4 b03c
00000260: 0a1d a6bd 00ae a33a 3428 febd f035 e2bd
00000270: 24f2 ffbd 046a 013d 80c3 373d c4a2 1ebd
00000280: bc7c ac3d dc9a 88bd c86e 163d bc25 d7bd
00000290: b8b9 763d 4895 593d 10b2 a8bc 9a30 d73d
000002a0: 90a0 f7bc dc80 23bd 9832 ff3d 62b1 ebbd
000002b0: 94b3 f23d 908b 4bbd 96f2 fb3d 48bc da3d
000002c0: 068e f13d 1a32 bfbd 4094 7dbb c8b3 86bd
000002d0: 407f 41bd e451 843d 0a4b a63d 5e8a c53d
000002e0: 58bc d1bd 9c65 2a3d 7c25 1e3d a4ce 2dbd
000002f0: cad3 ee3d 742c bfbd 2e2a c7bd b286 e33d
00000300: a0ab cebd d0bd 74bc c26c 933d 2863 ab3d
00000310: 92cf cabd 9a29 c43d 48a1 6fbd 606d d73d
00000320: 00e8 723b ec1c 90bd 8861 a93d 266e d83d
00000330: 4035 42bd 1071 d93c 88d7 9e3c dca0 87bd
00000340: 004d 903b 1485 c2bd a803 afbd e802 49bd
00000350: 14dd fe3d f081 c73d 1cab 743d dc58 b63d
00000360: 800e 88bb 3aa9 ab3d de14 babd 009a 3c3a
00000370: 80f9 2ebb fedf dcbd c82a 563d 2ac1 c53d
00000380: c861 cc3c ba68 cf3d e0d5 e83c 9822 193d
00000390: 3c16 b5bd 18b0 973d 9450 a83d f017 e23d
000003a0: a046 dcbc c0ae f1bd 6633 a23d b8fe edbd
000003b0: 7856 77bd 863f 9cbd 8cb9 ebbd 5470 9abd
000003c0: 40f0 d63c 1090 20bc e0a7 eebb 681a cfbc
000003d0: fca3 5fbd a001 b33b 8830 d5bc 963c 9fbd
000003e0: b678 d93d 2c09 e93d 38fa 4d3d 2057 cb3d
000003f0: 34cf a13d a8d4 9e3c 1e1c f4bd 525a a2bd
-0.036628902 0.10015659 -0.026311725 0.004035324 -0.068130076 0.08075318 0.0009287298 -0.11143239
-0.090155646 0.048911244 0.1143679 0.011754528 -0.08732203 0.011824757 -0.020247921 -0.03457184
0.0036846101 -0.060291573 0.012274593 0.098275945 -0.033557132 0.07544342 -0.088560835 -0.1147701
0.08956222 -0.09478347 0.008793607 -0.020980358 -0.015611038 0.021762311 0.03527215 -0.03881547
0.011863336 -0.08039497 -0.08024599 0.098084584 0.086679876 -0.027880758 -0.068244606 -0.098472625
-0.10725178 0.06299691 -0.00951986 -0.060133383 -0.10297401 -0.07410529 -0.079310864 0.022635564
0.06116812 0.09661567 0.12290791 0.0827235 -0.10886128 -0.0037835985 0.12489344 -0.08577147
-0.013067618 0.008001864 0.07747191 -0.1242629 -0.0912343 -0.011657089 -0.09382281 -0.06881495
0.021950394 -0.06416243 -0.035039186 0.02174148 0.07604702 -0.014427692 0.008690551 0.033231333
-0.020733505 -0.020243034 0.038860157 -0.022691235 0.042075396 0.037671775 -0.090397894 -0.024400204
0.039956376 0.12418695 -0.07822499 -0.060983896 0.031761587 -0.037100717 0.114482164 -0.070776224
-0.058525607 0.037780613 -0.07963975 -0.1053959 0.039665326 0.047588125 0.006604567 -0.0035865158
0.10343146 0.08766398 -0.005456567 0.043843523 0.124088585 -0.040831566 -0.089915335 0.09358671
0.05394426 0.016922757 0.04361072 -0.0046391934 0.10419567 -0.10969515 0.0011073351 -0.015186265
0.028009012 -0.016690388 -0.093991995 -0.09748754 0.039560214 -0.1141579 -0.029784366 -0.096869454
-0.036888048 -0.030727297 0.09239292 -0.005041495 0.113830924 0.03944823 0.05736269 -0.079678744
-0.059423 -0.02976261 0.11966218 0.060890302 0.11641668 0.08231513 -0.07926254 -0.037215307
0.07635346 -0.0024733096 0.02033107 0.056077525 0.014940426 0.07672216 0.081876025 0.120116234
-0.044213206 -0.037242293 0.029613942 -0.062074587 0.031411394 -0.119208485 0.11823146 0.021601066
-0.081110075 0.0012487769 -0.12410012 -0.11045444 -0.124973565 0.031595245 0.044864178 -0.038729444
0.08422229 -0.06670162 0.036726743 -0.10505244 0.06023571 0.05312088 -0.02059272 0.10507317
-0.03022793 -0.03991781 0.12460822 -0.115084425 0.11850658 -0.049693644 0.12302129 0.10680443
0.11794667 -0.09335728 -0.00386931 -0.06577259 -0.047240496 0.06460932 0.08119781 0.09645532
-0.10241002 0.04160081 0.038609967 -0.042433396 0.11661489 -0.09334651 -0.09724842 0.111096755
-0.100913286 -0.014937833 0.07198478 0.08368522 -0.09902872 0.09578247 -0.05850342 0.105189085
0.0037064552 -0.070367664 0.08270556 0.10567884 -0.047414064 0.02654317 0.019389883 -0.06622478
0.0044037104 -0.09498039 -0.08545619 -0.049075037 0.12444511 0.097415805 0.059733495 0.08903667
-0.004152119 0.08381887 -0.09086011 0.00071945786 -0.0026699007 -0.107849106 0.052286893 0.09655984
0.02494897 0.10127397 0.028422296 0.037386507 -0.088421315 0.07406634 0.08218494 0.11039722
-0.026889145 -0.11800909 0.0791996 -0.11620849 -0.060385197 -0.07629304 -0.1151 -0.07540956
0.026237607 -0.009799972 -0.007283196 -0.025281146 -0.054599747 0.00546284 -0.026024118 -0.07775228
0.10618727 0.113787025 0.050287455 0.09928727 0.07900849 0.019388512 -0.119194254 -0.079273835

convs.1.convs.<subject___has_region___region>.lin_rel.bias f4 [64]
00000000: 7027 983d 4aa2 a4bd 501d f33c ec28 bb3d
00000010: f09b c0bc e417 eebd fab0 adbd e036 b53c
00000020: b2b0 da3d f679 8cbd 7879 3f3d c4db e83d
00000030: 68dc 9f3d 0c2d 96bd 10ed 243d 2684 f7bd
00000040: a2f2 a83d 0e21 c13d dc7c a3bd 400a b4bc
00000050: b0ee c3bc 80f4 d33c 4643 d53d 68a8 b1bc
00000060: 3455 c33d 9867 b33c 7044 e6bd 58f7 40bd
00000070: 183d 5f3d 2ca4 df3d f0ea 353d e092 2b3c
00000080: f055 663d 60f1 ee3c ee71 983d 6a4a 82bd
00000090: 2052 41bc f473 75bd 9c12 edbd 86f0 c6bd
000000a0: 7030 c73c 20f3 fcbb ae8d bf3d 64b2 90bd
000000b0: aa22 f33d d0e3 7dbc a842 e6bd fc05 07bd
000000c0: f80c 6ebd 2a2c b23d c0a6 b33d e66b 9cbd
000000d0: f054 b3bc 72ed 8d3d a41e 2cbd b093 f83d
000000e0: 7271 f0bd dcc7 de3d 6246 9bbd 74e8 bcbd
000000f0: 5899 e5bc 6071 3c3d 9025 a53c 9a4f d4bd
0.07429397 -0.08038767 0.029677063 0.091386646 -0.023511857 -0.116256505 -0.08481021 0.022120893
0.10678233 -0.068592 0.0467467 0.11370042 0.07805711 -0.07332811 0.040265143 -0.12085752
0.082494035 0.09430133 -0.079827994 -0.021977544 -0.023917526 0.025873423 0.10413222 -0.021686748
0.095377356 0.021899983 -0.11243522 -0.047110885 0.054501623 0.10919985 0.044413507 0.010472029
0.0562343 0.029167831 0.07443605 -0.063618496 -0.011799365 -0.059925035 -0.11575815 -0.09713845
0.024315089 -0.0077194124 0.09353195 -0.07065275 0.11871846 -0.015496209 -0.112431824 -0.03296469
-0.058117837 0.0869983 0.087720394 -0.076377675 -0.021891087 0.06930055 -0.04202141 0.12137544
-0.11740388 0.10877964 -0.07581784 -0.092240244 -0.028027222 0.04600656 0.020159513 -0.10366745
