model_fold_1.pth (torch, 200819 bytes, 36 tensors)

convs.0.convs.<subject___has_region___region>.lin_rel.weight f4 [64, 64]
00000000: 2ed9 66bd 23a9 3e3c 904d b13c f718 923d
00000010: 490f 05bd 761e 9ebc 0265 07bd 8064 7f3d
00000020: 94b7 3cbd 5649 85bc 9adb 283c b30b b63c
00000030: 3577 05bd 1a96 cbbd e2b7 95bc dc01 be3c
00000040: bccb d9bb b1c3 553d a21e fabc 315b 96bd
00000050: 60cb 8fbd 668f e7bb 4a7a ba3c 7dcc 353d
00000060: dd61 e03c 9181 c43d 1086 f43c 1057 d8bd
00000070: 5623 b8bd ef99 e23c bef9 193c cec2 9d3d
00000080: 1f8b 0e3d 130b 643d 59af 9dbd 46eb 41bd
00000090: 0022 3a3d c637 1d3d 1337 de3d 2015 a3b9
000000a0: 083b c13d 8487 46bd a097 233d 4b69 90bc
000000b0: d2a4 2b3c 7cbc c93c cac5 933d 1c09 87bd
000000c0: 5568 97bc ff53 bbbd 86d5 903d 561b a0bd
000000d0: d361 8a3d 2ab3 41bc 5be4 fc3c e6dc 6cbb
000000e0: 2839 ab3b 117a a63c 0ed6 5f3c f8ff 963d
000000f0: d6ab 2d3d 9db6 433c c3bc c1bc 70e3 013d
00000100: c61f 1dbd 56d0 cbbc f45c c63d ede5 a03d
00000110: 6e32 0e3d 24f3 5b3c 9868 34bd 9785 7fbc
00000120: 321b 873d 0f49 b13b 988a 9e3b b962 0cbc
00000130: 9c1c a3bd c396 eb3a 2638 09bd 1d0a fa3b
00000140: 63e9 9bbc 42a1 903c 556b eb3d c105 9dba
00000150: 9ad9 2abd c73e 6cbb 2038 debc e02e aabd
00000160: 2815 c0bd 48aa 57bd 3574 a53c a14c 933d
00000170: 5ab3 953d 92fd 673d 0433 47bd 18fc 733c
00000180: aa7c abbc 19c0 11bc 8cb5 d1bd 6f60 bd3d
00000190: 62f0 db3d d728 e2bd d7f3 68bc 4c80 563d
000001a0: 1efa b23d 6e9e c93d f976 9ebd 7dcc e6bc
000001b0: da74 79bd 4c9e 963c cff1 80bd 7f30 b0bc
000001c0: 329e 913d 1836 7b3d 7492 9e3d 3bad 9b3c
000001d0: 2d60 0cbc bf16 3a3c 46d9 dabb 81a5 f83d
000001e0: 3af7 ae3c 78bc f3bb 2d6f 183c 5822 56bd
000001f0: a1ed e4bd 5d09 113d 0126 96bd 3a97 85bc
00000200: cc4c c93a 1dcb 1d3c 208b d3b9 30a1 5dbb
00000210: 5042 523c 1672 72bc 8c02 5abc 7e85 8fbc
00000220: b406 063c 5300 32bd 2092 5d3b dbf7 693c
00000230: e2bf 4c3c 510c 6b3b f41d c93b 99c4 013c
00000240: dbf3 103d edac 3e3d 0d0b 77bd 599f 953c
00000250: 8ac6 47bd ac7d 563c f02a 4b3c 2a63 543c
00000260: 1507 28bc 74e8 1abb 1a74 75bb ddd3 703d
00000270: 33e8 77bb b8a2 c73b 3ce5 1ebd f7ab ba3c
00000280: ea8f 483d c94f 803b 6603 abbc 6e93 5cbb
00000290: 7bd3 1fbb 28c9 233b 28db 113d 57f8 4c3d
000002a0: 7711 fa3b 60d0 91bb b67b 903a ae48 3abc
000002b0: ae09 043c 849d 943c 95e7 3fbb c210 bd3c
000002c0: cd8d 523d 40d4 47bd 9da4 113b 9a10 e4bc
000002d0: bcf1 6fbc 647c 163a 879b 5ebc 567f 003d
000002e0: 926c 313c d499 1bbc d439 c5bc 06ac aabc
000002f0: 4cbe f539 d0bc 113d 93e4 d93b 6e84 1cbc
00000300: 7abe da3c cf30 88bc cc25 843b 3b3c e6bb
00000310: c671 663d d27a 2d3d fc82 0d3d b6e5 ddbc
00000320: 73f4 b1bc 9e3d b6bc c2ce 033d 9878 aebb
00000330: 068e 18bd f30f 2ebd 17aa eabc e0c5 52bd
00000340: 0699 dfbd 56ce a53c a513 043d 4cfb 963d
00000350: 334d 32bc 447b d53c b7c3 ac3c b2df 803d
00000360: 7d00 d9bc c229 64bc 94fe 2a3d 8a02 04bd
00000370: e026 293a 7d3f 0f3d 4209 fb3c daa3 3abd
00000380: 4472 f3bc 4743 be3d 9754 bf3d 9cbf c2bc
00000390: 62b2 cebd dedd fdbb d072 1d3d a5b2 80bd
000003a0: b231 b83d d0f1 4d3c 369b 1e3d eec4 49bc
000003b0: 26d8 30bd 45de 27bc 02de 5ebc 5fa4 113d
000003c0: 3bec bd3b e56a f6bc 14e3 b2bc 33de dd3d
000003d0: 2e5c a0bc fc54 fcbc a9ec 33bc 4fdb 95bd
000003e0: 60d9 66bd 025b bb3c 6b46 17bd 49d8 113d
000003f0: 6338 793d d474 7cbc d39a a1bc c898 02bd
-0.056359462 0.011637005 0.02164343 0.07133668 -0.03248528 -0.019301634 -0.033055313 0.062351704
-0.04607351 -0.01627032 0.010306263 0.022222375 -0.032584388 -0.09940739 -0.018276159 0.023194246
-0.0066466015 0.05218858 -0.030532185 -0.07341612 -0.070212126 -0.007066655 0.02276339 0.04438447
0.027390415 0.09595025 0.029849082 -0.10563481 -0.08991115 0.027661292 0.009397922 0.07703172
0.034800645 0.055674624 -0.076994605 -0.047343515 0.04544258 0.038383268 0.10850348 -0.00031105522
0.094350874 -0.04846908 0.039939523 -0.017628333 0.010476308 0.02462601 0.0721546 -0.06593534
-0.018482367 -0.0914688 0.07071976 -0.07817714 0.0675694 -0.011822501 0.030870607 -0.0036142408
0.0052253194 0.020321878 0.013661874 0.07373041 0.042400204 0.011945394 -0.023649579 0.031711042
-0.03836038 -0.024879616 0.09685698 0.07856355 0.034716062 0.013424668 -0.04404506 -0.015595815
0.06596984 0.0054103206 0.004838299 -0.008568459 -0.07964441 0.0017974008 -0.033500813 0.0076306
-0.019032186 0.017655019 0.11495081 -0.0011979864 -0.041711427 -0.003604816 -0.027126372 -0.08309722
-0.09379035 -0.052652627 0.020197013 0.0719235 0.07309599 0.056638308 -0.048632637 0.014891647
-0.020933468 -0.008895897 -0.102397054 0.09246909 0.10739209 -0.11042946 -0.014218292 0.052368447
0.08739112 0.09844671 -0.07737536 -0.02817368 -0.060902454 0.018386029 -0.06296121 -0.0215075
0.071102515 0.061330885 0.077427775 0.019003501 -0.008567852 0.011357962 -0.006678733 0.12140942
0.021358121 -0.0074382387 0.00930385 -0.052278847 -0.111781366 0.03540932 -0.073314674 -0.016307462
0.001535797 0.0096309455 -0.00040348712 -0.0033818 0.012833193 -0.014797708 -0.013306271 -0.017519709
0.008180309 -0.04345734 0.003380902 0.014280285 0.01249692 0.0035865495 0.006137604 0.007920408
0.03538881 0.046551634 -0.060313273 0.01826446 -0.048773326 0.013091486 0.012400374 0.012963096
-0.010255595 -0.0023637088 -0.0037453235 0.0587958 -0.003782761 0.0060923956 -0.038792834 0.022787077
0.048965372 0.003915761 -0.020875644 -0.003365721 -0.0024387527 0.0024991725 0.035609394 0.050041523
0.0076314765 -0.004449889 0.0011023197 -0.011369867 0.008058948 0.018141516 -0.002928232 0.02307928
0.051404763 -0.0487864 0.0022223361 -0.027839947 -0.014645036 0.00057405815 -0.013586885 0.031371437
0.010829108 -0.009497125 -0.024075426 -0.02083398 0.00046871824 0.035580456 0.0066495626 -0.009553058
0.026702154 -0.016624836 0.004032826 -0.007026223 0.056260847 0.04235346 0.034548745 -0.027087074
-0.021723008 -0.022246178 0.0321796 -0.0053244345 -0.03724482 -0.04249568 -0.028645558 -0.05145824
-0.10917859 0.02023999 0.032245297 0.0737215 -0.010882664 0.026059754 0.021089418 0.062926665
-0.02648949 -0.013925971 0.04174669 -0.032228984 0.0006452631 0.034972657 0.030644063 -0.045566417
-0.029717572 0.09290176 0.09342306 -0.023773007 -0.100926176 -0.007747396 0.03843957 -0.06284074
0.08993854 0.01256986 0.03872224 -0.012315018 -0.043174885 -0.010245864 -0.0136027355 0.035557147
0.005795983 -0.030080268 -0.021836795 0.10833397 -0.019575205 -0.030802242 -0.010981717 -0.073172204
-0.05635965 0.022870544 -0.03693239 0.035606656 0.06084479 -0.015408713 -0.019727146 -0.031883985

convs.0.convs.<subject___has_region___region>.lin_rel.bias f4 [64]
00000000: 23c5 653c e09a 04bc b985 433c 8649 16bc
00000010: c644 b3bb 5f65 7f3c 280b 9c3b e2d4 5b3c
00000020: 59c5 3abd fe88 773c 0bed 143d 64d7 713c
00000030: fd1b cdbc 4ce6 35bc 24d4 523d b9f2 133d
00000040: 0fec a3bb e7ee afbc 9850 22bb 92f1 79bc
00000050: 24bc a3bc 8196 d2ba dfee 793c 026b c6bb
00000060: d034 a7bb a42b 72bb f80c 673d 41b8 37bd
00000070: 8196 37bc 8b23 2a3c d55c 313c fe4b 653c
00000080: 3290 803b a63e fabb 0c9f 3dbd d2e6 963c
00000090: 2401 ff3b 56e4 d0bc b72f 69bb 8221 2ebc
000000a0: 9094 7f3a 3440 3cbd d563 ecbb 44b2 4b3b
000000b0: f20a 50bc 794f b2bc eeb4 593d eab3 38bb
000000c0: d27d 99bb 5845 edbb 3a4a 633d 90c2 2abc
000000d0: de66 6a3c c3d9 173c 8c1c 2bbd cfa6 63bc
000000e0: 9f6f 7dbc 15d7 62bc 56bc 3e3c 980f 1b3b
000000f0: 24ab 583d 1ecb 61bb 59cf 523d f84f 353c
0.014024052 -0.008093566 0.011933737 -0.009172803 -0.005470845 0.015588134 0.004762072 0.013417454
-0.04559836 0.015108345 0.036358874 0.014760826 -0.02503776 -0.01110227 0.051471844 0.03612015
-0.0050025056 -0.021476222 -0.0024767276 -0.015255349 -0.019987173 -0.0016066582 0.015254705 -0.006055237
-0.0051027313 -0.0036952281 0.056408852 -0.044853453 -0.0112053165 0.010384451 0.010825356 0.013995169
0.0039234394 -0.007636863 -0.046294257 0.01842061 0.0077821184 -0.025499504 -0.0035581419 -0.010628106
0.00097496156 -0.045959666 -0.0072140493 0.0031081596 -0.012697922 -0.021766411 0.053151064 -0.002818341
-0.0046841884 -0.0072409324 0.05549071 -0.010422364 0.014306752 0.009268227 -0.04177527 -0.013894751
-0.015468507 -0.013845225 0.0116415825 0.0023660418 0.052897587 -0.0034453343 0.051467273 0.011066429

convs.0.convs.<subject___has_region___region>.lin_root.weight f4 [64, 64]
00000000: 0ea4 72bd f6b1 ee3b be41 b53a 2b55 59bd
00000010: 585e a63d a67b f83b 2b4a 0cbc 94cc 6a3d
00000020: b097 a53c 7d6c 223d b2f5 5f3d 996b 3b3c
00000030: ba95 d6bc b82b b339 fce1 ff3c 680a db3c
00000040: 78ba 1c3d fa9a 1b3c 6eae 2ebc 2381 25bd
00000050: 805e c13b 7d63 b7bc ec39 ae3c de09 063b
00000060: ac06 e7bb f4c2 c33c a373 17bd 14aa a23c
00000070: e94a 693d 0ca6 18bc 396e 02bd 3ed8 7c3c
00000080: f225 f3bc 4868 073c 4af6 57bd 657e 923d
00000090: 8343 9d3d 3828 35bd 9661 39bc 10b4 3dbc
000000a0: c166 3abc 261c 5c3d cba8 97bc 4b99 763c
000000b0: fded 4c3d d2fb 1f3d cbe4 55bd 7058 d13c
000000c0: 702d 083d 2b0e 403c 6393 afbd d649 01bd
000000d0: 98d9 953c 60a2 543c cd1f 723d 50f5 063a
000000e0: b2da 8cbb 6c47 f1bc 20e5 5abb bac5 b6bc
000000f0: 60d7 41bd 28a6 e03a 630c e23c 5e54 c63c
00000100: 835d 38bd c8e5 17bb 899f 14bd 18c5 3a3c
00000110: 2311 283d 322f eabc d317 0abd 80e8 d13c
00000120: 0c14 c93b a0aa b83c a48b 83bc d012 2c3a
00000130: 2920 b73c f769 1fbd 8f80 023d 7171 72bd
00000140: 4a5c 79bc cddd 603d d578 7c3d 0553 e5bc
00000150: 14c8 223c 96bc 2fbd c258 3bbd 40cf d13a
00000160: 32ac 6c3d b64b 833d ff46 bd3d 1732 213d
00000170: 062f ad3d c0ba 8d3d ed5a 7a3d 84d6 bdbc
00000180: 9149 90bd 5bd7 c33c bebb da3c 6801 76bc
00000190: e25e 073d 488d e9bb eebf 26bd a812 cd3c
000001a0: 717a a4bc b1f7 34bc 91a9 66bd ae8d 68bd
000001b0: 726b 4c3d 8654 e0bc d66c 63bd ea98 78bc
000001c0: 4674 123d a0b7 a2bd 0fe1 553d 0529 9a3c
000001d0: 2dc6 49bd 0195 73bd 5ab8 84bd 0e09 313c
000001e0: 5834 2ebc 8e11 23bd a68f 4dbd 6652 96bd
000001f0: ac77 a9bd 7ead 6e3d d036 3c3d 9c6e 6b3d
00000200: 41de 71bd 3a8b 613c ca4a 7dbd 568a b9bd
00000210: 5276 4dbd 4d6e 82bd a8f7 b63c 5b26 0bbe
00000220: b61c 6fbd 4eae 2cbd 2572 9abc e528 39bd
00000230: 12e3 8fbc b506 cfbc b591 1b3d 4f47 e93c
00000240: 09a6 563d 44b0 923d 734d 1b3d f171 9cbc
00000250: 06c5 603c 4a30 d43c a07f 49b9 6aae dbbc
00000260: 8ded 7e3d 80cf 173d 3e06 1ebc 0950 d2bd
00000270: 1fda 0fbd d660 aa3d 3c68 91bd c87b 82bd
00000280: 0903 7a3b 99f9 c5bc 1263 833d a5df b0bc
00000290: 1ed3 37bd 602b 233d 63c0 1f3d 1e6d 42bc
000002a0: c057 15bd abc3 bfbb f682 133d 06af 3b3d
000002b0: 6977 75bc b4c7 cf3c 6d58 853d 34de f2ba
000002c0: fc32 9ebc 34cd d1bd d1e5 20bd e472 743d
000002d0: a1c6 b43d 3fc8 923d 1dd8 8f3c 0810 223d
000002e0: 83e4 cdbd b34a 52bd f215 09be 4c6f 01bd
000002f0: 94e6 d93d 9895 48bd 444a 19bd 7efd dcbc
00000300: 53a2 243d 9bbb 863d f2cf 1cbd f9d6 41bd
00000310: f459 253d 72ab 543d f6de 973d 3291 0cbd
00000320: bac3 843d 52af ccbc 8768 dabc 92d4 52bd
00000330: f94b 02bc 8037 ee3c 6c99 293c e164 6c3d
00000340: ec8e bcbc 80eb a83a fa97 cd3c e0cc 163d
00000350: 083c f63c af1d c73c f3be 1cbd 44e9 87bb
00000360: b184 803c 4ff4 24bd be8e 833d f148 82bd
00000370: d884 34bd fa1d eb3b 37fa 36bc b6ae 43bd
00000380: 370c 8d3d 764b 9fbd 0dbd 56bd 01ad 77bd
00000390: 3cf9 83bd 5a70 a7bd 39c9 3b3d 316a 0bbd
000003a0: 816d 95bc 1ca4 3f3b b83d 913d 0e92 85ba
000003b0: 05cb 10bd 3960 5fbd 9966 78bd a76a 20bd
000003c0: 3d97 90bd 8c81 35bc 51de adbc 164a a33c
000003d0: f0ea 493d ff1c a43d 450f 3a3b 81bd 863c
000003e0: 3674 bd3c 4fe6 033d 0ade 27bd 5a10 d3bc
000003f0: 40c9 02bd 0052 a13d 5469 eebc 2221 b63c
-0.059238486 0.007284398 0.0013828797 -0.053059738 0.081234634 0.0075830994 -0.008562605 0.057324007
0.020213932 0.039654244 0.054677673 0.0114392275 -0.026194442 0.00034174114 0.031235687 0.02673836
0.038263768 0.0094973985 -0.0106617045 -0.040406357 0.005901158 -0.022386307 0.021267854 0.0020452659
-0.007050356 0.023896672 -0.036975514 0.01985649 0.056956206 -0.009316932 -0.031843398 0.0154324155
-0.02968118 0.008264609 -0.052725114 0.07153014 0.076788925 -0.04422781 -0.01131477 -0.011578575
-0.0113770375 0.053737782 -0.018513104 0.015051196 0.05003165 0.039058514 -0.052220147 0.025554866
0.033246458 0.011722128 -0.08573034 -0.031564556 0.018292233 0.012978166 0.05911236 0.0005148249
-0.0042985315 -0.029453002 -0.003340073 -0.02231108 -0.04732454 0.0017139362 0.027593797 0.024210151
-0.045011055 -0.0023177732 -0.036284957 0.01139953 0.041031968 -0.028586958 -0.033714127 0.02562356
0.006136423 0.022542298 -0.016057797 0.00065640826 0.022354202 -0.038919415 0.031860884 -0.059190217
-0.015219757 0.054899026 0.061638672 -0.027993688 0.009935398 -0.04290446 -0.045738943 0.00160072
0.057781406 0.06410925 0.09242057 0.03935441 0.08456235 0.06920385 0.06112187 -0.023173578
-0.07045282 0.0239064 0.02670085 -0.015014984 0.03304947 -0.0071274377 -0.040710382 0.02503331
-0.020077916 -0.011045382 -0.056314055 -0.05677574 0.049907155 -0.027384054 -0.055523716 -0.015173176
0.03575542 -0.0794518 0.052216586 0.018818388 -0.04926126 -0.059468273 -0.06480475 0.010805381
-0.010632597 -0.039811663 -0.050185822 -0.07339935 -0.08274779 0.058270924 0.04595071 0.057478532
-0.05904985 0.013766104 -0.061838903 -0.090595886 -0.050161667 -0.063686945 0.022334889 -0.1358885
-0.05837699 -0.042158417 -0.018853256 -0.045205016 -0.01756433 -0.025271753 0.037980754 0.028476385
0.052404437 0.07162526 0.03791566 -0.0190973 0.013718849 0.025901932 -0.00019216398 -0.026816566
0.062238265 0.03706312 -0.009645043 -0.10269172 -0.035120126 0.08319251 -0.07099959 -0.06371266
0.0038148782 -0.024166869 0.064153805 -0.021591017 -0.04487907 0.039836287 0.039001834 -0.011866836
-0.036460638 -0.005852183 0.036013566 0.045821212 -0.014982083 0.02536378 0.065110065 -0.0018529356
-0.01931142 -0.102442175 -0.03928167 0.05967988 0.08826948 0.071671 0.017559106 0.03956607
-0.10053351 -0.05134077 -0.13387278 -0.03160028 0.106396824 -0.04897079 -0.03742434 -0.026976343
0.040193867 0.06578752 -0.03828425 -0.047324155 0.04036899 0.051921315 0.07415573 -0.034318157
0.064826444 -0.024985943 -0.02666117 -0.051472254 -0.007952684 0.029079199 0.01035152 0.057713393
-0.02301737 0.0012887567 0.025096882 0.036816478 0.030057922 0.024306146 -0.03826804 -0.0041476805
0.015688272 -0.040272053 0.0642371 -0.06361569 -0.044072002 0.0071752043 -0.011168054 -0.04777404
0.068870954 -0.07778065 -0.052426387 -0.060467724 -0.06444022 -0.08175726 0.045846198 -0.03403682
-0.018240692 0.0029242104 0.0709185 -0.0010190622 -0.035349865 -0.054535124 -0.06064472 -0.03916421
-0.070600964 -0.01107825 -0.021224173 0.019932788 0.04929632 0.08013343 0.002839045 0.016447784
0.023126703 0.03220206 -0.040983237 -0.025764633 -0.03193021 0.078769684 -0.029102959 0.022232596

convs.0.convs.<region___rev_has_region___subject>.lin_rel.weight f4 [64, 64]
00000000: 35c5 88bc 597b 7cbc 184e a2bc eb97 913b
00000010: 3a14 85bb 0b31 ae3b fa9b c3bc eefd 0d3d
00000020: 6d2f f5bb 01e0 0bbc 0055 0fbc 0fb3 9a3c
00000030: a5cc 65bd 688a 17bb 07ea 543d 3cd7 7bbc
00000040: 2c49 3fbd ee95 cabc 14ae 6bbb a41f 18bc
00000050: e658 663c 155b 6dbc 97cc 643c 47de 43bc
00000060: fb3e 1e3d ee49 20bd dcc8 e53a 0651 253b
00000070: a88e 303d 0806 ce3c aee8 8d3c 6033 1d3a
00000080: cca8 48bc d849 f0bc 1014 c53b 8c9f 46bd
00000090: 262f 4b3d 36cf 14bb 260f 303c 9c18 163c
000000a0: 4792 863c 238f 443c 801a e03a 7c6e e5bb
000000b0: 043d 7e3c 4bae 433c 0a94 173b 113a 46bb
000000c0: 2ef0 953c 7185 543d 3e37 493b 9333 d8bb
000000d0: 2c2c 383c ddea 5fbc baaf 4d3b ba89 dfbc
000000e0: 309f f3b9 a04b 453c 41a0 4a3d f287 fe3c
000000f0: 20a7 91bb f3f0 bfbc 12d2 aeba 889f df3a
00000100: bce6 943b abb6 c23c 2714 923b 6cb0 ff3c
00000110: 7cfa 57bd 822c 5f3d 5f94 2d3c fdf6 b9ba
00000120: 785c 1cbd bd7d eebb 5cd0 cf3b 6652 59bc
00000130: 43ee 0abc fb70 4bbc 9372 7abc 86a3 3c3b
00000140: 5a7a 873c ef96 633c 72b3 00bb 6d6b f4bb
00000150: 1b30 c43b 518b 38bb c566 34bc 8a6f 09bc
00000160: b230 e0bb 502d 61b9 59ae bf3c b742 3c3c
00000170: 523d 1d3c 46ee d9bb 7967 e7bb df92 5dbc
00000180: feb6 74bb c041 2a3c 317f 8ebb 1bd2 ef3c
00000190: 82da 2f3c 9593 293d 516b 4fbc 9a95 363d
000001a0: f9bb 3fbc f4d2 f4ba bc92 82bc de50 423d
000001b0: e854 4dbb a5ce 2a3d a867 b63a bca6 edbb
000001c0: 34b5 573c 5d96 1f3d 3da1 81bb bc15 19bd
000001d0: e5df 4fbd 0503 33bd aa76 26bc 77cc 30bb
000001e0: b144 51bc e797 c1bb 0034 4f3d c9ee 66bc
000001f0: 1ffe 813c 88a6 57bc a844 6e3a 9af2 e6bb
00000200: d535 2fbc 3af9 bd3c 8743 063b 4ed2 7fbb
00000210: 0677 efbc 45b5 de3b 592c 5ebc f45e 333b
00000220: bf56 e8ba 0ba2 bf3b 0ac6 523c 5cdf adba
00000230: 7003 19bc d648 7abc b6ba 683c 4aa3 403d
00000240: 8946 28bc c719 0cbd 00ac 963b d4a8 d2bc
00000250: b6b3 61bb fa73 683d a3e2 69bc 119b d43c
00000260: faec b23c 93f3 793c d390 36bd a63c 75bc
00000270: d067 93bc bea3 833a 8ec8 6fbc bdb4 6a3c
00000280: 73b7 05bd b2be 753c eaa2 093c d6aa 883b
00000290: 1b3a 71bc 7eaa 74bc 4a07 ac3c a545 173b
000002a0: 355d 2b3c 02af fe3c de15 6d3c c24a c7bc
000002b0: 454a bb3c a986 c23b 2915 743c 5fa0 5cbc
000002c0: 1cd7 983b e45c 07bc 38af db3b 1ee5 4bbb
000002d0: 9616 493b 5465 ae3a b0b6 943b 9cdf 663b
000002e0: 8030 693c 94c2 323d 3ed4 c63b 9e9c 7b3c
000002f0: f797 18bc e359 5cbc c0b7 c038 b2ee f6bb
00000300: b80c e139 0486 c6bb f07a f7bb 8d67 223c
00000310: e256 46bd 00c2 223d b2e4 9c3c 1efd 2dbc
00000320: ae65 32bc 2bfe 753c ad11 f03b 9276 37bd
00000330: b8c6 463c 5aed 5dbc bee6 8ebb 3c69 b4bc
00000340: 479e b7bb 0fe6 4ebd 0eb6 b2bc 885a 963b
00000350: 521a 673b 8802 4ebb d385 f33c 8003 19b9
00000360: bfaa e33b 6651 323d 015d da3b 8082 76b8
00000370: a4a9 133d fdf3 803b e90d 5ebd 8204 68bc
00000380: 68b4 d43c e4ca 31bc c062 d73b 90e4 b1ba
00000390: 3ef4 07bd acd4 003b 5040 b939 83f8 2ebd
000003a0: e0a8 32bb 60dd 203c 0cf2 5139 a8aa b9ba
000003b0: e09a 6939 42e2 c8bc fdb1 083d 96eb c8bb
000003c0: 2248 953c ac5f 33bc 85a9 273d fbeb edbb
000003d0: a8eb 743b 8bce 173c 1ac6 2f3d a4bb 453b
000003e0: 2f31 0fbd 91f7 2abd b0e5 1fbd 422b 103d
000003f0: 4765 6ebc ea05 7dbc 5b13 3f3d e2f4 9d3c
-0.016695598 -0.015410268 -0.019812629 0.004443159 -0.004061249 0.005315905 -0.023878086 0.034665994
-0.0074824602 -0.008537293 -0.008748293 0.01888421 -0.056103367 -0.0023123268 0.051981 -0.01537114
-0.04670064 -0.024729695 -0.0035961913 -0.009284887 0.014059281 -0.014487048 0.013964794 -0.0119548505
0.03863428 -0.039133005 0.0017531174 0.0025225296 0.043104798 0.02514936 0.017322864 0.000599673
-0.012247276 -0.029332086 0.0060143545 -0.048492 0.04960551 -0.0022706515 0.010745799 0.009161141
0.016427172 0.011997017 0.0017097741 -0.007001696 0.015517477 0.01194341 0.002312901 -0.0030247013
0.018303003 0.051885072 0.0030703093 -0.006597945 0.011241 -0.013666836 0.0031385259 -0.027287353
-0.00046467176 0.012041956 0.049469236 0.031070683 -0.0044449717 -0.023430323 -0.0013337752 0.0017061094
0.0045441072 0.023768744 0.0044579688 0.031212054 -0.052729115 0.054485805 0.010594456 -0.0014187988
-0.038174123 -0.0072781728 0.006341977 -0.013264274 -0.008479658 -0.012417073 -0.015286106 0.002878399
0.016537834 0.013890966 -0.0019638208 -0.007459095 0.00598718 -0.002815921 -0.01101083 -0.008388409
-0.0068417424 -0.00021474552 0.023398565 0.011490515 0.009597139 -0.006650719 -0.0070618954 -0.013523786
-0.0037340517 0.010391653 -0.0043486585 0.02927499 0.010733249 0.04140051 -0.012659864 0.044576265
-0.011702531 -0.0018678592 -0.015939109 0.047440402 -0.0031331126 0.041700978 0.001391639 -0.0072525423
0.013165761 0.038961757 -0.0039559887 -0.037374243 -0.05075063 -0.04370405 -0.010160128 -0.002697734
-0.012772725 -0.0059080007 0.0505867 -0.014095017 0.015868245 -0.013162263 0.000908921 -0.0070479633
-0.010693987 0.02319013 0.0020487027 -0.0039035263 -0.02923156 0.0067965114 -0.013560378 0.002736983
-0.0017726048 0.0058481744 0.012864599 -0.0013265419 -0.0093391985 -0.0152761545 0.014204672 0.047030725
-0.010270723 -0.03420427 0.0045981407 -0.02571527 -0.0034439391 0.05675123 -0.014275226 0.025952848
0.021841515 0.0152558265 -0.04457171 -0.014968073 -0.017993838 0.0010043306 -0.014635218 0.014325318
-0.032645654 0.014999079 0.008400658 0.004170756 -0.014723326 -0.014933227 0.02099957 0.0023082283
0.010459234 0.03108931 0.014470546 -0.02432764 0.022862563 0.005936463 0.014897623 -0.01346597
0.004664315 -0.008261893 0.0067042373 -0.0031111906 0.0030683628 0.0013305345 0.0045383796 0.0035228496
0.014232755 0.043642595 0.0060677817 0.015357165 -0.009313575 -0.013449165 9.1894995e-05 -0.007535779
0.0004292482 -0.0060584564 -0.007552497 0.009912384 -0.0484227 0.039735794 0.01915202 -0.01061943
-0.0108885 0.015014212 0.007326326 -0.04479081 0.012132339 -0.013545359 -0.0043610027 -0.022022836
-0.005603585 -0.05051237 -0.021815326 0.004588429 0.003526349 -0.0031434614 0.029726898 -0.00014592521
0.0069478448 0.04353466 0.006663919 -5.8772508e-05 0.036050454 0.0039353357 -0.054212485 -0.014161231
0.02596493 -0.010851596 0.006573051 -0.0013572145 -0.033191912 0.0019658012 0.00035333866 -0.042717468
-0.0027261302 0.009818405 0.00020021963 -0.0014165239 0.00022278307 -0.02452195 0.033372868 -0.0061315997
0.018222872 -0.010948103 0.04093315 -0.007260797 0.0037371907 0.009265552 0.042913534 0.0030171657
-0.034959015 -0.041740004 -0.039037406 0.035197504 -0.014550514 -0.015443305 0.04664932 0.019281808

convs.0.convs.<region___rev_has_region___subject>.lin_rel.bias f4 [64]
00000000: 9ef3 74bb 705e 8f3c d481 0a3d 6f15 c7bc
00000010: bbec 52ba df7f f9bc 3886 98bb 2219 1dbc
00000020: 4473 d63c 91f1 513c 646d 36bc 018a 2bbb
00000030: 446d 11bd f074 7cbc 7f81 24bc 1515 62bd
00000040: 99a0 10bc 8222 07bc 8694 f0bc eab7 123d
00000050: 7b32 76bc 4af0 68bc ee14 1cbd ee49 20bd
00000060: 966e 5e3c d53c 6e3c 3469 e0bc 851b 7c3c
00000070: ae98 27bd 46bc e83b 753a 4b3b b03c a739
00000080: aa24 a6bc 7f4b 08bc c765 6f3c 90c7 75bc
00000090: 67e4 0d3c 02f8 1fbc ca50 f1bb f5cc d53c
000000a0: c289 ccbc 4ac6 8cbb ee6a 4fbd cf9f 4f3d
000000b0: ac90 523b 7ec8 2fbd c845 f6bb c4a0 67bd
000000c0: 1c5c 22bb 3e88 003c 9211 873b dac1 3d3c
000000d0: 541e a93b 027d c5bc cf38 52bd 7433 dbbc
000000e0: cc47 263d 6e71 67bd c8ab 97bc 142b 4fbd
000000f0: 3455 7abc c87f 483d 52af a03a 0cd6 edbc
-0.0037376652 0.017501086 0.03381522 -0.024302213 -0.000804614 -0.030456482 -0.004654672 -0.009588512
0.02617801 0.012813942 -0.011134479 -0.0026174786 -0.035504594 -0.015408739 -0.01004064 -0.055195887
-0.008827352 -0.008247973 -0.029367696 0.035819925 -0.015026684 -0.014217446 -0.038105898 -0.039133005
0.01357617 0.014540871 -0.027393915 0.015387421 -0.04091709 0.007102522 0.0031010185 0.00031897938
-0.020281155 -0.008318781 0.014611668 -0.015001193 0.008660412 -0.0097637195 -0.007364367 0.026098708
-0.024968032 -0.004296099 -0.050639085 0.050689515 0.0032129688 -0.042915814 -0.007515643 -0.056549802
-0.002477414 0.007844983 0.0041219676 0.011581862 0.005161086 -0.02410746 -0.05132371 -0.026757933
0.040595815 -0.05650466 -0.018514529 -0.050578192 -0.015279103 0.048949987 0.0012259281 -0.02903273

convs.0.convs.<region___rev_has_region___subject>.lin_root.weight f4 [64, 64]
00000000: ee7f 183e 62fa ac3d 7c74 81bd 9930 f83d
00000010: 9ea9 17be fa92 973d 40e8 ff3d 6870 ca3a
00000020: 1c5d a6bb 4031 f73d 3035 a5bd 760c d3bc
00000030: f36a eebc b482 03bc 41b9 e4bd a377 98bd
00000040: 55f0 05be a918 bbbd a634 d1bd 1f0b 05bd
00000050: 16bd e3bc 5be3 c7bc 2c76 f13c 7b03 dc3d
00000060: bc9e 253d c4bc 1ebc 6566 f3bc 1b4f 1a3d
00000070: 91fa 293d ef4f 193b 0348 883d 1ccb 73bc
00000080: 0066 35bd 238b 9c3d 7f51 1f3e 927e 2d3d
00000090: fa0e 87bd 4106 413d 7bfd 923c 28be 2cbb
000000a0: 6b16 fb3c 2f76 993d 3a42 2dbe c99b b8bc
000000b0: 7415 d5bd 343e 07bd b004 05bc 8bad 353e
000000c0: 832b d13d e132 093d 551d cbbc 098e b93d
000000d0: 5da0 453d fbee 90bd c1dc fdbd 23b4 b4bd
000000e0: a870 c93c 6d3b ebbd 39e2 dbbd ca62 003e
000000f0: 1292 e1bb 7135 5cbd 994a cf3d 620c a3bd
00000100: 391e 1dbc 30a2 23bc 443a 11bd 9767 c2bb
00000110: a1aa f43b 36e1 193d 2c84 06bd 35b3 f5bc
00000120: 54d7 0d3e 1d90 0a3e d1d0 79bc 7f96 513d
00000130: 7268 8c3d c922 ed3d 0ea3 f73d e3a7 123e
00000140: ca53 653d ce06 46bd 7461 2f3d 2c0b 7dbc
00000150: 0711 22be 6122 0a3d fc6f e53c 7497 123d
00000160: 9db7 2dbd 1954 36bd e0c5 e23b 91e2 24bd
00000170: 02ca ebbc 52da f6bd 7d66 993d 8c3d 463c
00000180: 2927 30be 4c6d b23d dfe8 3cbd 7f53 ad3d
00000190: e095 f83d fbd3 0fbe fe5b a7bb 2ee3 863d
000001a0: 59c0 17be 1db2 ccbb b0f1 843b 4849 d63d
000001b0: a63b 883d 6984 923c d22a 26bc 7148 93bd
000001c0: f454 a3bd 3fc8 1f3e 58d0 16bd 4469 32be
000001d0: 25eb 903d 4bab cf3d 6383 5b3d c8cd e03d
000001e0: 5432 e03d 5841 0e3c e11f 85bd c1e5 f3bd
000001f0: c546 28be 2ed7 69bc f860 fd3d 7d5d b2bd
00000200: ae32 a63c 03c0 a1bc c10b e1bd eb19 0f3e
00000210: e9b4 863c 0e58 b13d db47 e23c 9081 a3bd
00000220: 4425 fe3d a203 1c3e 1b8f e3bd 50cd 1ebd
00000230: 8af9 3a3d 09a7 023c 84a3 edba 83bb 0e3d
00000240: d003 893d 1c87 7e3d 8b8f 0e3e 4e67 033d
00000250: b13e a4bd fc6b 58bc 785d 833c ce49 7cbd
00000260: 0cbb 1c3d 1f5f b63d 4c82 19bb e845 933d
00000270: 0348 723d 3f18 ff3d ec28 213b 1aa1 2bbd
00000280: 334f 9e3d fc1d c4bd dbd4 bd3d b840 5cbc
00000290: 49da cb3c d3b6 f53d 778d a13d c13f 39bd
000002a0: b07a b93a abcf a43d 094f f1bd 5609 c2bd
000002b0: 3591 cbbd 9eb3 b0bc 87fc dabd 33ed 0e3e
000002c0: 2094 87bd b012 8c3c 5359 d83c a83d 613d
000002d0: 8f11 913c 9875 2a3c 1260 033d 0bec 873d
000002e0: 0254 c43d deff a2bd ed00 0cbe a7f0 6abb
000002f0: 24ee af3c 41ab a53d cb73 d63c 7604 4fbd
00000300: 6d56 77bd 879d 52bd 9abe 97bd 7265 bd3c
00000310: ef20 33bd f43d 053d 08e8 b63b 23bd 173d
00000320: 1e04 83bd e1e5 aabd 9529 853d ef7f b33d
00000330: 6958 d7bc 5341 c5bd ae4e ad3d fdc8 8ebd
00000340: 644f 91bc 7270 383c 8d77 933c df42 8bbd
00000350: 7522 cc3d 1570 a9bd d220 073e 38c7 dd3d
00000360: a8a1 2e3d a27b 17bd 1252 02be a038 2ebd
00000370: c725 66bd 80b3 2239 50ad b23d 1d3d dfbd
00000380: bc67 07bd 985e bb3c c6de c3bd 364c ef3c
00000390: 843f a6bd 9299 78bd ba2a a93d 5d9f f7bd
000003a0: 9da9 283d ecf4 a53d 0102 53bd 1bac cbbd
000003b0: d2ce 4a3c c633 283d 97da 063e 2862 b0bc
000003c0: 7952 953d 005d d0ba 6e2c 07bc 739b 10bd
000003d0: b140 753d 4463 393d 6e4d b93d 2efe 693d
000003e0: f770 343d 24f1 6ebc c054 c5bc 0fce 0dbd
000003f0: a699 c43d f5c8 803c fc3d 723d de24 1c3e
0.14892551 0.08446194 -0.06321046 0.12118644 -0.14810798 0.074010804 0.1249547 0.0015444877
-0.0050770175 0.120699406 -0.08066785 -0.025762778 -0.029103732 -0.0080267675 -0.11168147 -0.07444694
-0.1307996 -0.09135563 -0.1021512 -0.03248131 -0.027800124 -0.024400404 0.029475294 0.10742851
0.040434584 -0.00968856 -0.029711911 0.037673097 0.041498724 0.0023393591 0.0665436 -0.014879968
-0.044286728 0.07643726 0.15558432 0.042357035 -0.065946534 0.047125105 0.017943135 -0.002635846
0.030650338 0.07493245 -0.16919795 -0.022535222 -0.104044825 -0.033018306 -0.008118793 0.17741983
0.10213377 0.033495788 -0.02479426 0.09060294 0.048248637 -0.07076832 -0.12395621 -0.08823421
0.024589851 -0.11485944 -0.10736508 0.12537685 -0.006883868 -0.053761903 0.1012165 -0.07961346
-0.009589725 -0.009987399 -0.035455957 -0.005932759 0.0074666296 0.037568294 -0.032840893 -0.02999268
0.13851672 0.13531537 -0.01524754 0.051168915 0.06855859 0.115789 0.12091647 0.14321856
0.05598811 -0.048346333 0.042817548 -0.015444558 -0.15826808 0.033724193 0.0280075 0.03578897
-0.042411435 -0.044513796 0.006920561 -0.040255133 -0.028782848 -0.1205336 0.07490251 0.012099635
-0.17202438 0.08712253 -0.04612052 0.08463191 0.121379614 -0.14045708 -0.005107402 0.065863
-0.14819469 -0.0062468187 0.0040571317 0.10463196 0.06652002 0.017885404 -0.010142045 -0.071915515
-0.07975188 0.15603732 -0.036819786 -0.17422968 0.070761 0.101400934 0.053592097 0.1097675
0.10947099 0.008682571 -0.06500221 -0.119090565 -0.16433246 -0.014272494 0.12372011 -0.08709238
0.020287838 -0.019744879 -0.1098857 0.1397473 0.016443687 0.08659373 0.027622154 -0.079836965
0.124094516 0.15235761 -0.111112796 -0.03877002 0.045648135 0.007974395 -0.0018130396 0.034846794
0.0669018 0.06214057 0.13921945 0.03208094 -0.0801977 -0.013209339 0.01603578 -0.061593823
0.03826432 0.08904862 -0.002342361 0.07191068 0.059150707 0.124557965 0.0024591042 -0.041901685
0.0772995 -0.095760316 0.092691146 -0.0134431645 0.02488436 0.119977616 0.078883104 -0.045226816
0.0014150944 0.08047422 -0.11782653 -0.09474437 -0.099398054 -0.021570023 -0.10692697 0.13957672
-0.066200495 0.017098755 0.02640978 0.05499044 0.017708568 0.010404013 0.03207404 0.066368185
0.09586336 -0.07958959 -0.13672228 -0.0035849006 0.021475859 0.08089305 0.026178261 -0.050541364
-0.060385156 -0.05141976 -0.07409401 0.023119662 -0.04373258 0.032529786 0.0055818595 0.03704561
-0.0639727 -0.08344627 0.06502072 0.08764636 -0.026287274 -0.096316 0.084622726 -0.06971929
-0.017738052 0.011257278 0.018001342 -0.06799864 0.0996751 -0.08273331 0.13196114 0.108290136
0.042634636 -0.03698314 -0.1272662 -0.04253447 -0.05618837 0.00015516393 0.08724463 -0.10900328
-0.033057913 0.022872254 -0.09563975 0.029211145 -0.081175834 -0.06069333 0.082601026 -0.12090943
0.04117738 0.08103356 -0.051515583 -0.09944936 0.012378411 0.041065 0.13169323 -0.02153118
0.07291121 -0.0015896857 -0.008250339 -0.035304498 0.059876148 0.045260683 0.09047972 0.05712717
0.044053044 -0.01458386 -0.024088264 -0.03462034 0.095996186 0.015720824 0.059141144 0.15248439

convs.0.convs.<region___is_functionally_connected___region>.att_src f4 [1, 1, 64]
00000000: 7360 edbd 0b1f 4b3e fbce 933c f1df 473e
00000010: d41c bebd e049 d03b 9644 103e 117b 053e
00000020: 9f73 24be 108b 55be 070a 8a3d 955f c1bd
00000030: 3821 103b 986c 603e fee8 463e 40b6 633e
00000040: dc2c 463d 21d8 013e 6b69 243e c297 f5bd
00000050: 8958 52bd 3ede 35bc 4700 a13b f2f0 983d
00000060: 5e0c 183c c04a 2d3d da58 c13c ed9f 493c
00000070: 78e6 9f3d cc6e 0b3d 80fe f8bd 5276 6f3c
00000080: 5a7d bf3b d643 bfbc 7a7b 233e 95e8 523d
00000090: 1725 acbd f200 433c d147 c33d fddf 2e3e
000000a0: f63c c73d c337 1dbd fd75 4ebe fcbf 1e3d
000000b0: 4a20 c9bd 5834 b83d f909 073e c1ab 173e
000000c0: f437 05bd 2079 fa3d 0d3a 043e 7c3b 3fbd
000000d0: 5425 18bc 3cf5 9ebd 251a 17bc 7314 0cbd
000000e0: f031 25be 99a1 ba3b 7cd4 563e e4fa 1abe
000000f0: d7f6 31be b525 df3a 1b26 ee3d 974c 07bc
-0.11590662 0.1983606 0.018043032 0.1951902 -0.09282842 0.006356463 0.14088663 0.13035227
-0.16059731 -0.2085383 0.06740194 -0.09442059 0.0021992456 0.21916425 0.19424817 0.22237492
0.048382625 0.12680103 0.16055839 -0.11991836 -0.051353965 -0.01110035 0.004913363 0.07467832
0.009280292 0.042307615 0.023601938 0.012306196 0.0780763 0.03404121 -0.12157917 0.014615612
0.0058438005 -0.023347776 0.15965071 0.05149134 -0.08405512 0.011902081 0.09535182 0.17077632
0.09728424 -0.038383257 -0.20162196 0.03875731 -0.09820612 0.08994359 0.13187398 0.14811613
-0.032524064 0.12230134 0.1291277 -0.046687588 -0.0092862435 -0.077616185 -0.009222542 -0.03419919
-0.16132331 0.0056955335 0.20979494 -0.1513477 -0.17379318 0.0017024787 0.11628362 -0.008258007

convs.0.convs.<region___is_functionally_connected___region>.att_dst f4 [1, 1, 64]
00000000: 76eb 3ebd 0466 1e3e 0efb a93b b670 1ebe
00000010: 7214 9a3c ac99 1d3e 8c1c 313e b496 543c
00000020: 04f9 bf3b 1086 90bb 185b e13d 010e 85bd
00000030: 2a53 9cbd f82d 203e 147c b1bd d067 23be
00000040: a2b0 2cbe af88 dcbd b198 b03d 842d 7b3d
00000050: 58ea 1cbe 9348 343c 3181 0cbc 5e21 853b
00000060: 825c 33bd 1f71 173d 49ac e13d 7d9a 023d
00000070: 2d86 c1bd 0497 573e d324 f03d 68c5 43be
00000080: 5f14 49be 665e 6dbe 87dd 313e 7515 4bbe
00000090: 0665 b2bd e92a 8b3c c34b cfbd f8d7 5ebe
000000a0: 7ef1 82bd c0df 3e3d c7bc 46bd 9851 2b3e
000000b0: 9851 11ba 26f6 21bd 583d 16be 7ba3 2bbe
000000c0: dd5f 44bc 3904 fcbd 3f11 613e 9aa1 b9bc
000000d0: a080 09bd 035c 4a3e 7362 2cbe 3b1d 6cbe
000000e0: 5736 91bc a352 133e e200 7b3c 4377 fe3d
000000f0: 7e19 64ba 28c1 4f3e 035b 013e 7255 d33d
-0.04661127 0.15468603 0.0051873988 -0.15472683 0.018808577 0.15390652 0.17296046 0.012975384
0.0058585424 -0.0044105127 0.11003703 -0.06496812 -0.0763305 0.15642536 -0.08666244 -0.1595757
-0.16864255 -0.10768258 0.086228736 0.061322704 -0.1532377 0.011003631 -0.0085757235 0.0040628156
-0.043789394 0.036973115 0.11019189 0.031885613 -0.0944942 0.21053702 0.11725774 -0.19118273
-0.19636677 -0.23180541 0.17369662 -0.19832404 -0.08710675 0.016988235 -0.10121872 -0.21762073
-0.06393717 0.046600103 -0.048519876 0.16730344 -0.00055434695 -0.039541386 -0.14671838 -0.16761582
-0.011985746 -0.12305493 0.21979235 -0.022660065 -0.033569932 0.19761662 -0.1683443 -0.23058026
-0.017726107 0.14386992 0.015320035 0.12425091 -0.00087013084 0.20288527 0.12632374 0.10319032

convs.0.convs.<region___is_functionally_connected___region>.bias f4 [64]
00000000: 0013 f136 6080 e6ba 1c4d 0d39 ec10 7e3a
00000010: ef89 f1ba 8a4e 553a bfc9 a43b da1d 2abb
00000020: 8ace 8dba 5455 f439 96d8 e839 0914 ba3a
00000030: 8a68 14bb 20ca 813a 189d f139 2c8f 47ba
00000040: c4de e0ba a435 8939 5853 763a 3c80 57ba
00000050: 34a8 8e3a fd8f 77bb aa31 ebb9 16cd b53a
00000060: bab8 0cba 6e47 e539 0e8b e5ba c44f d3b9
00000070: 0008 9c3a c0ff 50ba 106b 15b9 32be 0cbb
00000080: b4e7 3e38 c067 673a 6bc8 8dba fcd1 dcb9
00000090: def9 87b9 7b77 e1b8 b49c eeb9 4259 5ebb
000000a0: c4c8 af3a c0db f5b8 8db3 1b3b b26c 883a
000000b0: d16d 213b 8f75 cb39 b48f c83a 8ed4 a13a
000000c0: a8f8 04bb d367 0f3a 1af7 c9b9 cbc9 2f3b
000000d0: 3493 933a b296 883b 2394 d238 b8fe 40ba
000000e0: 0057 dd39 0f6c b2b9 3011 16ba 803d 3eb8
000000f0: 3af3 81bb f0c3 c6b8 8d29 6dba 862f 6aba
7.1845716e-06 -0.0017585866 0.00013475533 0.00096918526 -0.0018427948 0.00081370084 0.005028933 -0.0025957734
-0.0010819 0.0004660288 0.00044411857 0.0014196645 -0.0022645318 0.0009902157 0.00046084146 -0.0007612582
-0.0017156233 0.00026170642 0.00093965745 -0.00082207075 0.0010883869 -0.0037775033 -0.00044859695 0.0013870324
-0.00053681026 0.00043731503 -0.0017512755 -0.00040304486 0.001190424 -0.000797268 -0.00014249631 -0.002147567
4.551532e-05 0.00088274106 -0.0010817175 -0.0004211812 -0.00025935372 -0.00010751091 -0.0004551165 -0.0033927714
0.0013411273 -0.00011723442 0.0023758144 0.001040837 0.0024632106 0.00038806765 0.0015301616 0.0012346671
-0.0020289812 0.0005470488 -0.00038521813 0.002682316 0.001125908 0.004168355 0.00010041173 -0.0007362175
0.00042217225 -0.00034031316 -0.0005724607 -4.5356806e-05 -0.0039657624 -9.477872e-05 -0.0009047024 -0.0008933473

convs.0.convs.<region___is_functionally_connected___region>.lin.weight f4 [64, 64]
00000000: 81de 163d c7c2 d2bd 15ec 7b3d 04fd bb3d
00000010: 7baa 4b3d 45e0 dabd 62be 0cbe c905 98bd
00000020: b065 c33d fa18 a3bc 0a4a a2bc 37ce fc3d
00000030: a2a1 9fbc f08e ec3d a00e 69bd a636 4f3c
00000040: 0e61 f1bd b3b1 5bbc c277 0fbe 9d9c 233c
00000050: 4b5d 693c 3328 cebd 4d83 0abe 9c0d 893d
00000060: 4701 8dbd 99fa 043e 3c0a 83bd 6268 a73d
00000070: 3e96 6d3c a9c1 dcbb 6e5b e4bb 2cca ccbd
00000080: f874 d7bd 72e0 c73d 70de 65bc 3ff0 573c
00000090: 8697 f5bb 8eda 99bd 3607 bd3b cf0f 55bc
000000a0: 41bb b33d 81d4 5e3c ca7f 14bd 8c37 a7bb
000000b0: 4745 b43b 7c97 2ebd 6c63 6c3d 4297 903d
000000c0: 6a5b c93d 86c6 df3c 45e2 413d 5319 14be
000000d0: 84bb 96bd aa25 7d3d c4fa 983c 5a61 0c3e
000000e0: f843 42bd 3d8b c63d bba7 8fbd 51e0 a0bd
000000f0: daa4 03bd 9e0c 35bd aa21 e7bd 60b6 16be
00000100: 951e 31bc a355 a4bd 59c4 65bd 5b45 213c
00000110: 1cb2 fbbc f54b adbb 2cd1 4bba 887c 12bb
00000120: 2020 8a3d 04fc 21bc 873c a8bd 6947 8ebd
00000130: 2e1d c23d bed5 05be 601e ca3d ee3f 38bc
00000140: 651e 71bd c4eb 93bc f42e 9abd f083 2a3c
00000150: c17d 45bd 35a6 bb3d 6dc4 86bd ce29 0cbd
00000160: 9d27 99bd 6ebe c1bc cb0d 593d f2f5 44bd
00000170: 147b 7bbb 150e 61bc f053 54bc 1212 2fbc
00000180: f256 efbd e0b3 c93c 36ae 0cbe 8d5c 553c
00000190: c997 5c3d 74a5 e9bd 6d2d 283d fee1 403c
000001a0: b6b5 623d 2c84 fc3d 5265 26bd 4dd8 eb3b
000001b0: 0117 02bc 8483 01be ec8b b6bd 4446 0ebe
000001c0: 9b6f fb3d 24f4 38bd 40ab 0b3a cf94 ee3b
000001d0: 3fc7 df3c d696 8dbd f7ec 8b3c da16 6a3d
000001e0: 1eb3 073d 2ac6 f83d 0291 163e 01f7 b53d
000001f0: 9602 4abd c04c 87bd adc6 8dbb fac0 6d3b
00000200: 9afa 38bd 546e 22bc cef2 6abc 52e2 4e3d
00000210: 7c08 5abd 8df7 7bbd 1c02 133c c338 9cbd
00000220: 385e cfba 1982 babd 44b1 e33c a6c1 ab3c
00000230: fb53 d2bc fd50 8a3d 32ff 71bc b02b 573c
00000240: 19eb 643c 0489 36bc 4a56 d2bd 564c 06be
00000250: b192 82bc 5cb7 9c3d 70df 993d c177 f73c
00000260: e0e2 0c3e 9add febd 83ee 0e3c bcc2 f83b
00000270: b519 bcbd c5cb 86bd 612e 84bc c015 3b3b
00000280: 78f7 c93d 9ed6 c03d 9f91 cbbb 1463 da3c
00000290: 0aa5 15be dfb0 fe3d 1973 253c 5016 543a
000002a0: d161 a7bd 0740 3dbd 786e 3b3c b322 b93d
000002b0: 000d 85bc 66be 8cbc 30ad 83bd fe2d d33d
000002c0: d635 4f3c 38ae 1abc 9250 183d eee3 e53d
000002d0: 9b3b a3bd b783 01be 8b35 97bb 4cc1 103d
000002e0: 5373 f6bd be8d cabd fc5f 0fbe 964c c33c
000002f0: a3f3 883c 1ec5 2c3c 9aa2 78bd eff9 d1bc
00000300: c7b7 9039 4f8e 9ebc 657d 3ebd cf32 26bc
00000310: 9f48 b93d 10c9 be3d f567 e33d 6e35 9d3b
00000320: 78a6 473c 9a6a 0abe 004f 743c c6cd 0e3d
00000330: e3db 48bc be81 933c 90f2 6f3d b185 13bc
00000340: ea85 3ebc ccfc 04bc 50c0 a2b9 9e87 20bb
00000350: b2a9 8f3c 8ae9 68bb a8c5 1d3d 9015 693d
00000360: a58e cabd c9e9 1f3c 0f78 833b 3ded 0ebd
00000370: c0a1 1a3c ec5a bc3d df1c 00bc ae61 963b
00000380: e1f8 583d 0430 bd3d d8e1 7dbd 009d 4b39
00000390: 5ee4 cbbd fde0 34bd 6326 fa3d 5c9b f33c
000003a0: 112f 8a3b b135 afbd 89cf 11bc 0412 6dbc
000003b0: 4092 6f39 297f 0bbe a8c1 a43c 999b 0b3e
000003c0: 0136 dbbd c5ed c33c d351 8d3d a2db f6bc
000003d0: 2ae2 613c bb21 c3bd e72c eebc 54ae d73d
000003e0: 144f 283b 347d f43d 74da a13d f8be 48bd
000003f0: 8d3a 753d f009 2d3d 28c4 cebb 1b28 0b3e
0.03683329 -0.10291057 0.061504442 0.09179118 0.04972313 -0.10687307 -0.137445 -0.074229784
0.0954088 -0.01990937 -0.019810695 0.1234402 -0.019486252 0.11550701 -0.056898713 0.012647307
-0.1178609 -0.013409066 -0.14010528 0.00998607 0.014243434 -0.10066261 -0.1352665 0.06692049
-0.06885009 0.1298622 -0.063984364 0.08174206 0.014501153 -0.0067369533 -0.006968907 -0.09999499
-0.10520357 0.097596064 -0.014030084 0.013179838 -0.0074948696 -0.07512389 0.005768682 -0.013004257
0.0877595 0.01360047 -0.03625468 -0.0051030573 0.0055014226 -0.042624936 0.057712004 0.070601
0.09831889 0.027316343 0.047334928 -0.14462785 -0.073599845 0.061803497 0.018674262 0.13709012
-0.0474281 0.09694526 -0.07014414 -0.07855285 -0.032139637 -0.044201486 -0.11285718 -0.14718008
-0.010810514 -0.080241464 -0.056095455 0.009843196 -0.030724578 -0.005288596 -0.00077750045 -0.0022352058
0.067444086 -0.009886745 -0.0821467 -0.06947214 0.09478222 -0.13069817 0.09869075 -0.011245711
-0.058866877 -0.018056758 -0.07528487 0.010407433 -0.04821563 0.09162561 -0.06580434 -0.034219556
-0.07478259 -0.023650374 0.05299167 -0.048086114 -0.003837292 -0.013736268 -0.012959465 -0.010685461
-0.116865054 0.024621904 -0.13738331 0.013022554 0.05385569 -0.11408511 0.041058946 0.011772631
0.055349074 0.12329897 -0.04062397 0.007197416 -0.007940055 -0.12647825 -0.08913407 -0.13893992
0.122771464 -0.045154706 0.00053279474 0.007280923 0.027316688 -0.06913535 0.017080767 0.0571507
0.033129804 0.12147172 0.14703754 0.08885003 -0.049318872 -0.06606436 -0.0043266625 0.0036278353
-0.045160867 -0.009914 -0.014340116 0.050508805 -0.053230748 -0.06151538 0.008972671 -0.07628014
-0.0015820926 -0.091068454 0.027794488 0.020966362 -0.02567481 0.067537285 -0.014770316 0.0131329745
0.013972067 -0.0111410655 -0.102703646 -0.13115057 -0.015939089 0.076521605 0.075133204 0.03020847
0.13758421 -0.12444611 0.008723858 0.0075915735 -0.09184591 -0.06581835 -0.016135396 0.00285469
0.09861654 0.09415935 -0.0062124277 0.026658572 -0.14613739 0.12436079 0.010098242 0.0008090483
-0.08172954 -0.04620364 0.011439912 0.090398215 -0.01624155 -0.017180633 -0.06429517 0.10311507
0.012647113 -0.009440951 0.037186213 0.11225115 -0.07970353 -0.12647901 -0.004614537 0.035340592
-0.12033715 -0.098903164 -0.14001459 0.02384023 0.016717738 0.010545043 -0.060701944 -0.025631873
0.00027602745 -0.019354967 -0.046506304 -0.01014395 0.090470545 0.093156934 0.111038126 0.004797629
0.012185685 -0.13517228 0.014911413 0.03486421 -0.012259456 0.018006202 0.058580935 -0.0090040425
-0.011628607 -0.008116912 -0.00031042332 -0.0024494897 0.017536972 -0.003553959 0.038518578 0.05690533
-0.098904885 0.009760329 0.004012115 -0.034894217 0.009437978 0.091970295 -0.007819383 0.004589281
0.052971724 0.09237674 -0.06198296 0.00019418076 -0.09955667 -0.044159878 0.12214353 0.029737167
0.0042170365 -0.08555163 -0.008899578 -0.014469627 0.00022847299 -0.13622727 0.020111874 0.13633575
-0.1070366 0.023917088 0.06900372 -0.030134026 0.013786832 -0.09527918 -0.029074145 0.10531297
0.00256819 0.11937943 0.07902995 -0.049010247 0.05987029 0.042245805 -0.0063100047 0.13589518

convs.1.convs.<subject___has_region___region>.lin_rel.weight f4 [64, 64]
00000000: 80fb 78bc 722e 9bbd b88c 68bd 20a3 d83b
00000010: f4a9 34bd e4e0 9ebd 005e 263c 8a74 c83d
00000020: 5aaf e7bd b83c c0bc 2022 0fbc 3e3a a63d
00000030: 708a 463c be60 e5bd 8009 cbbc fc53 8d3d
00000040: c8d6 303d f44b 82bd 0026 e039 ec13 5b3d
00000050: f4dd c1bd f44d 30bd e04a e23b 7ed8 923d
00000060: ba6e eb3d 8a63 b8bd 006c 283c 905e d63c
00000070: 30dd bbbd 0078 3db9 4284 cabd 7871 0abd
00000080: d044 2b3d e8c4 aabd 0886 4f3d cc95 a0bd
00000090: 90bc f4bd 0e18 9cbd 6e2e a83d 0c14 5dbd
000000a0: 4ca5 87bd 6c59 623d a842 8abd f87c fbbd
000000b0: 543c 463d 00b4 8d39 b430 5fbd 00a3 7bbd
000000c0: 4c9f 6c3d b27c fe3d f0fd d3bd 08f0 37bd
000000d0: 1e5e e93d d072 5d3c a03a 95bb 78cf a03c
000000e0: 66ae e8bd 6ef1 8c3d 58f2 893c c08f 153c
000000f0: 843a e03d c4ec 173d 0607 e63d b023 14bc
00000100: 401d 1b3c 0013 1c3a e0d0 ffbb a0fb d93b
00000110: 3080 5d3d a47a aebd 7272 f5bd 1a1f 813d
00000120: e0a4 343d a065 483d 1cea 23bd 0ac6 b6bd
00000130: 4e93 bdbd c08a 09bb 40a8 c03b 60ee 25bd
00000140: 7a78 c5bd 546e 50bd 0009 cf3a cc44 06bd
00000150: 38e4 43bd 7a28 fe3d 10ee 52bd c800 103d
00000160: f08a e7bc f0fb 863c 4865 d5bd d8a8 ac3d
00000170: 08f0 f2bc a88f a1bd c037 a2bc 9820 debd
00000180: 086c 653d d684 a9bd eca2 6cbd 42fd adbd
00000190: b818 e23c e2e1 813d 00d8 57ba 0450 8d3d
000001a0: 9e9f a43d 8402 323d f09f bebd 20be d5bc
000001b0: 7472 ffbd 2813 5dbd 9096 5dbc 0003 463d
000001c0: 6e16 d4bd 3084 533d a8a8 f8bd 401b 183d
000001d0: d491 bd3d 6ecd 80bd b81a 273d 905c 013d
000001e0: 04f5 f33d 047a c5bd 008f aa3d 0a8d de3d
000001f0: 92b2 953d facb fcbd 88b2 893c 2a06 cbbd
00000200: e46f 013d 90cf f5bd b8b0 b93c 4091 35bd
00000210: 203b 68bc 5027 673c 6c6b 45bd 8022 963c
00000220: acb4 e6bd a0a4 01bc 1cf2 1d3d 1420 03bd
00000230: a05c f5bb 20ec 953b 28c8 593d 96a1 9cbd
00000240: e6db db3d 6861 aa3c e431 90bd 46d4 ddbd
00000250: 10f4 eabd 007d a4ba 50a7 d4bd b6de 943d
00000260: fad3 dcbd e654 babd 2069 0c3c e66d ae3d
00000270: 54fc f3bd b8c7 da3c ec39 bb3d b8ac a5bc
00000280: 282d efbd ba74 d13d 9095 2a3c c8c0 cc3c
00000290: a849 b7bd f82c 5ebd 3a4b 933d 083f 633d
000002a0: 6c1b d13d 3811 91bc 3cfa b03d 0842 8a3c
000002b0: 5035 dabc 8e73 da3d 2e16 e9bd a090 e4bc
000002c0: 4c68 fc3d ae7c 9fbd c223 a8bd 0047 9b3d
000002d0: 4c71 403d 9a8c f43d e22f b23d 10fc 493c
000002e0: cc20 3abd 4287 eb3d 92f0 ec3d 149a edbd
000002f0: 984b e33c fc39 13bd e851 a43d 240f 04bd
00000300: b8e5 e4bd 464b 863d 0863 c33c f8e5 bd3c
00000310: 2eae 98bd e0d8 d7bb d2aa 983d e234 ddbd
00000320: 142a 2ebd 06b0 e03d 70cd f93d 001b 623b
00000330: da8f a23d d079 c2bc 00df 3fbc 00eb 0abd
00000340: 2c0b 4b3d 8e9a cf3d 04e3 293d e840 62bd
00000350: fe14 aebd 5061 52bc b4ac 2f3d 624f 87bd
00000360: 6c81 203d 6eb8 a6bd 5200 b7bd 1040 67bc
00000370: 18bf a23c 74d7 d0bd fc98 fbbd 8c98 c9bd
00000380: 742b cc3d f04a e6bc 5a06 b83d a0ca bdbd
00000390: d650 c2bd b00b e7bc 60ba 55bc d44d 25bd
000003a0: 0c18 913d d438 77bd 004c 9c3c b4a5 56bd
000003b0: d4a1 773d 4005 3d3c c6dc 86bd 3cf1 ca3d
000003c0: 326a cd3d 90c1 533d 880b 56bd 3821 d33c
000003d0: 90b1 8b3c 600c 0bbd b0ea 243c ea5d e23d
000003e0: c42f 51bd 8edb c33d c0b2 9bbb 1e2f c63d
000003f0: 707a 08bc 1c07 eabd 80d0 b83b 76a9 80bd
-0.015196681 -0.07577218 -0.056774825 0.006611243 -0.044107392 -0.07757738 0.010154247 0.09787853
-0.113127425 -0.023466453 -0.008736163 0.081165776 0.012117967 -0.11200093 -0.024784803 0.069007844
0.04317358 -0.06362143 0.00042752922 0.053485796 -0.09466162 -0.043043092 0.0069058985 0.07170199
0.11495729 -0.090033606 0.010279655 0.026168138 -0.091730475 -0.00018069148 -0.098885074 -0.03379962
0.04181367 -0.08338338 0.05066493 -0.078410715 -0.11950028 -0.076217756 0.08211981 -0.053974196
-0.06623325 0.05526106 -0.06750995 -0.12279695 0.048397377 0.00027027726 -0.054489806 -0.061434746
0.057769105 0.124261275 -0.10351169 -0.044906646 0.113949046 0.013516143 -0.004554108 0.019630179
-0.11361389 0.068819866 0.016839191 0.009128511 0.10948661 0.03709103 0.11231808 -0.009041712
0.009467423 0.0005953759 -0.0078068823 0.0066523105 0.054077327 -0.085194856 -0.11984719 0.0630476
0.04410255 0.048925042 -0.040018186 -0.08924492 -0.09256612 -0.0020987242 0.005879432 -0.040510535
-0.0964212 -0.050886467 0.0015795529 -0.032780454 -0.04782507 0.12410064 -0.051496565 0.035156995
-0.028264493 0.016477555 -0.104197085 0.08430642 -0.029655471 -0.078887284 -0.019801974 -0.108460605
0.05601123 -0.082772896 -0.057772562 -0.08495571 0.027599677 0.06341912 -0.00082337856 0.069000274
0.08038257 0.04345943 -0.093078494 -0.026091635 -0.12473002 -0.053973347 -0.013524666 0.048342705
-0.103558406 0.051639736 -0.121415436 0.037135363 0.0925633 -0.062891826 0.040796965 0.031582415
0.119119674 -0.09642413 0.08328056 0.10866745 0.0730945 -0.12343593 0.016808763 -0.09913285
0.031600848 -0.1200248 0.022667274 -0.044327974 -0.014174253 0.014108494 -0.04819815 0.018326998
-0.11264929 -0.007912785 0.03856097 -0.032013014 -0.0074878484 0.0045752674 0.0531694 -0.076480076
0.10735302 0.0207984 -0.07040766 -0.108315036 -0.114723325 -0.001254946 -0.10383475 0.07269041
-0.10782619 -0.09098224 0.008569986 0.08517055 -0.11913362 0.026706561 0.09141907 -0.02022396
-0.11678535 0.10227342 0.010411635 0.024994269 -0.08949596 -0.054242104 0.07192083 0.055480033
0.102103084 -0.017708406 0.086414784 0.01687719 -0.02663675 0.106665716 -0.113811836 -0.027900994
0.123245806 -0.07787453 -0.08209945 0.075819016 0.04698305 0.1194088 0.08700539 0.012328163
-0.045441434 0.11500408 0.11569323 -0.11601654 0.027746007 -0.03594397 0.08023435 -0.032241
-0.11176628 0.06557326 0.023850933 0.023180947 -0.07455097 -0.006587133 0.074544564 -0.10801102
-0.042520598 0.10971074 0.12197387 0.0034500957 0.07937594 -0.023739725 -0.011710882 -0.03391552
0.0495712 0.10136901 0.041476265 -0.05523768 -0.08500098 -0.012840584 0.042889312 -0.06606938
0.039185926 -0.08140646 -0.08935608 -0.014114395 0.019866511 -0.101973444 -0.12285039 -0.09843549
0.099692255 -0.028111905 0.089855865 -0.09267163 -0.094880745 -0.028203815 -0.013044924 -0.040357426
0.07084665 -0.06035693 0.019079208 -0.05240412 0.060457066 0.011536896 -0.06585078 0.09909293
0.10030021 0.051698267 -0.05225709 0.025772676 0.017052442 -0.03394735 0.0100657195 0.11053069
-0.051070943 0.09563361 -0.0047515333 0.09676956 -0.008329973 -0.11427137 0.0056400895 -0.06282322

convs.1.convs.<subject___has_region___region>.lin_rel.bias f4 [64]
00000000: a416 003d 0e70 a7bd 50da 4c3c 8a6d bbbd
00000010: ecda 01bd 40d1 7fbd 38de b5bd 74ba 223d
00000020: 4049 533d 00a4 bb3a 80fa 2b3d 9470 91bd
00000030: 5c36 573d 106a 1cbc ca06 c53d 50af 5fbd
00000040: 561d cb3d 5420 b73d 3cf6 3cbd 30f1 89bc
00000050: 40a5 4bbd 80b9 84bd 081a cdbc 7452 e1bd
00000060: c042 30bc 94ce bdbd dedc 82bd 00a4 41bd
00000070: 3827 18bd 0c08 ca3d ecba 04bd a09f 62bd
00000080: 525d ce3d f0ba 8ebc b0e4 493d aabe 9e3d
00000090: d25d bb3d a4a8 d0bd 00c2 e0bd a8a8 9d3d
000000a0: 8ee5 a7bd 6427 f93d 90d1 67bc 56ee ee3d
000000b0: b4cf 353d 1e50 c6bd 7c75 f8bd 76e0 893d
000000c0: 28fa d5bd d868 b13c be6d ebbd 7801 243d
000000d0: c223 953d 5ab4 843d f0d1 5bbc e475 8f3d
000000e0: 2a11 a73d a251 d63d 7073 bebc 66d4 bbbd
000000f0: 2601 b83d 08c8 d03c 8efd b13d 6098 903d
0.03127159 -0.081756696 0.012503222 -0.09151752 -0.03170292 -0.062455416 -0.088802755 0.039728597
0.05158353 0.0014315844 0.041986942 -0.07101551 0.052542076 -0.009546772 0.096204355 -0.05461055
0.09917705 0.08941713 -0.046133265 -0.01683864 -0.04971814 -0.06480694 -0.025036827 -0.11002055
-0.010758102 -0.09267917 -0.06389783 -0.047275543 -0.037146777 0.09864816 -0.032404825 -0.05532801
0.10076393 -0.017423123 0.04929036 0.0775121 0.09148754 -0.10188416 -0.109745026 0.07698184
-0.08198081 0.12165716 -0.014149085 0.11666553 0.044387534 -0.0968325 -0.12131783 0.06732266
-0.10448104 0.021656439 -0.11495541 0.040040463 0.07282211 0.06479712 -0.013416752 0.07004908
0.08157571 0.10464789 -0.023248404 -0.09171371 0.08984594 0.025486007 0.0869094 0.07060313
