src/trained_heteroGNN_model.pth (torch, 248794 bytes, 20 tensors)

convs.0.convs.<subject___has_region___region>.lin_l.weight f4 [64, 3]
00000000: 5846 793e 672b 813e 0693 e83e 38cb d23e
00000010: e09d 533c ac84 ea3e a0d3 2f3f acfa debe
00000020: 6b99 473e 001c b83e c588 67bd 1e84 8dbe
00000030: 9ea8 7cbe de4c b2bb ba9a f43e 93e3 0a3e
00000040: f6ba 343e 51f2 b33e 1409 af3d 0052 793d
00000050: 8212 e13e 7a04 0a3e eb75 4bbe 4bbe c4be
00000060: 12b6 8b3b 4c88 4b3d f463 dcbe 4ef9 e8bc
00000070: 0a98 d83e 1c25 573e 2443 093d b0a0 a13e
00000080: 8f4b 2abe 8afd ce3e afae 21be b055 dc3e
00000090: 0bb1 eebe 5663 c7bd 85f4 d2be 99f0 323d
000000a0: 7eef 553d 92ea 163f 2992 88be 6073 193e
000000b0: 5b0b 2a3e 103c 003d 253d c1be ceb2 cabc
000000c0: fac9 943e b956 543b f9c9 413e eab0 063e
000000d0: 9fc0 42be 52f5 e43e ea68 91bd 3e8f b1be
000000e0: 5bf7 fd3e ae49 2b3f e090 bcbe e8e1 ec3e
000000f0: 460b 3f3e 40a2 7dbd ca18 8cbe 15d7 e93d
00000100: 6b5d a5be 866a 45be 3e6e b03e 0a87 ffbd
00000110: de8e 523c 6317 e8be d32f d9be bd18 243f
00000120: 5480 10bf 3b56 e03e b41e fa3d 4f42 f4be
00000130: 3257 943d c22f 88be d3dd 30bf 382b c73e
00000140: d929 9abe f4ff 9a3e e585 37be ea82 123f
00000150: 20ab aebe 1859 d8ba 702a af3e 10b6 cebe
00000160: 1618 de3e 1601 d4be 0a67 cdbe ab2b 3dbe
00000170: 8d78 c0be 872c 07bf 35f1 493e 0f28 83be
00000180: 39f1 583c e95d b7be 9bae 3a3e 25b0 63be
00000190: 1b8f 903c 1427 bc3e a79c 18be 42a9 fcbd
000001a0: c739 fc3e fd28 fcbd d936 b83e 74d8 cabe
000001b0: 4c22 2c3e ceec 9c3e ef53 a03c 41cc edbe
000001c0: b1d7 803e 26d8 81be 256e 103f c8ad 363d
000001d0: ea15 e3be 63f5 9f3e 194d 70bc 77f8 2a3f
000001e0: 29d1 ec3e 1208 f7be 5121 f13e 6944 ab3c
000001f0: 5129 3f3e 34ac 21bf 0034 523e adef c73c
00000200: 967e 16bf 72ec 49be c17f 9d3e 8741 fdbe
00000210: a9e8 8b3e ea47 f2be 18dc 0f3f be5a 03bc
00000220: 19d9 c33e e7dc a8bd 6aa0 a03e b6a9 8b3d
00000230: 9580 a9be 678e 65be 7469 86bc 1965 96be
00000240: dc20 e6be 515b 09be 1e84 47be 03a9 c5be
00000250: cb3c 21bc bd99 473d 5570 a23e 2f80 1abe
00000260: e67d 173f 9a86 3fbe bbe7 543e 4f32 0dbf
00000270: fb4f bd3e a576 c4be 4879 dd3e de7c 4e3e
00000280: 1466 cbba 93c2 be3e 301b c33e 577e e43b
00000290: 7270 223d f582 2f3f 1fad 3cbe 9423 8abe
000002a0: ec8e be3c 90d9 66be 3006 8ebc b256 cd3d
000002b0: 594d eabc f967 86be 2164 f33e 5b0a 99be
000002c0: 4595 8fbe 3678 f83c fa84 a43d 6a5b e5bd
000002d0: eca4 b13e 0f8d c83e 5fd0 eabd 4b6d 01bf
000002e0: ac22 6b3e 274a 40bf e8be febd 787e e73b
000002f0: 0e67 d1be de94 00bf fa52 273c 711c d13e
0.2434324 0.25228426 0.4542467 0.4117067 0.012916058 0.45804346 0.6868229 -0.43550622
0.19492118 0.35958862 -0.056526918 -0.2763986 -0.24673697 -0.005441292 0.47774297 0.13563375
0.17649445 0.3514581 0.085466534 0.060869217 0.43959433 0.1347827 -0.19869201 -0.38426432
0.004263648 0.04969053 -0.43045008 -0.02843919 0.42303497 0.2101025 0.033511296 0.31567907
-0.16630386 0.4042781 -0.15789293 0.43034124 -0.46619448 -0.09735744 -0.4120218 0.043686483
0.05223035 0.58951676 -0.2667401 0.14985418 0.16605894 0.03130728 -0.37741962 -0.024743464
0.29060346 0.0032400324 0.18924703 0.13153425 -0.19018792 0.44718415 -0.07100089 -0.34679598
0.4960278 0.669093 -0.3682928 0.46266103 0.18656644 -0.06192231 -0.27362663 0.11417977
-0.32297835 -0.19278917 0.34459108 -0.124769285 0.012851445 -0.45330343 -0.424193 0.6410025
-0.56445813 0.4381579 0.122128874 -0.4770684 0.07243194 -0.26598936 -0.69088477 0.3890016
-0.30110052 0.30273402 -0.1792217 0.5723101 -0.34114933 -0.0016506044 0.34212065 -0.40373278
0.4337775 -0.41407079 -0.40117675 -0.1847369 -0.37591973 -0.5280232 0.1972092 -0.256165
0.013241106 -0.35813835 0.18230669 -0.22235163 0.017646363 0.36748564 -0.14903508 -0.12336971
0.4926283 -0.123125054 0.35979345 -0.39618266 0.16809958 0.30649418 0.019571273 -0.46444896
0.2516456 -0.2536022 0.5641807 0.044599324 -0.44352657 0.31241903 -0.014666819 0.6678538
0.46253327 -0.48248345 0.4709573 0.020906644 0.18668105 -0.63153386 0.20527649 0.024406279
-0.58786905 -0.19719103 0.3076153 -0.49464056 0.27325943 -0.4732049 0.5619521 -0.00801724
0.3825157 -0.08245259 0.31372386 0.06819479 -0.33105913 -0.22417603 -0.016407706 -0.29374006
-0.44946945 -0.1341374 -0.19483992 -0.38605508 -0.009841154 0.0487306 0.31726328 -0.1508796
0.5917648 -0.1870369 0.20791523 -0.5515489 0.36975083 -0.3837177 0.43256593 0.2016482
-0.0015518093 0.37257823 0.3810668 0.0069730687 0.039658017 0.685592 -0.18425415 -0.2698027
0.02326151 -0.22543931 -0.017336935 0.100263014 -0.028601335 -0.262512 0.4753733 -0.29890713
-0.2804357 0.030330759 0.08033176 -0.111990765 0.34696138 0.3917012 -0.11465525 -0.5055739
0.22962445 -0.7511315 -0.12438756 0.007064637 -0.40898937 -0.50227153 0.010212654 0.40842012

convs.0.convs.<subject___has_region___region>.lin_l.bias f4 [64]
00000000: 10f7 b7be 4c18 14bd f982 593e 391e 03bd
00000010: 096d 07bf fd0c f5be 729c 643e 6b70 243e
00000020: 6cb3 653e 057d 863e f01a 7abe 04eb a33e
00000030: 68b8 8c3e 18f8 d23d c3f6 d73e 276b 4ebe
00000040: 8236 b63e ce3f 493e 2270 debe a026 1d3e
00000050: 59c8 7f3e f62c 97be 1d98 123f 2e69 233f
00000060: f49b 1bbf ea3b 8c3d 4005 81be acba c03e
00000070: 635c 1c3f 83d5 883e 246d 9d3e 5788 01bf
00000080: ab9f 59be 3dc2 98be 979d e5be 6c6e 2abf
00000090: 19e3 dfbe d3a1 1ebf 6f28 803e cfd6 3fbe
000000a0: 0fd0 fd3e 7560 97be 0b92 10be 4c92 8dbd
000000b0: 9b82 523e 0be2 21bf 7261 973e 7fb2 1ebe
000000c0: bb2c c93e 923e 02bf 33f7 5bbc 5283 c33e
000000d0: 5df0 14be 10ce bd3d e2b9 22be acb0 ac3e
000000e0: 48d9 293f 0661 093f 5a29 8bbe 9cfe bfbe
000000f0: b828 b03e 3018 ebbd 4f20 a43e 3883 95be
-0.3593068 -0.036155984 0.21241368 -0.032011244 -0.5290075 -0.47861472 0.22325304 0.16058509
0.22431725 0.26267257 -0.24424338 0.3201524 0.2748444 0.103012264 0.42180452 -0.20158063
0.3558846 0.19653246 -0.43444926 0.15346766 0.2497877 -0.2952649 0.57263356 0.63832366
-0.6078484 0.06847365 -0.25199318 0.3764242 0.6107847 0.26725397 0.3074733 -0.50598663
-0.21252315 -0.29835692 -0.44846794 -0.6657474 -0.4372795 -0.61965674 0.25030848 -0.18734287
0.495728 -0.29565778 -0.14118211 -0.069126695 0.20557635 -0.6323554 0.29566532 -0.15497778
0.3929194 -0.50876725 -0.013425636 0.38186127 -0.14544816 0.09267819 -0.15891221 0.3372854
0.6634717 0.5366367 -0.27179986 -0.3749894 0.34406066 -0.11479223 0.320559 -0.29201674

convs.0.convs.<subject___has_region___region>.lin_r.weight f4 [64, 200]
00000000: 1e3e 8e3b 6284 babd a26c 05bd 601e 8ebd
00000010: 54b6 89bd c62e dfbd d555 7abd b934 aabc
00000020: c06c d6bc 7aa8 0abe 5236 a8bd 6f34 873a
00000030: fbcd 15bd 0c14 8abd 76a7 ddbd 9749 0abe
00000040: dd6e a1bc 86c6 92bd c437 cfbc 6eca 9c3b
00000050: 7904 e8bc 9436 f9bd d5a2 83bd afe6 50bd
00000060: 187e d4bd bfb0 46bd 2f87 7dbd c3b5 4fbd
00000070: da64 9cbd c20d 0fbd 7e45 80bb 42d9 9abd
00000080: 1bae 0ebd 493a 2dbd ba09 bbbd bae2 75bc
00000090: 20f3 90bd 73cf 13bc bce9 7cbb 9a58 cbbd
000000a0: 6522 06bd 92b6 a7bc 7143 12bd 0e59 a2bc
000000b0: ea6f babd 6e54 1dbd faad 3fbc f470 2dbd
000000c0: df50 6fbd 6be1 4ebd 6884 8cbd 4a97 8abd
000000d0: 283b 52bc 1273 16bd 81a0 04be f65a 8bbd
000000e0: 3559 90bc 9c73 c1bd eda8 4dbd f0b4 8cbd
000000f0: 8eed 1bbd 8242 19bc 6170 79bd 5ad1 c5bd
00000100: f07d e0bc 4b62 04bd 96dd 1bbd bebf fabd
00000110: d3c5 36bd c4ad 6fbc 3292 b6bd b635 02be
00000120: 9e76 47bc cea8 8bbd ce86 afbd 98b7 f9bd
00000130: 08e3 34bd 9ecf c7bd 8646 00be f596 4ebd
00000140: f291 8cbd e2b9 bcbd 1add 16bd 1a93 cfbd
00000150: cc8a e8bd 9846 103b 2088 ffbd 000f babd
00000160: 1a40 99bd 18a3 d6bd 3ee3 8ebd db6c 4ebd
00000170: c004 2fbc 7523 09be df5c 58bd 21be 673b
00000180: 2736 55bd b671 c7bd 1c77 efbd 6078 eebd
00000190: 8028 d6bd cf03 90bb 16f3 b6bd 2906 09bd
000001a0: 0540 4ebd 4b3e 16bd 803b d3bd 9aff 55bc
000001b0: c82f fabd c88f c6bd 89b0 7cbd 34c0 d9bd
000001c0: d16b 7abd 1b1a 87bc 8ed4 aebd 6dea 03be
000001d0: 60af a2bd a3f9 49bd 8e99 8abd 51f5 e6bc
000001e0: 6bb4 b5bc acb8 d5bd 1569 82bd 5246 03be
000001f0: 6daa 05bd 94cb d1bd d623 bdbd 10cd 9bbd
00000200: 2626 e7bd 6299 d1bd 6ef3 e2bd c4e9 a9bd
00000210: 42d9 e9bd fcc2 b7bd 5807 cbbd 2ac6 dbbc
00000220: fc7b cbbd 6880 99bd ec59 b1bd 7850 8ebd
00000230: ce2a a0bd b7cb 71bd 5a31 03bd 3402 fbbd
00000240: 76cf 97bd c002 20bd f8f9 113b d528 4fbd
00000250: e8ec e0bd 70d0 36bc 458d 34bd 7cc6 293b
00000260: 4e21 93bb 2883 16bd 6793 0ebd 25f8 6abd
00000270: b647 debd bec3 f7bd 9ab0 04be 7007 edbd
00000280: d773 febc 96f5 96bd 076d 6bbd 8696 4abc
00000290: 7469 f3bd 8959 02be a4f5 12bd 07d5 2dbd
000002a0: 5037 a4bd 06b8 a6bd 6ee8 ecbd 60b7 d6bd
000002b0: 048a f2bd ef7e 7dbd 8624 d7bc a049 ffbd
000002c0: df35 6ebd ec9e 51bc f089 d0bc a5d7 64bd
000002d0: e9f0 09bd bc07 8bbd caf4 febd 8a0d 32bd
000002e0: 8ea6 e7bd 3853 30bd 64b0 d2bd c01c 413b
000002f0: 5d6b 0abe b8cc bdbd 2987 47bd 2188 76bd
00000300: 208e 80bd 80b9 e7bd bde3 00bd 0cde 8fbd
00000310: f6c9 d3bd 3ad5 03be e20c 00be fc9c e4bd
00000320: 7575 e13c 2da5 e33c e8c8 173d 856e d03d
00000330: 43f5 893d 0335 80bc 9424 51bc 189f 25bc
00000340: afaa 50bb 46ec 393d c8c7 05bc cfd8 55bb
00000350: 97bf b63d 6340 973c 21d6 b0bc 120b da3d
00000360: 50d8 1e3d e334 8abc 970d 823d 9c3c d7ba
00000370: c4a8 05bc f9e5 ce3d 1d4f c33d 1e12 fe3b
00000380: d362 b63d 03ce 8d3d de51 baba 0133 8d3d
00000390: c605 7f3d 3a1f 0f3d eb7b 353b f89f 2ebc
000003a0: e1dd cdbc 08df 643d f173 7d3d f94a a73d
000003b0: 3720 8ebc 7f73 43bb d129 b43d bffe 813d
000003c0: 27fa e83c ad94 343d 7f6a dd3d 4c5a 52bc
000003d0: ff58 943d ec80 5e3d 5f2e 273c 1f9a 3b3a
000003e0: 9857 5d3d f4ac 4bba fd72 293d 4dc5 c0bc
000003f0: 4dbe 9f3d 2bda 513b 2fc3 693d d1ea ed3c
0.004340901 -0.09107281 -0.032574303 -0.06939387 -0.067242295 -0.10897593 -0.061117012 -0.020777093
-0.026174903 -0.13540831 -0.08213486 0.0010315309 -0.03657339 -0.06742105 -0.10822956 -0.13504635
-0.019706184 -0.071667716 -0.025295146 0.0047848737 -0.028322445 -0.12168613 -0.06427542 -0.051001247
-0.10375613 -0.048508402 -0.0618965 -0.05071045 -0.076364234 -0.03492523 -0.003914534 -0.0756097
-0.03483401 -0.042291913 -0.091327146 -0.015007669 -0.070776224 -0.009021628 -0.0038591465 -0.09929009
-0.032747645 -0.020472798 -0.03570885 -0.019817855 -0.09103377 -0.038410597 -0.011699194 -0.04234405
-0.058426734 -0.050507944 -0.06861192 -0.06767137 -0.012831487 -0.036730833 -0.12951852 -0.06804459
-0.017620662 -0.09445879 -0.05020993 -0.068704486 -0.038068347 -0.009354236 -0.06089819 -0.09659071
-0.027403802 -0.032320302 -0.038053118 -0.12243603 -0.044622254 -0.014628831 -0.08914603 -0.12715802
-0.012174277 -0.06819306 -0.08570634 -0.12193221 -0.044161826 -0.09756397 -0.12526903 -0.050436933
-0.06863774 -0.09215142 -0.036831953 -0.10135479 -0.113545984 0.0022014733 -0.12477136 -0.09084892
-0.074829295 -0.104803264 -0.06976937 -0.05039678 -0.010682285 -0.13392432 -0.052822944 0.0035361128
-0.052053597 -0.097384855 -0.1169264 -0.116440535 -0.104569435 -0.0043949853 -0.08933084 -0.03345314
-0.050354023 -0.0366805 -0.10314083 -0.013061428 -0.12216145 -0.09695393 -0.061691795 -0.10632363
-0.061137978 -0.01649194 -0.08536635 -0.12882395 -0.079436064 -0.049310338 -0.067675695 -0.028193148
-0.022180757 -0.10435614 -0.06367699 -0.12819794 -0.032633234 -0.102439076 -0.09235351 -0.07607472
-0.11286573 -0.102343336 -0.11081587 -0.082965404 -0.11418392 -0.08972737 -0.0991351 -0.02682789
-0.099357575 -0.07495195 -0.08659729 -0.06948942 -0.07820664 -0.05903217 -0.032029487 -0.122562796
-0.07412617 -0.039065123 0.0022274237 -0.05057605 -0.10982686 -0.011158094 -0.044080038 0.002590566
-0.004490054 -0.036746174 -0.034808543 -0.057365555 -0.108535215 -0.12097882 -0.12957993 -0.11573684
-0.031061096 -0.073710606 -0.057477023 -0.012364989 -0.11885348 -0.12729467 -0.035878792 -0.042439487
-0.080183625 -0.081405684 -0.1156777 -0.10484195 -0.11842731 -0.06188863 -0.026262533 -0.12465215
-0.058156844 -0.012794238 -0.025456399 -0.055869717 -0.033677015 -0.067885846 -0.124490336 -0.043469943
-0.11311065 -0.043048114 -0.1028755 0.00294666 -0.13517518 -0.09267563 -0.048712883 -0.060188416
-0.06277108 -0.11314678 -0.03146719 -0.07024774 -0.10341255 -0.12874308 -0.12504914 -0.11162755
0.027521828 0.027788723 0.037056834 0.1017733 0.06736233 -0.015650278 -0.012765069 -0.010108732
-0.0031840017 0.045391344 -0.008165307 -0.0032630449 0.089232616 0.01846332 -0.02158648 0.10646643
0.03878051 -0.016870921 0.06350248 -0.0016421261 -0.008157913 0.101024576 0.09536574 0.0077536246
0.08905568 0.06924059 -0.0014215072 0.06894494 0.062261365 0.03494189 0.002769227 -0.010658257
-0.025130214 0.05587676 0.06187815 0.08168597 -0.017349346 -0.002982348 0.08797038 0.06347417
0.028439594 0.0440871 0.10811328 -0.012838911 0.07243537 0.05432217 0.010203927 0.000715645
0.054038614 -0.00077696075 0.041369427 -0.02353158 0.07799969 0.0032020907 0.057070907 0.029042633

convs.0.convs.<region___rev_has_region___subject>.lin_l.weight f4 [64, 200]
00000000: f0c6 25be 9220 e4bd 51b6 c1bd 1481 dcbd
00000010: 11e7 4cbd 23d8 4bbd 6192 28be c028 c3bd
00000020: f14c 28bd 32dc e1bd e060 a3bd 3394 f3bd
00000030: 6ff5 a9bd 3ec7 33be acf8 01be 6b36 ffbd
00000040: ad49 19be 62bb 29be 071d a4bd 43ae e5bd
00000050: 859a 3abd cdb2 36bd 7f10 9ebd 7d24 28be
00000060: 5e7e 1cbe 8080 95bd a21d a6bd f88e e3bd
00000070: 55bc 11be 914c 2ebe 7897 1cbe 51e2 60bd
00000080: 9b87 c3bd da83 d4bd d56d 77bd fdf8 07be
00000090: 5a60 0bbe cc8f a9bd b61a d2bd e879 eebd
000000a0: cf25 78bd a120 73bd 3f71 46bd 8780 2dbe
000000b0: c9b6 26be 9c93 dbbd e56f 70bd eddb 44bd
000000c0: fd89 01be 1f3a 03be dbde 88bd 8295 f2bd
000000d0: b600 21be b46f 27be 0fdf 4bbd d18e c4bd
000000e0: 1c9d 1cbe 0d45 a1bd 3f7d 4bbd be8c 04be
000000f0: e17a a2bd ed6b 92bd a715 f0bd a271 b7bd
00000100: a71a 22be 0d47 12be 03ff eebd ff22 56bd
00000110: ae5e 23be 8639 1fbe 6749 bebd 3edd 00be
00000120: 3262 bdbd 4da0 d9bd 4375 55bd 7522 15bd
00000130: c53a 11be d801 d1bd 8d83 cebd 2142 19be
00000140: 21b7 76bd e5a6 3cbd aa0d c0bd 35d8 edbd
00000150: 85a0 80bd 4022 2ebe 443d 29be 21ee ffbd
00000160: 7bae a7bd 43a3 09be bde5 2bbe 6050 c8bd
00000170: 94e4 9cbd 9515 f7bd faf7 8cbd 1681 a0bd
00000180: e2df 2cbe 29e1 b9bd 49f9 2fbe f28b 9fbd
00000190: eba8 59bd d11f 0dbe c1e2 2dbe 355d 8ebd
000001a0: a1f0 c3bd 89ff a0bd 7eca 17be 65fe afbd
000001b0: c854 2fbe c489 b4bd d613 eabd 8f42 7dbd
000001c0: 4163 23bd 36c1 aebd 73d4 14be ccf8 29be
000001d0: da3f a0bd 4dd9 1ebd 581b 04be e9b1 f3bd
000001e0: e829 29be 0017 c3bd 33d7 a8bd c2d3 80bd
000001f0: 1a25 0cbe 9133 0cbe 81a2 7dbd 2dd2 f6bd
00000200: fd6a 3abd 6cc6 2cbe 9948 edbd 8601 04be
00000210: 1d11 81bd 2345 4abd 7fe4 09be a3da 1ebe
00000220: dd86 0bbe aead 2abe f666 88bd 1385 a3bd
00000230: b7ba 59bd 3213 18be 056e 11bd 0da4 ebbd
00000240: a9df 1dbd 9c42 93bd c9e0 3abd bbdb 12be
00000250: 37b8 91bd a515 0ebe 073d 73bd 8252 22be
00000260: c982 83bd 1c47 bcbd 06c2 0cbe faaa 26be
00000270: 2e41 18be 0280 dbbd b08c 2dbe 5c40 a4bd
00000280: 6db5 77bd 068a c1bd b091 2bbe 608b cfbd
00000290: 7f65 28be 5e6f 98bd 757a 9bbd 3545 6abd
000002a0: 415d cfbd cd82 20bd a4e1 c6bd 4982 12bd
000002b0: 1adb 1abe 8224 19be 6323 17be 7274 29be
000002c0: 5767 efbd c34c ffbd 299f 45bd 28c1 2ebe
000002d0: 898c 16be 0387 6ebd 17ee c1bd 2d57 33bd
000002e0: c5b8 b1bd 51e2 04be a5f3 21be 1544 8cbd
000002f0: acfc 89bd a1a2 dbbd acc9 a6bd ab58 cbbd
00000300: 9c50 d2bd f633 d8bd 193f 2fbe 1094 acbd
00000310: b858 dbbd 938b 48bd b9bc 6abd e1c4 2cbe
00000320: a8ff 443d 5a4c b13a 9114 e63c 5ace 863d
00000330: 6e68 873d 1498 4c3d 12a1 723d 2eb3 b73d
00000340: b1c6 d83d 34f0 783d 223b 853d 72b8 093e
00000350: 4ef4 663d 17aa d43d dc7b 5d3d 005f b0b6
00000360: 605a 423d 7e8d 603c 3c35 cb3d 8a6d e13c
00000370: c2bb 733d d0c9 573d 8b93 1a3b 0f79 a03b
00000380: b265 c63d 088e 8a3d 31d1 fb3d 2b46 223c
00000390: c8b8 023e 7041 5a3c 32a0 063c 166d c03d
000003a0: c816 7a3d b0ba e63d 8c17 b13d ba05 de3c
000003b0: f4d8 ca3d db7c 053d 4235 8b3d 2eec 8a3d
000003c0: 033e 1a3d 8071 803d d60d 7a3d d65d 073d
000003d0: 0b33 ca3d 8aca 0d3e 9f34 f53d 30eb cb3d
000003e0: e608 dd3d ce5f c03c 26c7 043e 7f91 933d
000003f0: f537 fb3c f14c 033e a655 733d 7676 783c
-0.1618917 -0.11139025 -0.09458602 -0.10766807 -0.05002505 -0.04976667 -0.16462089 -0.09529257
-0.041089002 -0.11028327 -0.07977462 -0.11893501 -0.08298766 -0.17556474 -0.12692517 -0.12461551
-0.14969511 -0.16575387 -0.08013349 -0.112148784 -0.045557518 -0.04460411 -0.0771799 -0.16420169
-0.1528258 -0.072999 -0.08111121 -0.111112535 -0.14231999 -0.17021395 -0.15292156 -0.054903332
-0.09547349 -0.10376711 -0.06040748 -0.13278575 -0.13610974 -0.0827938 -0.10259001 -0.116443455
-0.060582932 -0.05935729 -0.048447844 -0.1694356 -0.16280665 -0.10721514 -0.05870046 -0.0480613
-0.12650295 -0.1281514 -0.06683131 -0.118449226 -0.15722927 -0.16351205 -0.049773272 -0.095975526
-0.15294307 -0.078744985 -0.04967999 -0.12944314 -0.079335935 -0.071494915 -0.1172288 -0.089572206
-0.1583048 -0.14284916 -0.116697334 -0.05227947 -0.15954086 -0.15549287 -0.09291344 -0.12584397
-0.09247245 -0.10626278 -0.052113783 -0.036409814 -0.14182575 -0.1020543 -0.10083685 -0.14966632
-0.06023324 -0.0460576 -0.09377606 -0.11613504 -0.06280617 -0.17005253 -0.16527277 -0.12496591
-0.081875764 -0.13441186 -0.16786857 -0.09780955 -0.07660785 -0.12064663 -0.06883235 -0.07837121
-0.1688228 -0.09076149 -0.17184938 -0.07790364 -0.05313961 -0.13781668 -0.16981031 -0.069513716
-0.09567381 -0.078612395 -0.14823338 -0.08593444 -0.17122185 -0.08815339 -0.11429565 -0.061831053
-0.039889578 -0.08532946 -0.14534168 -0.16598815 -0.07824679 -0.038781453 -0.12901056 -0.11899168
-0.16519892 -0.09525871 -0.08244171 -0.062903896 -0.13686028 -0.13691546 -0.061922554 -0.120518066
-0.04551219 -0.16872567 -0.115861125 -0.12891206 -0.06302092 -0.04938234 -0.1346607 -0.15513091
-0.13625665 -0.16667816 -0.06660263 -0.07984366 -0.05315658 -0.14851072 -0.035505313 -0.115058996
-0.038543377 -0.07190439 -0.045624528 -0.14341633 -0.07115214 -0.13875444 -0.059384372 -0.15851787
-0.0642143 -0.091932505 -0.13745889 -0.1627616 -0.14868614 -0.10717775 -0.169482 -0.08020088
-0.060475755 -0.09450154 -0.16754794 -0.101340055 -0.16444968 -0.074431166 -0.07591716 -0.057194907
-0.10125209 -0.03918724 -0.09711006 -0.03576878 -0.15122643 -0.14955333 -0.14759593 -0.16548327
-0.116896324 -0.12465813 -0.04824749 -0.17065871 -0.14702047 -0.058234226 -0.0946924 -0.04378431
-0.0867782 -0.12976958 -0.158156 -0.06848923 -0.067376465 -0.107243784 -0.081439346 -0.099290214
-0.10269281 -0.10556786 -0.17113914 -0.08426678 -0.10710281 -0.048961233 -0.057308886 -0.16871978
0.048095375 0.0013526783 0.028085979 0.06582327 0.06611715 0.04994972 0.05923564 0.08969723
0.105847724 0.06077595 0.06505419 0.13449267 0.05638533 0.103840046 0.0540732 -5.256268e-06
0.04744947 0.013705609 0.09922263 0.027518053 0.05950523 0.052682698 0.0023586478 0.004897244
0.096873656 0.067653716 0.122957595 0.009904425 0.12765801 0.013321266 0.0082169045 0.093958065
0.061056882 0.112660766 0.08647069 0.02710234 0.09904662 0.032589775 0.067972675 0.06783329
0.037656795 0.062716484 0.06104835 0.033048473 0.09873017 0.13846794 0.11972927 0.09956968
0.10792713 0.023483183 0.12966594 0.072054856 0.03066633 0.1282232 0.059407853 0.015164962

convs.0.convs.<region___rev_has_region___subject>.lin_l.bias f4 [64]
00000000: d182 54bd c085 c93b 2e20 b63d e60f 553d
00000010: 1e4e 11be 4447 a23d 4bdc 1fbe 25b1 80bd
00000020: 765a 683e a3f7 41be 10f0 cd3c 0e94 35be
00000030: cadd 2d3d 8bbe 843d e2b4 ae3d f8d6 5f3a
00000040: 9484 833d 1e50 b2bc 842e d43d 04f0 013e
00000050: 2d64 c2bd aa16 da3d 594a ae3d f1c3 943d
00000060: f933 953b 6fcb 52bd e21b debd e47b 39bd
00000070: 80b4 4fbe c9c8 77bd 7a7e e23d c9ef c9bd
00000080: 0611 bfbd 2251 5c3d 05ee e6bd aeeb a13d
00000090: acb9 b8bd ad9d 5fbe 1415 1e3e 5b28 ca3c
000000a0: 5e73 0d3e f561 dd3c a710 4ebc e2db 18be
000000b0: 808c 2c3d e7b3 e7bd c298 eb3d 529c a33d
000000c0: e34c 9d3d 7eda 113e 2d77 13bd f0e7 fdbd
000000d0: 687d 583e 9734 d73d 74f5 17bd eb7e cf3d
000000e0: d7c4 15be b0e1 cebd 470d 913d 9b42 203b
000000f0: 190a 313d 07f5 293e a5e9 9cbd 911a f7bd
-0.05188257 0.0061499774 0.088928565 0.052017115 -0.14189956 0.07923749 -0.15611379 -0.06283788
0.22690758 -0.18942122 0.025138885 -0.1773226 0.042447843 0.06481656 0.085305944 0.0008538808
0.06421772 -0.021766718 0.10360435 0.12689215 -0.09491763 0.10648854 0.085102744 0.07263935
0.0045533148 -0.05146354 -0.10845162 -0.045284167 -0.20283699 -0.060494218 0.1105928 -0.098601885
-0.09329419 0.05378831 -0.112758674 0.079062805 -0.09019789 -0.21837492 0.15437728 0.024677446
0.1381354 0.027024249 -0.012577212 -0.14927629 0.04212618 -0.113136105 0.115037456 0.079888
0.076806806 0.14243504 -0.036002327 -0.12397754 0.21141589 0.105080776 -0.037099317 0.101316296
-0.1462587 -0.1010164 0.070826106 0.0024453762 0.04322252 0.16597377 -0.07661752 -0.12065614

convs.0.convs.<region___rev_has_region___subject>.lin_r.weight f4 [64, 3]
00000000: 4543 e43e 5283 e53e d60a 35be 00f4 fdbe
00000010: 1470 ffbe c728 233e 16f6 123f 4e64 c3be
00000020: cd85 233d 817b 0d3f bcdc c3be 9220 b9bd
00000030: e80d 1a3e 9acd 843e e84e 22be 38cb 843e
00000040: b2d8 8ebe 3ca9 d93e dcd5 e8bd 30b4 983e
00000050: 09ed b0be 66c8 3abd 2b47 363d 8e91 2fbf
00000060: 1cb7 25be 46b1 81be ec7e c03e 4293 0fbf
00000070: cbc9 a23e a584 90be a4ee d93e ad0b 2c3b
00000080: cc47 b63e 061c 2ebe fb24 c13d 9e5f 9b3e
00000090: e46e b53e aed8 00be ce35 123f 1e1d 3ebd
000000a0: 804f d6be 9121 253e 6805 d5be f81f d2be
000000b0: 4f76 303e 8b62 d33e a851 9bba 2cf7 3a3e
000000c0: 94c6 b93e 1be3 863c 2e69 c2bc 1f2f 543e
000000d0: 16bb ec3e 4107 7dbe 169d 85be f63b 7f3c
000000e0: 582b d73e 3be3 d43e 3c05 5fbe e912 1d3e
000000f0: cb2c 663e f43e 4dbc 1828 0bbe a969 debe
00000100: 3ec5 ddbe ac5f d5bd 4e8a b63e da0f dfbe
00000110: 1abd b3be b4c4 033e 0453 25be 274e 90be
00000120: c338 d9be cfa1 86be 7cf2 88be 1d52 fb3d
00000130: 3690 abbc adf0 e93e ed29 2ebe 33a0 9c3e
00000140: f5e9 883e fa30 9abe 81f0 95bc 1f0a 2e3e
00000150: e0d0 91be 888f 8e3e 138f b0be 2743 383d
00000160: bcd3 3d3e a819 50bd 7e90 5c3e bb6d dbbd
00000170: 141d 533e cdcb b53e edf7 ed3e 0515 623e
00000180: a479 babe 6ece 7dbc e86e 983e 2d28 39be
00000190: ef11 98be 25f3 093f 1f2e 113e aefe c93e
000001a0: a90e 783d 0e30 ae3d 9a80 8c3b eb1c ddbd
000001b0: 5d3c 44be 1d1f 363c cea8 0cbf bfe4 d33e
000001c0: 7a04 8a3e dfc4 d2be fdb0 a23c 1b84 0e3d
000001d0: fde9 063e c139 423e fe4b 25bd 0eb4 ddbe
000001e0: 98ec 3ebe d65d cabe f570 163c 0f23 46be
000001f0: 7a0b 33be caad c0be 2489 123f a785 f2be
00000200: d36f 2dbe 225e 1ebf 0f23 9c3e d5c7 083e
00000210: a8da bcbd 2637 54be fc04 0d3f 0b3a f7bd
00000220: a794 323e d480 0d3e 5cfa e03e c49f d2be
00000230: 9d1a dc3d 17a8 cebe bf4b a6be 1a36 c2be
00000240: b980 73be 4c68 853d c953 84be f2ec 303f
00000250: a5a8 9ebd 82b7 b0be 3c58 cc3e 7dce 11bd
00000260: d05e 693e 8023 11bf de02 d03e a756 1cbf
00000270: 56df fa3e ed67 f2bd 3199 5abe 6c18 dabe
00000280: b024 c6be 9725 263f 6ef8 08bf 65fd ae3e
00000290: 6eae b7be 8912 f63d 8258 c6be a68c ca3e
000002a0: 361b 02be 4d1f dd3e b3b3 27bf 0065 d6be
000002b0: c787 b03d 10a0 24bf 9c1f 903e 1f0d 8fbe
000002c0: a25e b0bd 65df 8cbd 2de8 1dbe e4f0 f6be
000002d0: 16a4 72be 6950 26bd 85df e4be 6199 f8bd
000002e0: b3f4 9fbe 9add 253e 0ddb 033e 2c8a 123e
000002f0: 11b0 0fbf bcac 16be 75c4 17bc 3089 b6be
0.44582573 0.44826752 -0.17679915 -0.4960022 -0.49890196 0.15933524 0.5740675 -0.38162464
0.039922524 0.55266577 -0.38254344 -0.090394154 0.15044367 0.25938112 -0.15850413 0.25936294
-0.278997 0.42511928 -0.113689154 0.29824972 -0.34555843 -0.04560127 0.044501465 -0.68581474
-0.16183132 -0.2533056 0.37596834 -0.5608407 0.3179458 -0.282262 0.4256488 0.0026252076
0.35601652 -0.17002878 0.094308816 0.30346388 0.35436165 -0.12582657 0.5711335 -0.046414487
-0.4185753 0.16126086 -0.41605687 -0.41040015 0.17232631 0.4128612 -0.0011849897 0.18258351
0.36284316 0.016465714 -0.023731794 0.207211 0.46236485 -0.24709798 -0.2609641 0.015578261
0.42025256 0.41579613 -0.2177934 0.15339245 0.22478025 -0.012527216 -0.13589513 -0.43439987
-0.43314546 -0.104186386 0.35652393 -0.4356678 -0.3510521 0.12868005 -0.16144949 -0.28184626
-0.42426118 -0.26295325 -0.267475 0.12271521 -0.020942789 0.45691434 -0.17008181 0.30590972
0.26740995 -0.3011549 -0.018303158 0.16996048 -0.2847967 0.2784388 -0.34484157 0.044985916
0.18537802 -0.050805718 0.21539494 -0.10714289 0.20616561 0.3550705 0.46478215 0.22078331
-0.3642093 -0.015491111 0.29772115 -0.18081732 -0.29701182 0.53886634 0.1417775 0.39452118
0.060560856 0.085052595 0.0042877914 -0.10796531 -0.19163652 0.011115816 -0.54945076 0.41385457
0.2695654 -0.41165826 0.019859785 0.034793954 0.13175197 0.18967344 -0.040355675 -0.43301433
-0.18644941 -0.39524716 0.0091822045 -0.19349311 -0.17484847 -0.3763259 0.5724051 -0.47367594
-0.16937189 -0.61862385 0.30495498 0.1335748 -0.09221393 -0.20724162 0.5508573 -0.12071618
0.17439519 0.13818675 0.4394101 -0.41137516 0.107472636 -0.40362617 -0.32479665 -0.379319
-0.23779573 0.06514034 -0.25845173 0.6911155 -0.0774701 -0.34515005 0.39911067 -0.035597313
0.22790074 -0.56694794 0.40627187 -0.6106972 0.48998517 -0.118362285 -0.213475 -0.42596757
-0.38699865 0.6490111 -0.53504074 0.341777 -0.35875267 0.12015254 -0.387394 0.3956043
-0.12705693 0.43187943 -0.65508574 -0.41873932 0.086196475 -0.64306736 0.28149116 -0.27939698
-0.086118 -0.068785466 -0.154206 -0.4823066 -0.23695406 -0.04060403 -0.44701782 -0.1213863
-0.31241378 0.16197816 0.1287653 0.14310521 -0.5612803 -0.1471433 -0.009263148 -0.3565154

convs.0.convs.<region___is_functionally_connected___region>.bias f4 [64]
00000000: e933 85bd 0451 1f3d 627f 043e 8d73 05be
00000010: e47e c6bd c207 08be 39bd b8bd e7f5 323e
00000020: 3c77 9f3d c834 69bd 1e13 1ebe ec03 ed3d
00000030: 93e8 993d 547d 1d3e ca9d 18be 702f 2c3e
00000040: 8e80 a2bd 341e 4f3d e77e e03d 8369 ca3d
00000050: 232d 1a3d 2561 ff3d 4df7 cd3d c7bc 9a3d
00000060: dd27 39bd a6ee 1bbe 9ede 0fbe b325 f63d
00000070: 41a9 f73d 93c0 9abd 5005 173d 6073 1fbd
00000080: 8435 f33d d14c bfbd 0d29 d73d 25a1 15be
00000090: 37b2 08be 63e9 39bd 22f0 653d ee49 c33d
000000a0: b8f7 983d 95fd 77bd f3a9 bcbd 0246 81bd
000000b0: b879 ab3d f394 a6bd 8853 03be 166d aabd
000000c0: 0c86 ca3d a0e8 23bd 1a69 2d3e dabb 5fbd
000000d0: f103 bf3d b210 83bc 711b c8bd 6e95 ff3d
000000e0: 6e4e ba3d 90be 4c3d b111 683e 343e c3bd
000000f0: d05d 86bd 1a38 47be fb82 b3bd 6c83 4b3d
-0.06504042 0.038895622 0.12939218 -0.1303236 -0.09692171 -0.1328421 -0.09020466 0.17476617
0.07786414 -0.0569351 -0.1543698 0.11573014 0.07515063 0.1537984 -0.14903942 0.16814971
-0.07934676 0.050565913 0.10961705 0.09883406 0.037640702 0.12469701 0.100569345 0.07555538
-0.045204032 -0.15227756 -0.14049765 0.12018909 0.120928295 -0.07556262 0.0368703 -0.03892839
0.11875442 -0.093408234 0.10505877 -0.14612253 -0.13349234 -0.04538859 0.05613721 0.09535585
0.074691236 -0.06054457 -0.09212103 -0.06312181 0.083728254 -0.081338786 -0.12824833 -0.08321588
0.09888849 -0.04001677 0.16934624 -0.05462251 0.09326924 -0.015999172 -0.09770859 0.12479673
0.090969905 0.049986422 0.22662999 -0.09533349 -0.06560862 -0.19454995 -0.08765217 0.04968588

convs.0.convs.<region___is_functionally_connected___region>.lin.weight f4 [64, 200]
00000000: ad6f 45be 2956 e2bc aa14 943d 5db5 45be
00000010: d2f8 dfbd edf2 ab3d 61cf 7abd ef33 4c3d
00000020: afea 54bd 78e0 983d 5f44 023d 86f8 8d3c
00000030: 4858 56be 9e53 773d e6b7 c2bc f894 25be
00000040: 51fd bbbd 0f06 21be c12e 4dbe 5874 04bb
00000050: 834d 9e3d 3a41 963d 25f6 eb3c e128 43bd
00000060: d0ea 54be d555 c4bd 98f9 81bc 25a6 66bd
00000070: 2733 51bd 5846 38be b96f 46be 3620 80bd
00000080: ee71 9e3c 4784 b2bc 8851 d2bd cb3f 02bd
00000090: 4946 d4bd b79b 22bc 7731 3fbe 7647 18bc
000000a0: 99e3 803d 94d1 7d3d de74 15bc 03f0 52bd
000000b0: 512a 663d 3ebc c9bb 316f ddbc 154e 41be
000000c0: 668d 11be 3546 8bbd cf23 a43d 7d68 f5bd
000000d0: 1993 2b3d 6c4c 3cbe a83c 8d3d 1f86 50bd
000000e0: 9003 1abe 4528 3dbe f598 503d 6daa 9e3d
000000f0: 57b5 37be 8c09 db3c 8b50 1fbe 9f2e a83d
00000100: 7ba3 bfbd a45b 8f3d d89e 05bb bf7c 90bd
00000110: 1105 8f3b 7f4c 2fbd 485b 96bc 9971 dbbc
00000120: fd99 2a3d 1f9f 4a3d 8f39 3fbe 1027 fdbd
00000130: 01b1 113d c79d 5fbd 8e9f bbbc 2124 683d
00000140: 11cc f5bc 9389 afbd 9d3e 94bd d473 04be
00000150: 479c 12be 6e93 adbc ad77 ff3c f2e3 51be
00000160: 6a55 18be b5a4 29be f9c5 bdbd 591b e3bc
00000170: 2ec3 10be 2d51 40bd d4df 93bd 0780 cebd
00000180: 48ea 5c3c 4c60 adbd ad2e 49be 8528 05be
00000190: cc29 c03a 1373 093d 8167 92bd 8eaa 15be
000001a0: 4e2b 1abe 7795 0fbe b159 3a3d 27f5 2abe
000001b0: 8273 8b3d c5d2 70bd cbd9 a73d 7044 92bc
000001c0: 7cc8 dbbd 6783 31bc 7d4b 253d e4cf 83bd
000001d0: 1114 9e3d 9c46 923d b9b8 bdbd 544b 9a3d
000001e0: e711 4c3d af42 caba 530e efbd ddc2 e5bd
000001f0: b8a8 03be c702 0cbe 08a5 86bd 1903 debd
00000200: a5b8 123d 6725 5ebc b110 9abd 9338 a3bd
00000210: e8d8 30be 86bc 9d3c ec33 733c fd08 523d
00000220: d18f a3bd 5c6f dabb 5d00 9c3d 4706 0a3d
00000230: 0455 08bd ec2b dcbb de8c cdbd 8d3e 163d
00000240: b800 46be a397 49be b538 4abe bf5c 36bc
00000250: 3f8f a7bb 55b5 dbbd f181 1c3d c0d7 56be
00000260: ccd4 f0bd 40e6 41be d6ca 18be 8b1b fb3c
00000270: b6e1 48be 39e3 7abd af09 37bd 4c1a b43a
00000280: 645e 97bd ac3d e7bb 3868 27bd 59e8 61bd
00000290: 55e6 49bd 16ea 55be 2440 de3c 2761 063d
000002a0: 6107 dcbd 85a3 15be 86b2 353c 0cb7 84bb
000002b0: 90cf 903d 6531 113d 0508 3fbd 9982 283d
000002c0: 1637 913c 81b3 293d 4525 ee3c d950 513d
000002d0: d721 55bd 49f7 fdbd 5eaa f0bd 399a 42be
000002e0: 0bfd 9d3d 6086 2abe 74cc d53c ff2b bebd
000002f0: c512 803c e6b9 9a3c f22a 22be abc4 a23d
00000300: 2d16 233d 8e98 933d 23f3 51be f41b d5bd
00000310: 365f aabd e757 9dbd c692 32be 4647 d0bc
00000320: 406c 153d d5c6 95bc bfda 023e 8623 0a3d
00000330: 1fb2 e0bc c7a3 92bd 59c9 663c 97a7 40bd
00000340: 9a43 1c3e 6d7c e73d 7572 76bc 3519 f13d
00000350: 0eeb dd3d d0f5 6fbd 8216 273e 348d 653c
00000360: c5cf 953d f3ab 82bd dab8 543d 0454 023e
00000370: 691c 0d3e 2d19 093e eb6c a43d 2a01 ea3d
00000380: 6372 c3bc 28d7 1a3e 7db0 97bc 5149 a1bc
00000390: 775e d2bc 3fbc 8abd d37c c1bd 38fc 67bd
000003a0: 5ffa d83d d44a 113d f8bb 753d 5282 0a3e
000003b0: 261c 11bd ae32 8abd 83c4 1b3e 0a36 62bd
000003c0: a569 40bc b3ce bf3a fa42 f43d 8564 c03d
000003d0: 004b 1ebd 1b43 0c3e 995c 183e 4a92 f63d
000003e0: 1e45 62bd bb9a 8ebd 33e3 873d b542 383d
000003f0: 3f87 9b3d ebce a53d e9a8 343d 7d83 a03d
-0.19280882 -0.027628975 0.07230504 -0.19307466 -0.109361306 0.08395944 -0.06123293 0.049854215
-0.051981624 0.07464689 0.031803485 0.01733042 -0.20932114 0.060382478 -0.02376933 -0.16170108
-0.09179176 -0.15724967 -0.20037366 -0.0020210948 0.07729628 0.0733666 0.028803894 -0.047646407
-0.20792699 -0.09586684 -0.015866086 -0.05631079 -0.051074173 -0.17995584 -0.19378556 -0.06256144
0.019341435 -0.02179159 -0.10269457 -0.03179912 -0.10364968 -0.009924821 -0.18671213 -0.009294381
0.06293411 0.061967447 -0.009122102 -0.051498424 0.0561927 -0.0061564734 -0.02703056 -0.18877442
-0.14214095 -0.068005 0.080146424 -0.1198282 0.04188833 -0.18388528 0.06896335 -0.050909158
-0.15040421 -0.18472393 0.05092712 0.0774735 -0.1794027 0.02673795 -0.15558068 0.08212017
-0.09357353 0.06999901 -0.0020388868 -0.070550434 0.0043646176 -0.04279756 -0.018354073 -0.026787566
0.04165076 0.049468156 -0.186743 -0.12360966 0.035569195 -0.054593828 -0.02290323 0.05667508
-0.030004533 -0.08571162 -0.07238505 -0.1293481 -0.14317428 -0.021188464 0.031184996 -0.2049711
-0.14876333 -0.16566737 -0.09266276 -0.027723001 -0.14136955 -0.046952415 -0.07220426 -0.10083013
0.013483591 -0.08465633 -0.19646712 -0.13003738 0.0014660894 0.03355701 -0.07148648 -0.14615843
-0.15055582 -0.1402186 0.045495693 -0.1669508 0.06809141 -0.058794755 0.081958376 -0.0178549
-0.10731599 -0.010834551 0.040355194 -0.06436136 0.07718671 0.07142374 -0.09263749 0.07533899
0.04982176 -0.001543125 -0.11672654 -0.11218808 -0.1285733 -0.13672934 -0.06574446 -0.108404346
0.035820622 -0.013558722 -0.07522715 -0.07969775 -0.17270243 0.019254934 0.014843922 0.051278103
-0.07986415 -0.006666107 0.07617257 0.033697393 -0.033284202 -0.006719103 -0.10036634 0.036680747
-0.19336212 -0.19686751 -0.19748195 -0.011130511 -0.005113512 -0.10727946 0.03820986 -0.2098074
-0.11759338 -0.1893549 -0.14921126 0.030652782 -0.19617352 -0.061251853 -0.04468697 0.0013740747
-0.073910505 -0.0070569124 -0.040870875 -0.055153225 -0.049291927 -0.20890078 0.027130194 0.032807495
-0.10743595 -0.14613159 0.011089927 -0.004050141 0.070708394 0.035447497 -0.046638507 0.041140173
0.017726462 0.041430954 0.029070506 0.051102493 -0.052034225 -0.124006815 -0.11751245 -0.19004144
0.0771428 -0.16652822 0.026098467 -0.09285735 0.01563395 0.018887471 -0.15836695 0.07947668
0.03981607 0.07206832 -0.20502906 -0.10405722 -0.08318941 -0.07682782 -0.17438802 -0.02542461
0.03648019 -0.018283287 0.12778758 0.033725284 -0.027428685 -0.07160144 0.014086091 -0.047034826
0.15260163 0.11303029 -0.015041937 0.11772386 0.10835849 -0.058584034 0.1631718 0.014010716
0.073150195 -0.06380453 0.0519341 0.12727362 0.13780369 0.1338851 0.08028587 0.11426003
-0.023858255 0.15121138 -0.018516773 -0.01968828 -0.02567981 -0.06774186 -0.094476365 -0.05663702
0.105946295 0.035471752 0.059993714 0.13526276 -0.035427235 -0.06747948 0.15211682 -0.055227317
-0.011743938 0.0014633745 0.11926837 0.093941726 -0.038645744 0.13697474 0.14879073 0.12039621
-0.055241697 -0.06963106 0.06635132 0.04498549 0.075941555 0.08096107 0.044106398 0.078375794

convs.1.convs.<subject___has_region___region>.lin_l.weight f4 [64, 64]
00000000: f4ba 003d 38e3 243d c007 96bb 44c9 2c3d
00000010: dcc5 1c3d 5a22 873d e0d9 02bc e4d9 45bd
00000020: 2e38 dc3d 921a c6bd 38cd 523d 94a2 203d
00000030: fa00 f63d 464f c53d 9e62 d73d 129f 823d
00000040: eaf4 b53d 34bb 643d f81c f1bd 08d7 e4bc
00000050: d889 e33d f88b 733d aeb3 f3bd d049 f83d
00000060: 9253 df3d e0ba 023d eeff fdbd 284d babd
00000070: e46a 11bd 3078 dc3d a05b 1e3c b8da 753d
00000080: f88c 6dbd c030 74bb b038 febd d250 903d
00000090: 30ad 77bc 98f2 e63c 88ad b33c 2855 acbc
000000a0: c41e 11bd e410 8c3d e8fe f93c f0fb be3d
000000b0: f4c2 2f3d 4e30 db3d 1c18 e7bd d85f 943c
000000c0: c8d9 e2bc 3092 f9bd fc7a 19bd 98e1 513d
000000d0: 4e92 82bd 6e02 a0bd 8af3 b9bd 4278 e73d
000000e0: 0c52 75bd 386d e3bd 98c9 ae3d 285d 403d
000000f0: 989d d3bc 4041 f3bd 50e8 c83c fa9c e9bd
00000100: 16db dc3d 8401 993d 28a3 c93d ac69 613d
00000110: c46a 0ebd b884 f23c 5678 c4bd 58a9 983c
00000120: f421 4c3d 6e35 abbd 200c 82bb f885 ca3c
00000130: 56c4 f13d 2ccf e0bd 50b8 aebd 1aa4 d43d
00000140: 48dd 2cbd e4f7 d7bd 1ebb d8bd 28c7 ea3c
00000150: de8a d6bd 6042 743d 220d 97bd e838 28bd
00000160: e87f 48bd 5416 c1bd 706c 5a3c dcd4 633d
00000170: 90b0 64bc 2025 94bc 6ca7 16bd 28de b73c
00000180: f091 53bd f232 c6bd f8d0 4c3d 0019 f73a
00000190: 10e3 84bd d0a2 21bc ca17 ad3d 28cb 83bd
000001a0: 5459 b33d f4cf c2bd 70c5 cebc 6e3f 90bd
000001b0: 44e5 dd3d f892 fabd cca0 cebd 18f4 3a3d
000001c0: dcce 6b3d 80d1 03bb 48cc e73c 9613 dcbd
000001d0: d2d1 fabd f491 d33d d8f4 9c3d 1018 a53c
000001e0: 4038 78bb 80ec 6c3c 74da d93d d40b 11bd
000001f0: ea77 a63d 487c 6f3d 7c29 5d3d feb1 f1bd
00000200: 9ca8 153d 3889 873c 0282 813d 62e7 cbbd
00000210: f0f8 153c 4e46 fe3d 0a97 e0bd e0c4 21bd
00000220: 9a54 b03d d02c 4f3c ea62 a3bd 509d ae3d
00000230: 30cc ab3c 1abf d23d 94fe f73d 00b0 063c
00000240: 5c61 bdbd 6845 213d be1e d9bd 220a 803d
00000250: c08b 383b 5c96 f0bd a6d0 d63d 50df d43c
00000260: a8f6 533d 7ceb fd3d 0863 3fbd c063 453b
00000270: 482a 99bc d0c7 0fbd 3a3d 9e3d 9aed b33d
00000280: 6879 d5bd f0b1 433c 1851 d53d fa39 9c3d
00000290: beb7 e6bd 3070 ad3d 9047 47bc e8be 88bc
000002a0: 503c 943d c0fb 6abb ec7b fabd 8444 acbd
000002b0: 02e9 8dbd 2290 c63d 1041 fa3c 88ed 693d
000002c0: c08c edbd 8088 0ebc cec2 bebd cae0 f13d
000002d0: fa13 aebd e8f4 d3bc 10df 753d 90b3 88bd
000002e0: e027 bc3b 648d 1c3d 9a7e d43d 7a63 c03d
000002f0: 1045 c23d 20d8 ca3b cc85 c43d b830 bfbd
00000300: 547f f33d c046 9c3c 8492 24bd 7c32 19bd
00000310: faf0 d4bd 80c7 b53a 3e20 a53d 14cf 46bd
00000320: dae4 f73d aea1 aebd 9c40 763d 5c12 413d
00000330: f809 b93c 3a2d e63d 1898 78bd c6c9 edbd
00000340: 2042 2fbc e899 8e3d 68f7 6f3d 7402 883d
00000350: 4042 05bd 0827 63bd 28c8 2ebd cca6 b53d
00000360: cc61 06bd 0018 713d f4bb 81bd 42f8 9cbd
00000370: f094 3bbc 7cc2 df3d 602e 46bc d075 dfbd
00000380: a2db 813d f034 e23c 0868 fb3c 7a7a f2bd
00000390: 70ef 46bd 900c 7ebc 283b 453d 522b f93d
000003a0: 9897 3e3d 60b4 d8bc 82af aa3d 84ca debd
000003b0: 40a3 eebb d03b 583d cc8b 623d b05b 5ebd
000003c0: 483c 6b3d 7c14 b13d e4d7 343d 3c3c 103d
000003d0: 504d d93d 38d1 d33d 24b0 413d f044 e7bd
000003e0: b839 ac3c 523a c9bd 5eb5 9b3d 0c75 20bd
000003f0: 3c09 d6bd de75 d43d a0a4 e0bb 8a25 953d
0.031428292 0.040255755 -0.0045785606 0.04218413 0.03827463 0.06598349 -0.007986516 -0.0483035
0.10752903 -0.09673037 0.051465243 0.039217547 0.12011905 0.09634261 0.105168566 0.063779965
0.08884604 0.055842593 -0.117731035 -0.027934566 0.11110276 0.059459656 -0.118995056 0.121234536
0.10904612 0.0319165 -0.1240233 -0.09096748 -0.03550233 0.107651114 0.0096654 0.06002304
-0.057995766 -0.0037260503 -0.12413156 0.07046665 -0.015116975 0.02819185 0.021933332 -0.0210367
-0.03542973 0.06839159 0.030517057 0.09325397 0.04291053 0.10702573 -0.112838954 0.018112108
-0.027691737 -0.12186086 -0.037470803 0.051240534 -0.06375562 -0.078129634 -0.090796545 0.11302234
-0.0598927 -0.11104816 0.08534545 0.04696384 -0.025831982 -0.1187768 0.024524838 -0.11406894
0.10783975 0.07470992 0.09845573 0.055032417 -0.03476979 0.0296043 -0.09593265 0.018635437
0.049837068 -0.083598 -0.0039687306 0.024722084 0.11805026 -0.10977015 -0.085312486 0.103828624
-0.042203218 -0.10545328 -0.10582565 0.028659418 -0.104757056 0.059633613 -0.07375552 -0.041069895
-0.048950106 -0.09428087 0.013331518 0.05562292 -0.013958111 -0.018084109 -0.03678076 0.0224448
-0.05165285 -0.09677686 0.050003976 0.0018852055 -0.06488621 -0.009865478 0.08451803 -0.06435233
0.08757272 -0.0951232 -0.02524063 -0.07043348 0.108347446 -0.12235063 -0.10089263 0.045642942
0.057570323 -0.0020113885 0.028295651 -0.10745923 -0.12247051 0.10330573 0.07663888 0.020153075
-0.0037875324 0.014460683 0.1063737 -0.03541167 0.081283405 0.058468133 0.05399464 -0.118015274
0.03653775 0.016544923 0.06323625 -0.09956242 0.00915359 0.12415753 -0.109663084 -0.039494395
0.086098865 0.0126449615 -0.07977851 0.08526099 0.020971388 0.10290356 0.12109104 0.008220673
-0.092470855 0.03937283 -0.10601567 0.06251933 0.002815947 -0.11747429 0.10489015 0.02598539
0.0517489 0.12398431 -0.046725303 0.003011927 -0.01869692 -0.035102665 0.07726522 0.08785553
-0.10423547 0.011944279 0.10415858 0.07628246 -0.11265515 0.08468664 -0.012163058 -0.016692594
0.07238066 -0.003585562 -0.122306675 -0.08411506 -0.06929208 0.0969546 0.030548602 0.057111293
-0.115991116 -0.008699536 -0.093145 0.11810453 -0.08499904 -0.025873616 0.060027182 -0.06674874
0.005742058 0.038220778 0.1037571 0.09393974 0.09485829 0.006190315 0.09595832 -0.09335464
0.1188952 0.019076705 -0.04017879 -0.03740166 -0.10397525 0.001386866 0.0806279 -0.04853733
0.12104197 -0.08526932 0.06012021 0.04713665 0.022587761 0.11239095 -0.060691923 -0.11610751
-0.010696918 0.06962949 0.058585554 0.06641093 -0.032533884 -0.055457145 -0.042671353 0.088697046
-0.03280811 0.05886078 -0.06334677 -0.07664539 -0.011449084 0.10925767 -0.012096018 -0.10911143
0.0634072 0.027613133 0.030689254 -0.11839767 -0.04856819 -0.015505925 0.04815212 0.12166466
0.04653129 -0.026453197 0.08334257 -0.108784705 -0.0072826445 0.052791417 0.055309102 -0.05428666
0.057430536 0.08646485 0.0441512 0.035213694 0.10610449 0.1034264 0.04728712 -0.11292446
0.021023616 -0.09825577 0.076029524 -0.039174125 -0.1045098 0.10374044 -0.0068555623 0.07282551

convs.1.convs.<subject___has_region___region>.lin_l.bias f4 [64]
00000000: f076 f3bd f012 a3bc 9813 8dbd f023 953c
00000010: 0c3d 07bd f0d2 5f3c 1445 ba3d 9c88 74bd
00000020: 88ac aebc f0a3 723d 5001 3ebc 0040 0d3d
00000030: 28fd 423d a473 3b3d 20c2 043d b081 bc3c
00000040: 54e7 223d f0ad 8a3d b671 8abd 4896 c33d
00000050: 9002 53bc 80b9 c0ba b08d 083d 54a5 c7bd
00000060: 9209 a73d 189b f8bd 005d 113c 101f 2bbd
00000070: 808e 04bb 724b 993d a02d 80bb dedc 843d
00000080: da62 ec3d 50bf b2bc dcb0 bc3d d8e8 48bd
00000090: b083 bb3c 1c7f f9bd 3862 a3bd 14e6 2ebd
000000a0: 0e8e 9c3d f853 c2bd c8de d93d 2cb8 fe3d
000000b0: 124b fdbd d063 7b3c 36a0 b0bd 0042 bbbc
000000c0: 24d7 9f3d 9c49 2fbd e437 78bd eced 7e3d
000000d0: ec77 5fbd c053 693c 9201 8abd 585c f43c
000000e0: 2c54 09bd 6c94 53bd 5695 80bd 6490 e53d
000000f0: e8b3 133d 1829 06bd c489 aa3d 782c 5ebd
-0.1188792 -0.019906491 -0.06888503 0.018205613 -0.033017203 0.013661131 0.09095207 -0.059700593
-0.021322504 0.059238374 -0.011596993 0.034484863 0.04760471 0.04576458 0.032411695 0.023011059
0.039771393 0.06771457 -0.0675997 0.09550148 -0.012879029 -0.0014703721 0.03333825 -0.09748331
0.08156122 -0.12138957 0.008872271 -0.04177767 -0.0020226538 0.07485093 -0.003911689 0.064874396
0.11542292 -0.02181974 0.09213421 -0.049050182 0.022889942 -0.12182447 -0.07977718 -0.04269989
0.07644282 -0.09488672 0.10638195 0.12437472 -0.12367834 0.015343621 -0.08624308 -0.02285862
0.07804707 -0.04279481 -0.060600176 0.06223862 -0.054557726 0.014241159 -0.06738581 0.02982919
-0.03352754 -0.051655218 -0.062784836 0.11209181 0.036060244 -0.032754034 0.08327058 -0.054241627

convs.1.convs.<subject___has_region___region>.lin_r.weight f4 [64, 64]
00000000: fc66 3cbd 485d 623d 66e2 953d 1c45 a6bd
00000010: 5c8b 43bd a8ff b1bd 18db b6bc d4c9 95bd
00000020: 529c db3d 6003 a83b 4427 313d e05b 4ebc
00000030: 5c72 b4bd 1034 a3bd 4c6d 5dbd c8d9 cf3d
00000040: 2e7d 933d fe15 f5bd 4ac0 a03d a6fe b0bd
00000050: 3497 883d 0891 883c 58c2 d53c 0090 50bd
00000060: c84c e5bd 005c b639 000c 4bba 04e4 bdbd
00000070: f8b9 46bd 50e8 50bc 0485 0abd 98b6 bbbd
00000080: f62b ca3d 7a81 ac3d 30e6 233d 663f fbbd
00000090: 40aa 523c d28b 82bd 6486 873d 40e7 d9bc
000000a0: e0d1 0c3c 1021 4f3c bc75 4b3d 6a28 c0bd
000000b0: 425c f6bd a8a8 813d d097 f73c 8a28 d43d
000000c0: a215 d2bd 3091 173d 403c 5bbc 98a7 a7bc
000000d0: a0be 463d 8cd9 043d e0a0 0d3c 80b3 1a3b
000000e0: 9076 5ebc 4827 003d 8a2d fc3d e828 24bd
000000f0: 78a9 e4bd 4014 cfbc b45e f63d 0ac6 d9bd
00000100: d01a 43bc 6068 cebb 68b6 343d a8d7 aa3d
00000110: c229 f13d 90cb 6a3c c030 3ebc 185e 663d
00000120: b651 823d 4290 d0bd e00d c43d f865 cd3d
00000130: 3c07 493d 7ca4 96bd dc1a aabd 3022 763c
00000140: b0d4 54bc 804c b93a dcd5 41bd 240d 8fbd
00000150: c689 893d 2c27 10bd aa30 8cbd 644d 19bd
00000160: 08bd e3bc d63f a6bd 90b9 7fbc 4002 aebd
00000170: f4f7 833d 5456 c1bd 9018 e2bc a83c d5bd
00000180: f837 b73d 0821 4f3d 3ea6 aabd a433 70bd
00000190: 10cf 43bd 68e7 e3bd 3a95 ebbd 5816 eabc
000001a0: 288d 353d 562a af3d 7484 a93d b0d3 38bc
000001b0: a6c6 83bd 80b3 64bc 4afb cbbd d6c4 fa3d
000001c0: 208f 0fbd 8e95 ed3d 2629 813d ec5b 95bd
000001d0: ac53 193d c869 413d aefe c3bd 40e5 043d
000001e0: 60c3 5d3c 1c73 d4bd b020 8abc dee9 cd3d
000001f0: 0036 bcbb 3ce0 a0bd c27e e93d 9445 40bd
00000200: ee12 bdbd 386a 97bd e064 623c 7ec7 85bd
00000210: 10b3 f03d fa8a 8fbd b8f5 c03d d80e 953d
00000220: 9084 943d 4484 79bd b8ac e83c c6e7 d7bd
00000230: b80a 7fbd 7044 e6bd fad9 8a3d f0d9 30bc
00000240: 0e2d 913d 6419 6ebd a451 62bd 00ba 2fba
00000250: 4005 763d 2889 c63d d887 32bd 06a5 b3bd
00000260: a462 313d 8062 18bc b8ac c53d 908d 5fbc
00000270: ce2a cdbd 1064 6b3c 0ae1 8d3d 1299 95bd
00000280: f88c f93d 0011 cebb 2493 ba3d f0b4 84bc
00000290: bed4 fabd 4692 aabd 604f fb3c 8068 e7bb
000002a0: d8f2 d7bc 38a9 c13d 7c96 80bd 90f2 943d
000002b0: 0455 533d 00a9 023a f02d 0f3c 300f ee3c
000002c0: e42f 31bd 7016 53bd 3830 ec3c 4057 b6bb
000002d0: f06b 60bc 400c 50bc 0ce1 3b3d 1c57 3c3d
000002e0: fcfe 973d 4a8a 903d 00d2 63bc 407d f93d
000002f0: 2014 083d 0071 4cbc 10ee 683c 60eb 2e3d
00000300: 24e8 d8bd 200e a23c aed4 e43d 8236 cb3d
00000310: 0c40 973d 7c58 dabd ccf2 51bd 708b 46bd
00000320: 9eec ddbd 72c8 d8bd 3807 6dbd d06a 0f3d
00000330: 9883 e7bd 00d3 75ba 58dc cabd 4c92 73bd
00000340: e85c 823c b07c c1bd 14e7 b93d 5c4a 593d
00000350: 3cdf c63d f8e0 e5bd d8e8 b53c 6ac2 c93d
00000360: 123f b7bd a406 b6bd b010 29bd 8439 723d
00000370: b872 8b3c e2fc 9dbd 6490 33bd 7cb1 4c3d
00000380: 300e b4bd 588d a03d 3ef3 88bd 32c2 d0bd
00000390: b600 abbd ac99 fe3d 2036 a63d e636 d1bd
000003a0: 88d7 ef3c bcac a53d e0cd 79bc 781c e6bc
000003b0: 3a35 d53d 787d 8f3d 4073 f9bc 6ce4 5c3d
000003c0: 88c4 a93c badf d8bd 7815 4f3d 3c0b 5b3d
000003d0: f8fd fc3c 004c 50ba 1435 dcbd 843d 613d
000003e0: a8c8 bf3d 90b8 c9bc ba13 cd3d 6c1e 9c3d
000003f0: 041b d7bd 2aae ebbd d0ff ef3d 28cd 51bd
-0.04599665 0.05526474 0.07318573 -0.0811865 -0.047740325 -0.08691341 -0.022321269 -0.07313886
0.10723175 0.0051273555 0.043250337 -0.012595147 -0.08810875 -0.079689145 -0.05405931 0.1014896
0.072016105 -0.11967085 0.07849176 -0.0864232 0.06669465 0.016670719 0.026093647 -0.05091858
-0.111962855 0.0003478229 -0.00077456236 -0.09272006 -0.048517197 -0.0127507 -0.03381826 -0.09165686
0.09871666 0.08423133 0.040014446 -0.12267952 0.012857974 -0.06374325 0.0661743 -0.026599526
0.00859496 0.01264216 0.049672827 -0.09382708 -0.120293155 0.06330997 0.030223757 0.10359295
-0.102580324 0.037003696 -0.013381064 -0.020465657 0.048521638 0.03243403 0.008644313 0.0023605525
-0.013578072 0.03128746 0.123133734 -0.040078074 -0.11165136 -0.02527821 0.12029782 -0.10633476
-0.011908248 -0.0062990636 0.04411927 0.083419144 0.11775543 0.01433076 -0.011608303 0.05624208
0.063632414 -0.10183765 0.09572959 0.100292146 0.049079165 -0.07355592 -0.08305904 0.015022799
-0.012990162 0.0014137179 -0.047323093 -0.06984928 0.06715731 -0.035193607 -0.068452194 -0.03742732
-0.027800098 -0.081176445 -0.015608206 -0.08496523 0.06443778 -0.09440294 -0.027599603 -0.1041196
0.08946222 0.05056861 -0.083324894 -0.058643 -0.047804892 -0.111281216 -0.11503072 -0.028575107
0.04432407 0.08552997 0.082772166 -0.011280939 -0.064343736 -0.013958812 -0.09960039 0.12244575
-0.035048604 0.11600791 0.063066766 -0.07292923 0.03743331 0.04722002 -0.09570061 0.032445192
0.013535351 -0.10373518 -0.01686129 0.10054372 -0.005743742 -0.07855269 0.1140113 -0.046941355
-0.09232126 -0.073933065 0.013817996 -0.06532191 0.117529035 -0.070089296 0.09421867 0.07278222
0.07251847 -0.060917154 0.028402671 -0.10542254 -0.06226608 -0.11243522 0.06779857 -0.010794148
0.070886716 -0.058129683 -0.05525364 -0.00067034364 0.0600636 0.09694129 -0.043586582 -0.0877171
0.04330696 -0.009300828 0.09652084 -0.013644591 -0.1001793 0.0143671185 0.069276884 -0.073045865
0.12185091 -0.0062886477 0.09110096 -0.016199559 -0.122476086 -0.08328681 0.030677497 -0.007062018
-0.026360914 0.09456104 -0.062787026 0.072728276 0.05159475 0.00049842894 0.00873898 0.029059976
-0.043258563 -0.05153507 0.028831586 -0.0055646 -0.013697609 -0.012698233 0.04586892 0.04598151
0.07421681 0.070576265 -0.013905048 0.12182093 0.033222318 -0.012478113 0.014216915 0.04270494
-0.10591152 0.019782126 0.11173378 0.09922506 0.07385263 -0.10661408 -0.05125694 -0.04847282
-0.10836147 -0.10585107 -0.057868212 0.035013974 -0.113043964 -0.000937745 -0.099053085 -0.05946569
0.015913442 -0.094476104 0.09077278 0.05304943 0.09710547 -0.1122455 0.022205755 0.09851535
-0.089475766 -0.08887985 -0.04127568 0.059136882 0.017022476 -0.07714249 -0.043838874 0.04997395
-0.087917686 0.07839459 -0.0668702 -0.1019329 -0.08349745 0.12431654 0.08115792 -0.10215549
0.029277578 0.08089587 -0.015246838 -0.028089747 0.10410543 0.07006353 -0.030450463 0.053928778
0.020723596 -0.105895475 0.050557584 0.05347751 0.03088282 -0.0007945895 -0.10752311 0.054990306
0.09364444 -0.02462414 0.10013528 0.0762299 -0.105032 -0.115078285 0.11718714 -0.051221043
