src/trained_heteroGNN_model.pth (torch, 248794 bytes, 20 tensors)

convs.0.convs.<subject___has_region___region>.lin_l.weight f4 [64, 3]
0.43605018 -0.45664132 -0.2887045 0.34023297 -0.13630608 0.6494137 -0.5407993 0.17705297
-0.63911915 -0.49467883 0.23017414 -0.41535783 -0.4221468 0.25836858 0.11737655 -0.41890246
0.42589292 -0.33898896 -0.011152202 -0.16459782 0.50005966 0.0033400706 -0.05549756 0.03742977
-0.25287184 0.17857988 0.17597568 0.46238 -0.21732499 0.32814348 0.114621036 -0.38381207
0.5229873 0.30855462 -0.23282947 0.111488536 0.71361864 -0.007919992 0.58580524 -0.31543872
0.032086443 -0.16901787 -0.3954362 -0.2016097 0.69946885 0.43714744 0.18479104 -0.404295
0.25025156 -0.19604112 0.02230789 -0.349593 0.010295846 0.32773313 -0.25315252 0.1317904
-0.49274594 0.14541556 0.021085495 -0.4316864 0.3014698 0.31814352 -0.20437509 0.24448524
0.019566907 0.12988423 0.36769527 -0.0066333143 -0.28294823 0.4992722 -0.20067595 -0.22737008
-0.18305914 -0.32959214 -0.16486622 -0.17948215 -0.09340012 -0.027700555 -0.16751897 -0.08278112
0.017618671 -0.1442108 0.4848474 -0.44359282 0.6501191 -0.44477108 0.19262075 -0.52428025
0.0017399509 0.039129283 -0.54774874 0.37488717 -0.25087026 -0.45438933 0.0034581344 0.117014155
0.18778846 -0.01957706 0.4492605 0.06433036 0.378278 0.1377167 -0.2976097 -0.15527476
-0.12783708 -0.32220235 0.4278602 0.47443506 0.31959045 0.13284494 -0.16404721 -0.48362723
0.011390223 -0.032652486 -0.13283697 -0.38359657 -0.25215295 -0.5810088 0.16559069 -0.16348869
0.18333872 -0.012191873 -0.5874899 0.07280522 0.08623949 -0.57020605 -0.36408424 -0.109000675
0.027540155 -0.08706078 -0.34131178 -0.040924955 0.49336436 -0.0019682662 0.36387947 -0.65760666
0.047063127 0.2596448 -0.1975118 -0.26566896 -0.3111848 -0.22161417 0.10885268 -0.4618847
0.43271816 0.055977486 -0.2646042 0.1752195 0.020210411 -0.3998538 0.3064484 -0.06550475
-0.1414095 0.5700978 -0.028064497 0.07277673 -0.20565285 -0.14421521 0.45630777 0.44663703
-0.003393241 -0.25713086 0.17975435 -0.352624 -0.032004926 -0.14330916 0.39406663 -0.576391
-0.38601136 -0.31975362 0.49412534 0.06634247 0.26743636 0.2890486 -0.5365054 0.14352377
-0.10390661 0.054981574 -0.37048975 -0.33644542 -0.44048804 0.33031952 -0.117774464 0.3181736
0.005098439 0.032830533 -0.06981643 -0.13786973 -0.32060632 0.18131831 0.33556744 -0.14566134
00000000: f841 df3e e4cc e9be 14d1 93be 0433 ae3e
00000010: d293 0bbe fa3f 263f d371 0abf 604d 353e
00000020: 509d 23bf 8b46 fdbe c5b2 6b3e c8a9 d4be
00000030: a023 d8be e348 843e 1e63 f03d 627a d6be
00000040: a30e da3e f68f adbe bab7 36bc 558c 28be
00000050: e903 003f 16e5 5a3b 6951 63bd f54f 193d
00000060: 6b78 81be a5dd 363e f832 343e 12bd ec3e
00000070: 718a 5ebe 6c02 a83e 6fbe ea3d 0483 c4be
00000080: 7fe2 053f dffa 9d3e d96a 6ebe 1a54 e43d
00000090: b6af 363f dbc2 01bc 55f7 153f 2f81 a1be
000000a0: 136d 033d 0513 2dbe 9d76 cabe c672 4ebe
000000b0: 6410 333f cad1 df3e dd39 3d3e c1ff cebe
000000c0: f920 803e 01bf 48be 09bf b63c dbfd b2be
000000d0: e8af 283c a3cc a73e 359d 81be 10f4 063e
000000e0: 3249 fcbe d1e7 143e 7dbb ac3c 0006 ddbe
000000f0: 405a 9a3e b5e3 a23e b447 51be 575a 7a3e
00000100: c74a a03c 5f00 053e 8e42 bc3e 465c d9bb
00000110: 97de 90be 9ba0 ff3e ff7d 4dbe b4d3 68be
00000120: db73 3bbe 4dc0 a8be b1d2 28be 2bca 37be
00000130: 9048 bfbd 46ec e2bc 188a 2bbe 2689 a9bd
00000140: 0855 903c ffab 13be eb3d f83e 991e e3be
00000150: 356e 263f 09b9 e3be 603e 453e 3b37 06bf
00000160: 100f e43a 0746 203d 4339 0cbf 36f1 bf3e
00000170: 1172 80be b8a5 e8be dea1 623b 1ea5 ef3d
00000180: 9e4b 403e 1260 a0bc 7905 e63e a3bf 833d
00000190: a7ad c13e 9b05 0d3e 4c60 98be 5900 1fbe
000001a0: b9e7 02be b5f7 a4be 7e10 db3e 27e9 f23e
000001b0: 5ca1 a33e 8108 083e fefb 27be fd9d f7be
000001c0: 0f9e 3a3c 9dbe 05bd 6a06 08be c566 c4be
000001d0: 311a 81be febc 14bf 9b90 293e 9469 27be
000001e0: 25bd 3b3e 6cc0 47bc bd65 16bf e71a 953d
000001f0: 549e b03d 06f9 11bf 4069 babe bf3b dfbd
00000200: e49b e13c ec4c b2bd 6bc0 aebe eda0 27bd
00000210: 419a fc3e 07fe 00bb 694e ba3e e958 28bf
00000220: 44c5 403d 2af0 843e 8940 4abe c305 88be
00000230: 9d53 9fbe d3ee 62be 27ee de3d 277c ecbe
00000240: 3c8d dd3e a648 653d 347a 87be be6c 333e
00000250: 4e90 a53c a3b9 ccbe cee6 9c3e 5b27 86bd
00000260: a7cd 10be eef1 113f 84e7 e5bc f70b 953d
00000270: a996 52be 27ad 13be 2ca1 e93e 9cad e43e
00000280: 2361 5ebb a8a6 83be 8611 383e 228b b4be
00000290: 9917 03bd a3bf 12be 1ac3 c93e 5c8e 13bf
000002a0: 48a3 c5be bfb6 a3be fffd fc3e 90de 873d
000002b0: 6bed 883e 2efe 933e 6b58 09bf e5f7 123e
000002c0: fdcc d4bd 5c34 613d d5b0 bdbe 9342 acbe
000002d0: a687 e1be a41f a93e bd33 f1bd a6e7 a23e
000002e0: ce10 a73b 4f79 063d ebfb 8ebd b92d 0dbe
000002f0: 8326 a4be 82ab 393e 7fcf ab3e 3f28 15be

convs.0.convs.<subject___has_region___region>.lin_l.bias f4 [64]
-0.20577557 0.2909981 0.46221173 -0.6724179 -0.34691727 -0.71625257 0.5257214 -0.19554436
0.22741099 -0.19359307 0.53608584 0.71763873 0.1880994 0.41618457 0.7098824 0.16073792
-0.23315728 -0.4966514 -0.6739128 0.354577 -0.11868826 -0.32607543 -0.11335546 0.302686
0.37998068 0.64199823 -0.23188893 -0.5896658 -0.1869443 -0.36041453 -0.6686112 0.45561832
-0.5698917 0.2949639 0.06303301 -0.45373383 -0.33131084 -0.36205652 0.5765308 -0.23254585
-0.19175142 -0.4479222 -0.16367449 0.15388691 -0.249596 -0.41410214 0.11162085 0.16423495
-0.32558754 -0.19206354 -0.3123851 -0.3691658 -0.3926668 0.2595659 0.4461662 -0.71911764
0.04710743 -0.6307115 -0.567119 0.037416212 -0.381902 -0.26984197 0.135952 -0.301505
00000000: d5b6 52be b4fd 943e 04a7 ec3e 9423 2cbf
00000010: 249f b1be 545c 37bf ad95 063f c83c 48be
00000020: 6dde 683e 433d 46be ec3c 093f 2cb7 373f
00000030: 219d 403e 2516 d53e daba 353f 7b98 243e
00000040: c8c0 6ebe 1849 febe 8d85 2cbf 1e8b b53e
00000050: d512 f3bd 5cf3 a6be e826 e8bd a9f9 9a3e
00000060: d48c c23e ff59 243f 4b74 6dbe 56f4 16bf
00000070: 546e 3fbe 4188 b8be 1b2a 2bbf ce46 e93e
00000080: 6ce4 11bf 8205 973e 7317 813d cd4f e8be
00000090: 93a1 a9be 795f b9be 8697 133f 8020 6ebe
000000a0: 7c5a 44be 0f56 e5be 499a 27be 8894 1d3e
000000b0: 1896 7fbe 3205 d4be 7999 e43d 352d 283e
000000c0: 69b3 a6be 4eac 44be f1f0 9fbe 4d03 bdbe
000000d0: 9f0b c9be d2e5 843e e56f e43e 1818 38bf
000000e0: b8f3 403d 4f76 21bf b62e 11bf be41 193d
000000f0: a988 c3be ba28 8abe 0037 0b3e dd5e 9abe

convs.0.convs.<subject___has_region___region>.lin_r.weight f4 [64, 200]
0.06615295 0.059490845 0.1386007 0.09984966 0.046463747 0.059146356 0.05958318 0.06864919
0.07936759 0.12879042 0.036171135 0.12506469 0.1070015 0.11746559 0.057507426 0.045824904
0.050745495 0.06986975 0.09852985 0.1355479 0.08401691 0.10855478 0.11561463 0.13203071
0.17222053 0.12272775 0.08685344 0.153258 0.11837597 0.12729047 0.14712957 0.10325148
0.124918066 0.038643133 0.04177048 0.032578323 0.08204844 0.036836553 0.1703333 0.09611255
0.16497289 0.07752023 0.038572397 0.049637068 0.13826229 0.07654199 0.045668263 0.10133077
0.08151996 0.03889625 0.0552457 0.07148007 0.09171318 0.038893607 0.15987092 0.17141052
0.17051385 0.11976498 0.094307035 0.05896526 0.13912581 0.056387436 0.14616133 0.15465595
0.12490426 0.11160929 0.04106881 0.13374561 0.11456189 0.04495683 0.061661664 0.057556234
0.10999886 0.04155229 0.13444185 0.10675191 0.14609922 0.062504835 0.09608627 0.08225221
0.15943614 0.06963261 0.1667092 0.045806963 0.09792867 0.15126139 0.04538067 0.07219292
0.098607615 0.1497919 0.14105952 0.08448465 0.1549447 0.091996595 0.049561996 0.10573261
0.14456156 0.12742399 0.10164703 0.043685183 0.089342885 0.070772104 0.08393726 0.08459925
0.05124571 0.1135248 0.16873333 0.034135576 0.1556522 0.11823521 0.1461576 0.15689969
0.17027055 0.046643127 0.034589507 0.083224505 0.06371053 0.034292642 0.03180116 0.11876974
0.16013844 0.15641566 0.09190308 0.15921159 0.037232235 0.0872659 0.03300843 0.16364297
0.076882094 0.06467271 0.099562086 0.13790546 0.11480267 0.10538086 0.07046952 0.15440774
0.083369054 0.105836034 0.14083485 0.06648799 0.119625606 0.09296302 0.0970775 0.12457216
0.110252865 0.13171196 0.0475691 0.0596351 0.14354596 0.052816987 0.04413121 0.13033782
0.0736778 0.07506461 0.11440059 0.048947815 0.096893966 0.14553359 0.091289155 0.04580112
0.050160643 0.1159804 0.0530623 0.0776515 0.08869246 0.14272855 0.124345735 0.08523096
0.05098591 0.08686972 0.12103927 0.0803605 0.038638923 0.100868315 0.08376889 0.12137773
0.15572812 0.06667074 0.09810937 0.088013925 0.11761507 0.05015533 0.15717149 0.0986265
0.0493649 0.044084284 0.15046035 0.15764774 0.048091266 0.1149294 0.051038407 0.03193711
0.1607832 0.1602844 0.1401767 0.108075425 0.1283347 0.08461648 0.14933336 0.15766855
0.12211446 0.13725634 0.10680242 0.111123554 0.12512793 0.112825744 0.059789777 0.10002925
0.102181666 0.07408252 0.114889465 0.18501194 0.17213531 0.18865913 0.1370409 0.058388658
0.16872625 0.085148655 0.11592225 0.13940531 0.16739476 0.08574328 0.0999424 0.074975856
0.06814107 0.15025885 0.18393348 0.10636182 0.053351186 0.17610821 0.113605075 0.0593345
0.10530666 0.101723604 0.07304793 0.07930749 0.14454071 0.06774735 0.13059044 0.18527424
0.070902996 0.18973301 0.1892084 0.1579801 0.083081596 0.16088659 0.15444225 0.089662194
0.118285306 0.09992814 0.06190054 0.056031257 0.07302601 0.17980021 0.082097255 0.08090994
00000000: 337b 873d acac 733d 58ed 0d3e fb7d cc3d
00000010: c550 3e3d 7343 723d 7e0d 743d f297 8c3d
00000020: 7a8b a23d a3e1 033e 2f28 143d f510 003e
00000030: 9a23 db3d cd91 f03d e88c 6b3d e5b2 3b3d
00000040: 82da 4f3d df17 8f3d 05ca c93d 12cd 0a3e
00000050: 0f11 ac3d f851 de3d 5dc7 ec3d 0f33 073e
00000060: 945a 303e b058 fb3d 37e0 b13d aaef 1c3e
00000070: 1a6f f23d 6f58 023e 22a9 163e 8375 d33d
00000080: 0bd5 ff3d 4348 1e3d 8617 2b3d d970 053d
00000090: 0309 a83d ede1 163d da6b 2e3e a8d6 c43d
000000a0: a7ee 283e edc2 9e3d 17fe 1d3d 3d50 4b3d
000000b0: a194 0d3e 0cc2 9c3d a50e 3b3d 8286 cf3d
000000c0: f0f3 a63d ad51 1f3d 5149 623d 2564 923d
000000d0: 1fd4 bb3d e74e 1f3d 34b5 233e 3d86 2f3e
000000e0: 2f9b 2e3e 5847 f53d 0c24 c13d 8e85 713d
000000f0: ff76 0e3e 83f6 663d 51ab 153e 215e 1e3e
00000100: cecd ff3d 6993 e43d c537 283d 9cf4 083e
00000110: 6d9f ea3d a724 383d f190 7c3d 16c0 6b3d
00000120: 1547 e13d bc32 2a3d 20ab 093e bfa0 da3d
00000130: 099b 153e 8902 803d e1c8 c43d d973 a83d
00000140: 3a43 233e 8b9b 8e3d d1b5 2a3e 15a0 3b3d
00000150: d48e c83d 44e4 1a3e 15e1 393d e2d9 933d
00000160: caf2 c93d 0c63 193e e871 103e 4a06 ad3d
00000170: d3a9 1e3e b668 bc3d 8501 4b3d 578a d83d
00000180: f207 143e 6f7b 023e 512c d03d 3cef 323d
00000190: 67f9 b63d f7f0 903d 4ce7 ab3d 5f42 ad3d
000001a0: 06e7 513d b17f e83d 6ec8 2c3e bfd1 0b3d
000001b0: 4a63 1f3e 4d25 f23d 57aa 153e 50aa 203e
000001c0: 675b 2e3e dd0c 3f3d baad 0d3d 9c71 aa3d
000001d0: ab7a 823d 7176 0c3d ef41 023d 8d3d f33d
000001e0: 55fb 233e 6d2b 203e af37 bc3d 5d08 233e
000001f0: d480 183d 77b8 b23d d933 073d 0692 273e
00000200: 5c74 9d3d 2073 843d 35e7 cb3d 1737 0d3e
00000210: aa1d eb3d ecd1 d73d 5352 903d 101d 1e3e
00000220: 65bd aa3d 90c0 d83d 0337 103e db2a 883d
00000230: 45fe f43d 6563 be3d 91d0 c63d b01f ff3d
00000240: 41cc e13d 80df 063e d1d7 423d ef43 743d
00000250: b6fd 123e a056 583d edc2 343d 4777 053e
00000260: 63e4 963d 79bb 993d db4a ea3d 817d 483d
00000270: 5870 c63d c206 153e cff5 ba3d f599 3b3d
00000280: 3f75 4d3d 2287 ed3d db57 593d c007 9f3d
00000290: 64a4 b53d 6f27 123e faa8 fe3d 928d ae3d
000002a0: 9ad6 503d c0e8 b13d 70e3 f73d 0c94 a43d
000002b0: d943 1e3d 0c94 ce3d 068f ab3d e394 f83d
000002c0: 3177 1f3e ab8a 883d 91ed c83d a540 b43d
000002d0: 2be0 f03d ad6f 4d3d 90f1 203e b1fc c93d
000002e0: d932 4a3d b991 343d 4712 1a3e 696e 213e
000002f0: 59fb 443d 1b60 eb3d a60d 513d 7dd0 023d
00000300: 5aa4 243e 9821 243e 7b8a 0f3e a656 dd3d
00000310: 2c6a 033e 684b ad3d d8ea 183e dd73 213e
00000320: 2517 fa3d ed8c 0c3e 3abb da3d bf94 e33d
00000330: 8921 003e 2f11 e73d 20e6 743d 23dc cc3d
00000340: 9f44 d13d 94b8 973d 2b4b eb3d c573 3d3e
00000350: 3d44 303e dc2f 413e 7354 0c3e f228 6f3d
00000360: 93c6 2c3e 6b62 ae3d a568 ed3d 44c0 0e3e
00000370: 8869 2b3e 2c9a af3d 9aae cc3d f18c 993d
00000380: 8c8d 8b3d 75dd 193e 0f59 3c3e 3ad4 d93d
00000390: c686 5a3d b655 343e c7a9 e83d bc08 733d
000003a0: 05ab d73d 7754 d03d 279a 953d f76b a23d
000003b0: 7b02 143e 1fbf 8a3d 80b9 053e 88b8 3d3e
000003c0: 9735 913d 5f49 423e d9bf 413e 89c5 213e
000003d0: af26 aa3d 74bf 243e 1c26 1e3e d0a0 b73d
000003e0: 913f f23d 20a7 cc3d 6c8b 7d3d 0881 653d
000003f0: a98e 953d 8c1d 383e 9b22 a83d 1cb4 a53d

convs.0.convs.<region___rev_has_region___subject>.lin_l.weight f4 [64, 200]
-0.1555726 -0.062344793 -0.042246606 -0.1001796 -0.13914077 -0.13124329 -0.11290537 -0.06068835
-0.11175512 -0.03859609 -0.07272412 -0.106186375 -0.1037617 -0.1675737 -0.12020473 -0.12749054
-0.0684554 -0.1694002 -0.11504714 -0.121824205 -0.07545308 -0.1026853 -0.10047361 -0.050897826
-0.11039615 -0.15636669 -0.12992768 -0.10976605 -0.16301386 -0.09392099 -0.16511025 -0.050259758
-0.09270942 -0.039722327 -0.09658381 -0.0712251 -0.1234522 -0.03823014 -0.0357255 -0.10078634
-0.17064163 -0.113428965 -0.16429535 -0.13990632 -0.075146526 -0.17025907 -0.10458824 -0.06922672
-0.11385143 -0.15452379 -0.10561849 -0.16799791 -0.10689613 -0.052426647 -0.15576077 -0.15917319
-0.14426336 -0.14575505 -0.1168807 -0.12458184 -0.08088292 -0.16118146 -0.105807155 -0.1613293
-0.11224528 -0.12972182 -0.118992254 -0.040843572 -0.14807338 -0.16885671 -0.07609358 -0.1505656
-0.14911018 -0.07225557 -0.091700494 -0.1711236 -0.12054373 -0.17089991 -0.109515294 -0.14497276
-0.11965187 -0.043689635 -0.064741805 -0.037295405 -0.09448555 -0.10323894 -0.09466484 -0.042544875
-0.036651757 -0.14991313 -0.10203846 -0.14025314 -0.065922335 -0.09110531 -0.09742516 -0.136248
-0.15959218 -0.07197627 -0.11089787 -0.1272203 -0.10404599 -0.08200246 -0.04268838 -0.052151065
-0.090871215 -0.16958795 -0.033518013 -0.1153453 -0.08526169 -0.120267645 -0.10191466 -0.03631204
-0.10871503 -0.13433917 -0.14159265 -0.082892686 -0.15315686 -0.09744325 -0.12932381 -0.07906188
-0.13205619 -0.08257039 -0.08976588 -0.075800665 -0.049975414 -0.0654799 -0.03847951 -0.04315387
-0.065867655 -0.14904435 -0.10454753 -0.03510866 -0.13303308 -0.13832322 -0.07722594 -0.14983775
-0.05574574 -0.14107038 -0.057408925 -0.07632349 -0.06651538 -0.1522488 -0.15326862 -0.09491257
-0.14818865 -0.16747576 -0.03617138 -0.09946805 -0.093079254 -0.13317604 -0.031705998 -0.109216645
-0.17022124 -0.15792765 -0.13499674 -0.06954011 -0.09895781 -0.043204878 -0.038130056 -0.039600346
-0.101791084 -0.15207781 -0.16525397 -0.06483914 -0.044207122 -0.03585754 -0.045860443 -0.12681304
-0.17086875 -0.16224664 -0.08672428 -0.07415781 -0.030796738 -0.17134953 -0.09140433 -0.09873368
-0.15146498 -0.053659867 -0.07772477 -0.14364623 -0.11399534 -0.054589566 -0.078029595 -0.07914743
-0.09264284 -0.06571149 -0.08343923 -0.068184644 -0.15542185 -0.07263184 -0.115419835 -0.054421905
-0.12804854 -0.08773282 -0.044247936 -0.15104152 -0.16919944 -0.05148909 -0.12932459 -0.13021187
-0.110470615 -0.100981556 -0.17436023 -0.092117354 -0.18424852 -0.20075648 -0.11023386 -0.16484377
-0.19133396 -0.109374434 -0.1160807 -0.09792817 -0.12908636 -0.14818741 -0.18109001 -0.1386642
-0.07494047 -0.19694324 -0.16450986 -0.08020652 -0.070089534 -0.20149522 -0.08169788 -0.09006634
-0.101517975 -0.13852954 -0.18360873 -0.19683419 -0.16021557 -0.15464175 -0.18750994 -0.19313504
-0.083017334 -0.07000506 -0.18981767 -0.11379284 -0.17996304 -0.07792768 -0.20116952 -0.10817698
-0.07117277 -0.20244099 -0.08691857 -0.10560566 -0.09423875 -0.068257734 -0.14893992 -0.15912044
-0.08907399 -0.08891317 -0.15583776 -0.12265467 -0.07044783 -0.11110578 -0.20088196 -0.075278446
00000000: 6c4e 1fbe 415d 7fbd c70a 2dbd f62a cdbd
00000010: eb7a 0ebe a464 06be ee3a e7bd 5994 78bd
00000020: dedf e4bd ef16 1ebd 62f0 94bd 3e78 d9bd
00000030: 0481 d4bd 7198 2bbe e62d f6bd e18c 02be
00000040: 5832 8cbd 3f77 2dbe d69d ebbd f87e f9bd
00000050: 2587 9abd ac4c d2bd 1cc5 cdbd 3d7a 50bd
00000060: 6017 e2bd 971e 20be c30b 05be 06cd e0bd
00000070: 1bed 26be a659 c0bd a912 29be 2ddd 4dbd
00000080: 70de bdbd e1b3 22bd bccd c5bd 77de 91bd
00000090: 82d4 fcbd 3597 1cbd e754 12bd 1269 cebd
000000a0: aebc 2ebe 724d e8bd 0a3d 28be 9a43 0fbe
000000b0: 6ce6 99bd 6558 2ebe 5c32 d6bd bdc6 8dbd
000000c0: f02a e9bd 7c3b 1ebe 824e d8bd a507 2cbe
000000d0: 5cec dabd 53bd 56bd c07f 1fbe 4cfe 22be
000000e0: c6b9 13be d040 15be 265f efbd c424 ffbd
000000f0: f2a5 a5bd c10c 25be 6cb1 d8bd 8233 25be
00000100: dae0 e5bd ccd5 04be 36b2 f3bd 974b 27bd
00000110: 8ca0 17be c6e8 2cbe f3d6 9bbd de2d 1abe
00000120: 57b0 18be bafa 93bd 78cd bbbd 063b 2fbe
00000130: a2df f6bd 6300 2fbe 8e49 e0bd bd73 14be
00000140: 0a0c f5bd e7f3 32bd 5a97 84bd 11c3 18bd
00000150: a481 c1bd f06e d3bd a4df c1bd 8943 2ebd
00000160: 2720 16bd d482 19be 8af9 d0bd 859e 0fbe
00000170: 4a02 87bd 6c95 babd d886 c7bd 9984 0bbe
00000180: 226c 23be 4b68 93bd 6c1e e3bd 0a46 02be
00000190: 1016 d5bd e8f0 a7bd 03da 2ebd 5b9c 55bd
000001a0: b01a babd 77a8 2dbe 2f4a 09bd 283a ecbd
000001b0: ae9d aebd e24e f6bd a2b8 d0bd efbb 14bd
000001c0: fca5 debd 3590 09be aafd 10be a4c3 a9bd
000001d0: 27d5 1cbe 5490 c7bd 766d 04be 32eb a1bd
000001e0: bd39 07be aa1a a9bd 2cd7 b7bd 613d 9bbd
000001f0: 05b3 4cbd 531a 86bd b19c 1dbd 1dc2 30bd
00000200: 9fe5 86bd 159f 18be 041d d6bd 19ce 0fbd
00000210: d339 08be 9aa4 0dbe a228 9ebd 116f 19be
00000220: a555 64bd c174 10be 9f25 6bbd 7d4f 9cbd
00000230: 3739 88bd 1ce7 1bbe 73f2 1cbe 8661 c2bd
00000240: c4be 17be c47e 2bbe 7128 14bd e8b5 cbbd
00000250: 56a0 bebd 4d5f 08be 26de 01bd faac dfbd
00000260: 7a4e 2ebe c9b7 21be 963c 0abe 0c6b 8ebd
00000270: 64aa cabd 99f7 30bd 432e 1cbd f933 22bd
00000280: d877 d0bd 49ba 1bbe 5638 29be 62ca 84bd
00000290: 8712 35bd 5bdf 12bd 29d8 3bbd 47db 01be
000002a0: 38f8 2ebe fc23 26be 809c b1bd 0de0 97bd
000002b0: 7149 fcbc 4076 2fbe 3232 bbbd e234 cabd
000002c0: a319 1bbe 73ca 5bbd 2a2e 9fbd ff17 13be
000002d0: 6476 e9bd 4f99 5fbd fbcd 9fbd 0c18 a2bd
000002e0: 88bb bdbd bf93 86bd 30e2 aabd 64a4 8bbd
000002f0: e826 1fbe 01c0 94bd 3c61 ecbd 81e9 5ebd
00000300: 281f 03be 44ad b3bd 533d 35bd a1aa 1abe
00000310: 9e42 2dbe 39e6 52bd aa6d 04be 4356 05be
00000320: 6b3e e2bd 6bcf cebd 7d8b 32be 06a8 bcbd
00000330: a5ab 3cbe 1b93 4dbe 4ac2 e1bd cecc 28be
00000340: 0ded 43be b4ff dfbd b8bb edbd 908e c8bd
00000350: 372f 04be 71be 17be a96f 39be fdfd 0dbe
00000360: 647a 99bd 7dab 49be 4675 28be 5143 a4bd
00000370: 1a8b 8fbd c354 4ebe 3851 a7bd b474 b8bd
00000380: a8e8 cfbd b0da 0dbe ed03 3cbe e78e 49be
00000390: 8d0f 24be 685a 1ebe 9b02 40be 31c5 45be
000003a0: fe04 aabd d05e 8fbd 905f 42be 380c e9bd
000003b0: 3b48 38be 8c98 9fbd 62ff 4dbe e48b ddbd
000003c0: 07c3 91bd b14c 4fbe 5d02 b2bd c847 d8bd
000003d0: 3f00 c1bd b6ca 8bbd b583 18be 78f0 22be
000003e0: 6d6c b6bd 1c18 b6bd ef93 1fbe 5f32 fbbd
000003f0: f446 90bd 6d8b e3bd 00b4 4dbe 962b 9abd

convs.0.convs.<region___rev_has_region___subject>.lin_l.bias f4 [64]
-0.1492624 -0.15342747 -0.09247602 0.07619657 0.09616659 -0.12055928 0.14412448 0.13294727
0.1813256 0.13666807 -0.10370497 -0.19878818 0.1702088 -0.034692068 0.1037535 0.13024193
-0.12058383 0.13274896 0.064210385 -0.20902342 -0.08150737 -0.097756945 -0.10800243 0.054535117
0.20624615 0.13289665 -0.042305347 0.07065243 -0.1051875 -0.024092114 0.15934941 -0.069663316
-0.1132005 0.061206233 0.07215606 0.15022933 0.12267502 -0.07788041 -0.09453103 0.0055008847
0.18254128 0.08670764 0.010466343 -0.04187308 -0.048440937 -0.07696525 0.110911675 -0.17995277
0.14020838 0.19572136 -0.016265629 -0.17628825 0.10797352 -0.055993244 0.010878437 -0.17037408
-0.016211962 0.04673394 -0.14441872 0.10773088 0.11184062 -0.036442038 -0.068323776 -0.19141835
00000000: 3ed8 18be 171c 1dbe 1164 bdbd f30c 9c3d
00000010: fdf2 c43d c9e7 f6bd 5e95 133e 5423 083e
00000020: 6bad 393e b7f2 0b3e 4563 d4bd 218f 4bbe
00000030: 374b 2e3e 4519 0ebd b77c d43d 245e 053e
00000040: a8f4 f6bd 58ef 073e bc80 833d 3c0a 56be
00000050: 56ed a6bd cb34 c8bd 6130 ddbd 3760 5f3d
00000060: 3132 533e 0f16 083e 5f48 2dbd 39b2 903d
00000070: 8b6c d7bd d35c c5bc 7e2c 233e a4ab 8ebd
00000080: aad5 e7bd 63b3 7a3d 8ec6 933d b8d5 193e
00000090: 0a3d fb3d c47f 9fbd 7c99 c1bd c440 b43b
000000a0: 1aec 3a3e c693 b13d 067b 2b3c 1b83 2bbd
000000b0: 016a 46bd f59f 9dbd a925 e33d 8a45 38be
000000c0: c992 0f3e 2e6b 483e 7f3f 85bc e884 34be
000000d0: 3921 dd3d 2c59 65bd 793b 323c 8b76 2ebe
000000e0: f3ce 84bc 166c 3f3d 80e2 13be 02a2 dc3d
000000f0: b20c e53d 3f44 15bd 56ed 8bbd 2c03 44be

convs.0.convs.<region___rev_has_region___subject>.lin_r.weight f4 [64, 3]
0.28190833 0.22870493 -0.108588666 0.43816358 0.3557642 -0.23614241 0.1041252 -0.008374245
0.118890546 -0.07074376 -0.021876432 -0.27376944 0.61746055 -0.07649504 0.659828 -0.28880948
0.02794048 0.46030888 0.40924218 -0.14296041 0.6267006 -0.22861388 -0.3967103 -0.45788378
0.6120464 -0.0017357087 0.4307527 0.6145786 -0.3873086 0.31915605 0.44856048 0.31724
0.06562924 0.022013884 0.2782013 -0.3647643 -0.32897496 -0.3220412 -0.23310786 -0.1472689
0.23435862 0.1759651 0.3600003 -0.10217585 0.4354972 0.2814808 -0.041206002 0.5801696
-0.2895817 0.46345487 -0.21478155 0.4171296 -0.25880814 -0.4266167 -0.10711941 0.024429098
0.30806354 0.2478132 0.03739144 0.3875069 -0.31050262 0.0064581763 -0.4326686 0.39971268
0.2732808 -0.15225297 0.3883957 0.40794393 0.46969733 0.45048413 0.005125192 0.51906115
0.2970624 -0.0016134346 0.57090425 0.5810419 -0.14692171 0.07752613 -0.3944026 0.43976375
0.058699183 -0.2879471 -0.29036862 0.15065506 0.22436242 0.046246387 0.10763381 0.08328402
0.45897192 0.084711105 0.3743174 -0.41219023 0.6004782 0.053316172 0.2046527 -0.36087745
0.3264983 0.19030996 -0.64074 -0.049538087 -0.20557988 0.043636482 0.46511197 -0.0040650847
0.16745882 0.2070004 -0.21725097 0.23694405 -0.475848 -0.39855963 0.29618043 -0.45252034
0.3301832 -0.072970696 0.2717247 -0.016561326 -0.07629207 0.37016743 -0.48815265 -0.20814922
0.53939325 -0.23778872 -0.388318 -0.42314538 -0.12770067 -0.095895536 -0.12998402 -0.2188885
-0.3019944 0.3871704 0.021164864 0.025061332 0.40401435 0.15123008 -0.2829022 -0.6562325
0.4268424 0.106511384 0.31891692 -0.39619675 -0.003980721 0.015632097 0.09377842 0.0012270296
-0.46683013 -0.052106097 0.6429316 0.14633635 -0.23062901 0.40057072 0.096795775 0.0041036536
-0.46032336 -0.19448741 0.3208556 -0.0063146125 0.27522916 -0.16549277 0.44538328 0.38709718
0.22820993 -0.26934585 -0.184628 0.12293007 0.18871275 -0.6065363 0.1418211 0.050216123
-0.5284086 -0.11361761 -0.27500597 0.254377 -0.38616574 -0.4817382 -0.6042061 0.15167786
0.10939312 -0.11636565 -0.15013999 0.07820963 -0.26991037 -0.31413296 0.43988222 -0.2952012
0.13232489 0.1312488 -0.2835194 0.006879541 -0.07433123 -0.34377939 0.19901718 -0.25801784
00000000: 4a56 903e a031 6a3e bc63 debd fa56 e03e
00000010: ba26 b63e 51cf 71be 983f d53d 2134 09bc
00000020: e37c f33d 1be2 90bd 3436 b3bc 822b 8cbe
00000030: e511 1e3f 6ea9 9cbd 7dea 283f d6de 93be
00000040: 6fe3 e43c 9bad eb3e 3188 d13e 3764 12be
00000050: 736f 203f c219 6abe 9d1d cbbe be6f eabe
00000060: 13af 1c3f b880 e3ba 9e8b dc3e 0655 1d3f
00000070: 504d c6be 6c68 a33e b8a9 e53e 486d a23e
00000080: 9f68 863d 7656 b43c 6770 8e3e 63c2 babe
00000090: 686f a8be 96e2 a4be d4b3 6ebe a9cd 16be
000000a0: b5fb 6f3e 3230 343e f651 b83e 9241 d1bd
000000b0: 7df9 de3e 401e 903e a0c7 28bd ff85 143f
000000c0: 0d44 94be f549 ed3e b2ef 5bbe 0392 d53e
000000d0: 8082 84be 816d dabe 6c61 dbbd 881f c83c
000000e0: 81ba 9d3e bec2 7d3e c427 193d 4e67 c63e
000000f0: 33fa 9ebe 1c9f d33b bd86 ddbe 24a7 cc3e
00000100: 76eb 8b3e 34e8 1bbe cddb c63e 07de d03e
00000110: 2b7c f03e dba5 e63e 3af1 a73b 31e1 043f
00000120: 9018 983e e279 d3ba c826 123f 29bf 143f
00000130: a572 16be 05c6 9e3d 23ef c9be b728 e13e
00000140: 8e6e 703d cd6d 93be 32ab 94be 5245 1a3e
00000150: 43bf 653e da6c 3d3d 1d6f dc3d d090 aa3d
00000160: 5efe ea3e 047d ad3d 88a6 bf3e 990a d3be
00000170: f0b8 193f 0f62 5a3d 7a90 513e eec4 b8be
00000180: c92a a73e 9de0 423e 8907 24bf 73e8 4abd
00000190: 8883 52be 2bbc 323d 2823 ee3e 6734 85bb
000001a0: 537a 2b3e eaf7 533e 0a77 5ebe 76a1 723e
000001b0: 59a2 f3be 0210 ccbe f6a4 973e bfb0 e7be
000001c0: c60d a93e a971 95bd 801f 8b3e 9eab 87bc
000001d0: 043f 9cbd 9686 bd3e 25ef f9be 1225 55be
000001e0: ad15 0a3f e37e 73be 9ed1 c6be 83a6 d8be
000001f0: f7c3 02be e164 c4bd 881a 05be 4f24 60be
00000200: 039f 9abe 333b c63e f061 ad3c 6c4d cd3c
00000210: f8da ce3e 0fdc 1a3e 8fd8 90be dafe 27bf
00000220: 168b da3e a422 da3d 1449 a33e 4dda cabe
00000230: b570 82bb e20e 803c e60e c03d 48d4 a03a
00000240: 5c04 efbe 346d 55bd 2a97 243f 32d9 153e
00000250: 032a 6cbe 9b17 cd3e dd3c c63d f177 863b
00000260: 81af ebbe b527 47be 2f47 a43e cfea cebb
00000270: d6ea 8c3e f076 29be 4709 e43e 9a31 c63e
00000280: ddaf 693e b3e7 89be 1f0f 3dbe c3c2 fb3d
00000290: ea3d 413e f745 1bbf 8d39 113e 6caf 4d3d
000002a0: c945 07bf 59b0 e8bd 95cd 8cbe b43d 823e
000002b0: 84b7 c5be 64a6 f6be 40ad 1abf 7151 1b3e
000002c0: 8009 e03d 1d51 eebd 4cbe 19be 5f2c a03d
000002d0: b131 8abe 09d6 a0be 3e38 e13e 9d24 97be
000002e0: 2d80 073e 1666 063e 7429 91be c66d e13b
000002f0: f93a 98bd da03 b0be 29cb 4b3e ea1a 84be

convs.0.convs.<region___is_functionally_connected___region>.bias f4 [64]
0.10194459 0.1228235 -0.06886729 -0.13703837 -0.14464982 -0.1486842 0.16598265 0.06461118
-0.1482168 0.18647109 0.13895321 0.16445756 0.14346932 -0.07259706 0.1598998 -0.12702908
0.092573814 0.007911716 -0.18066494 0.12593254 -0.13704564 0.012767318 -0.03638822 0.09717971
0.10441589 0.14703634 0.1904593 -0.07593871 0.12842093 -0.005100766 -0.16050395 0.002442366
-0.09000142 -0.10160743 0.080951996 -0.0998177 -0.055828508 -0.087067425 0.18239346 -0.062843844
-0.18039843 -0.06670921 0.076886326 0.1644376 -0.03163561 -0.08692204 0.08229395 -0.030436374
-0.11903932 0.11761715 0.102936424 0.12633763 0.051216155 -0.010028556 0.11967593 -0.16794918
0.033333987 -0.058752533 -0.07533208 0.15347336 -0.1508849 0.13298845 0.20741296 -0.109510735
00000000: 53c8 d03d e38a fb3d 4b0a 8dbd c953 0cbe
00000010: 151f 14be ac40 18be 5bf7 293e de52 843d
00000020: 25c6 17be 47f2 3e3e c049 0e3e 9067 283e
00000030: 9fe9 123e c4ad 94bd c6bc 233e e913 02be
00000040: 5797 bd3d 24a0 013c 3b00 39be 76f4 003e
00000050: b155 0cbe 032e 513c d00b 15bd 2806 c73d
00000060: 00d8 d53d b290 163e c307 433e c185 9bbd
00000070: c780 033e 5424 a7bb 265b 24be 1a10 203b
00000080: aa52 b8bd 8e17 d0bd 29ca a53d 396d ccbd
00000090: 6fac 64bd 6850 b2bd 5ac5 3a3e 46b4 80bd
000000a0: 5eba 38be d79e 88bd 9476 9d3d 5562 283e
000000b0: 5794 01bd 2f04 b2bd bb89 a83d b455 f9bc
000000c0: e3ca f3bd 43e1 f03d 55d0 d23d a75e 013e
000000d0: 08c8 513d d04e 24bc a718 f53d dffa 2bbe
000000e0: 3889 083d 7fa6 70bd b547 9abd 1f28 1d3e
000000f0: 9281 1abe 202e 083e 1064 543e 2a47 e0bd

convs.0.convs.<region___is_functionally_connected___region>.lin.weight f4 [64, 200]
0.08111853 0.13127814 0.24062428 0.18992358 -0.029157441 -0.045723353 0.16019359 0.15603104
0.24084288 0.1746194 -0.042907584 0.0019749932 0.20926565 0.21519831 0.18736827 0.068600796
0.031457555 0.21527416 0.06949221 -0.026935695 0.01928848 0.033458408 0.0064949626 0.10409663
0.21129417 -0.013062017 0.1900267 -0.017342968 0.12409557 0.21493155 0.22873622 0.10983843
0.22490185 0.18456185 -0.03841653 0.08311241 0.19326067 0.21261108 0.1117071 0.1611563
0.17186531 0.16419025 0.13622193 0.12174832 0.10088482 -0.012208948 0.16701522 -0.025454804
0.09126527 0.23804069 0.12122413 0.22469181 0.025173774 -0.0030874228 0.24548817 0.23452052
0.091338776 0.07486556 0.038291976 0.19490585 0.2449786 -0.043100912 0.23674315 0.15577286
0.019795336 0.2304276 -0.014351618 0.0045204186 0.24444541 0.19027796 0.16872604 0.024736201
0.24562147 0.07088392 0.016965741 0.07810029 0.05552244 0.21545815 0.21859133 0.22973186
-0.01576307 0.17080769 0.08417439 0.15832861 -0.023619516 0.086597614 0.11073511 0.19855005
0.091770016 0.14431292 0.07838876 0.10982809 0.025899699 0.014450761 0.092339076 0.11698458
0.21352166 -0.033604424 0.0918146 0.18501052 0.19127041 0.034081873 -0.008316934 0.18864483
0.1510359 0.23798144 0.17022851 -0.03207631 0.23499519 -0.04200079 0.010508973 0.12894088
0.17197526 0.22715771 0.1201733 0.04644787 0.09221295 0.087001346 0.016932944 0.25249028
0.17333534 -0.0031249812 0.14379239 -0.041176636 0.18181449 0.1934509 0.009967789 0.074612714
0.06403008 0.25120762 -0.02056331 0.16349575 0.14201602 0.07252399 0.0058713336 -0.029961897
-0.021829976 -0.037762027 0.0043358156 0.18134484 -0.017174568 0.14621569 0.14278121 0.01609628
0.026726922 0.16183576 -0.04364555 0.110945635 0.1571788 -0.037030566 0.22007757 0.052380446
0.096447326 0.1013945 0.15474625 0.1857594 -0.01040018 0.21409962 0.15978308 0.17742258
0.18748236 -0.039013233 0.14562352 0.23433465 0.11683642 0.19587886 0.1040185 0.20237187
0.1226678 -0.017280443 0.10079756 0.08740953 -0.012511143 0.03241696 0.16650707 0.17635593
0.07090867 0.014455559 0.1458459 -0.0354586 0.05036955 0.21555692 0.03187765 0.1505529
0.0052639474 -0.027377916 0.08094818 0.07302355 0.17779958 0.103586264 0.09161567 0.17642877
0.202752 0.1611093 0.06651031 0.22509247 0.06628538 0.2318618 0.055588696 0.13603784
0.20812383 -0.01170175 0.17193079 0.046044175 0.14133899 0.025621545 0.092100315 0.1773954
0.10780469 0.11749762 0.19851355 0.008326226 0.22922532 0.15821145 0.2702044 0.19718607
0.14292401 0.11279987 -0.0069528925 0.070156544 0.023904998 0.011849226 0.21048997 0.24426584
0.15401147 0.2612281 0.038552895 0.19586521 0.101448946 0.083429344 0.19307074 0.088110216
0.1716143 -0.0012374998 0.015555421 -0.0011993453 0.21075298 0.046574388 -0.020232629 0.065359294
0.26828894 0.16454381 0.18288854 0.19362418 0.24773994 0.072223604 0.24927318 0.18482952
0.060106054 0.1832847 0.11363054 0.11811669 0.17205411 0.2700552 0.23510742 0.19803248
00000000: 7921 a63d c76d 063e 3666 763e 547b 423e
00000010: 96db eebc 6948 3bbd ca09 243e 9ac6 1f3e
00000020: 849f 763e 6ecf 323e ddbf 2fbd e36e 013b
00000030: bc49 563e f25c 5c3e 78dd 3f3e 937e 8c3d
00000040: a3d9 003d d470 5c3e ef51 8e3d 3fa8 dcbc
00000050: e002 9e3c af0b 093d b2d3 d43b 9d30 d53d
00000060: 805d 583e 1202 56bc 5c96 423e d712 8ebc
00000070: d125 fe3d 0417 5c3e d439 6a3e f9f2 e03d
00000080: ac4c 663e c8fd 3c3e a75a 1dbd d736 aa3d
00000090: 20e6 453e b8b6 593e b1c6 e43d 2806 253e
000000a0: 76fd 2f3e 7d21 283e c37d 0b3e 2f57 f93d
000000b0: b39c ce3d 0a08 48bc 0a06 2b3e 9886 d0bc
000000c0: 49e9 ba3d f0c0 733e 5b44 f83d 9c15 663e
000000d0: 3b39 ce3c 5c56 4abb 4061 7b3e 2626 703e
000000e0: d30f bb3d 1d53 993d 0cd8 1c3d 6695 473e
000000f0: acdb 7a3e 958a 30bd cc6c 723e ec82 1f3e
00000100: d429 a23c 36f5 6b3e 0c23 6bbc 0520 943b
00000110: e64f 7a3e 3ad8 423e 85c6 2c3e 93a3 ca3c
00000120: 3284 7b3e 972b 913d bdfb 8a3c 0bf3 9f3d
00000130: 7f6b 633d 10a1 5c3e 68d6 5f3e d43e 6b3e
00000140: 8e21 81bc 36e8 2e3e 9f63 ac3d e520 223e
00000150: b77d c1bc 175a b13d 17c9 e23d b450 4b3e
00000160: ebf1 bb3d c4c6 133e 498a a03d 8ded e03d
00000170: 9b2b d43c e2c2 6c3c 451c bd3d 9d95 ef3d
00000180: 6ca5 5a3e cba4 09bd 4b09 bc3d 6673 3d3e
00000190: 64dc 433e 6f99 0b3d c043 08bc 1c2c 413e
000001a0: 28a9 1a3e 68b1 733e 6250 2e3e 7362 03bd
000001b0: 94a2 703e 0509 2cbd d42d 2c3c 1409 043e
000001c0: 481a 303e 089c 683e 6b1d f63d 1f40 3e3d
000001d0: 25da bc3d c32d b23d f5b6 8a3c 6846 813e
000001e0: d27e 313e 7ccc 4cbb 503e 133e d5a8 28bd
000001f0: 942d 3a3e fe17 463e f04f 233c 8dce 983d
00000200: 3422 833d 499e 803e 6374 a8bc 6e6b 273e
00000210: a66c 113e 7587 943d 5164 c03b a772 f5bc
00000220: c7d4 b2bc 5bac 1abd 7513 8e3b 76b2 393e
00000230: aeb1 8cbc 91b9 153e 3d35 123e 59dc 833c
00000240: 6bf2 da3c 46b8 253e adc5 32bd 7737 e33d
00000250: 7bf3 203e 5dad 17bd 045c 613e e18c 563d
00000260: 2d86 c53d eba7 cf3d cd75 1e3e b637 3e3e
00000270: 8465 2abc ee3c 5b3e 2d9e 233e 44ae 353e
00000280: 60fb 3f3e 57cc 1fbd 551e 153e 6cf5 6f3e
00000290: ef47 ef3d 7894 483e a707 d53d 923a 4f3e
000002a0: 4139 fb3d b78f 8dbc f36e ce3d c503 b33d
000002b0: 8afb 4cbc a5c7 043d d480 2a3e a696 343e
000002c0: 9138 913d 02d7 6c3c a158 153e 093d 11bd
000002d0: 4d50 4e3d f4ba 5c3e 2492 023d 8a2a 1a3e
000002e0: 317d ac3b a747 e0bc 29c8 a53d 5f8d 953d
000002f0: 1811 363e 0925 d43d ffa0 bb3d bea9 343e
00000300: 389e 4f3e d6f9 243e 8f36 883d a47e 663e
00000310: a1c0 873d 2e6d 6d3e f9b0 633d 814d 0b3e
00000320: 6a1e 553e b2b8 3fbc a00e 303e d198 3c3d
00000330: 2bbb 103e 46e4 d13c 179f bc3d 24a7 353e
00000340: b5c8 dc3d 98a2 f03d 2347 4b3e b96a 083c
00000350: 0bba 6a3e 2f02 223e 3b58 8a3e 25eb 493e
00000360: ac5a 123e 9e03 e73d 17d5 e3bb 3cae 8f3d
00000370: 6ad4 c33c 4223 423c af8a 573e d320 7a3e
00000380: 2fb5 1d3e b1bf 853e a4e9 1d3d e490 483e
00000390: 77c4 cf3d 01dd aa3d 56b4 453e 2173 b43d
000003a0: a9bb 2f3e 9a33 a2ba 2adc 7e3c 5a33 9dba
000003b0: a1cf 573e c9c4 3e3d e6be a5bc 18db 853d
000003c0: 2b5d 893e 2c7e 283e 2247 3b3e 6b45 463e
000003d0: 8aaf 7d3e f8e9 933d 7841 7f3e f343 3d3e
000003e0: c431 763d fcae 3b3e 21b7 e83d 2ae7 f13d
000003f0: f42e 303e ad44 8a3e 00c0 703e 07c9 4a3e

convs.1.convs.<subject___has_region___region>.lin_l.weight f4 [64, 64]
-0.041662216 -0.12290533 0.06856257 0.10816218 -0.05323215 0.004764661 -0.09891611 -0.055306286
0.03801757 0.12047474 -0.078749046 0.06634839 0.04663834 -0.05123627 -0.11355494 0.0012130886
0.11310734 0.08285332 0.035475314 0.035139143 -0.08081229 -0.038624227 0.02191478 -0.07405996
-0.11383492 -0.10287996 0.05855064 -0.08927603 -0.12146756 0.044677705 -0.05144477 0.07596338
-0.011828512 -0.116559505 0.11281648 -0.073017254 0.11830948 0.115269125 -0.088777155 -0.03123574
0.09361152 -0.041248545 -0.018485978 0.11025661 0.038405225 0.08897725 0.028452292 -0.053069755
0.03361918 0.050521374 0.014030352 0.021177858 0.09372173 0.060665518 -0.07827842 -0.08301611
-0.046541095 -0.04100223 0.07828538 0.030853942 0.0269202 0.021761954 -0.015597552 0.1108855
-0.07795377 -0.053075716 -0.03971319 -0.10828479 -0.0811519 0.10454133 0.07109991 0.10232562
-0.10792968 -0.06637785 -0.067054525 -0.087487504 0.113950536 0.011478558 -0.01370652 -0.08349697
-0.09155436 0.016254768 0.078952745 0.06582658 -0.09829219 -0.12084465 0.046283066 -0.115296885
-0.016143262 -0.115449116 -0.04228221 -0.042796373 -0.10388155 0.056249186 -0.062341884 0.09788175
0.01010865 -0.05740866 -0.0035483837 -0.092581674 -0.03739947 0.05297342 -0.007423967 -0.00713332
-0.01623322 0.03662269 0.12125942 -0.058035195 0.047597602 0.07235253 -0.030706123 0.08735947
0.038930297 -0.06592551 -0.060374588 -0.008978069 -0.06672235 0.049542174 0.07126507 0.058034256
0.085296765 -0.037675023 0.028664991 -0.061987564 0.05739039 0.10844511 0.09377006 -0.09639928
-0.0268448 0.02502887 0.11672446 -0.10112727 0.09258203 0.03361778 -0.0933609 0.055066407
0.011196375 0.12259151 -0.113234565 0.009616733 -0.11380127 -0.014669552 0.0437361 0.117510885
0.051067278 -0.07903494 -0.065463364 -0.018852174 0.060162783 0.107212275 0.06044753 0.0053132325
0.010326803 0.0027699322 -0.04093519 -0.07154846 0.031917006 0.013926759 0.07039854 -0.11836402
0.12483983 0.01602143 0.00044122338 -0.052271128 0.12266144 -0.10917732 0.076563776 -0.06742953
0.016396001 -0.04998064 0.041947618 -0.12170711 0.10457456 -0.09582384 0.096429124 0.055351317
0.08305761 -0.060213417 0.060043827 0.11227891 0.017083958 -0.10092902 -0.12307672 -0.006950021
0.035368353 0.0761715 -0.052751005 -0.002573967 -0.12269652 -0.008498296 0.10323717 -0.111341104
-0.12134306 -0.049666032 0.0070073903 -0.08618353 0.09152691 -0.11376783 -0.045394197 -0.10580601
-0.07430798 -0.058490813 0.057036668 0.044964552 0.026429445 -0.0318159 -0.038132876 0.040633157
-0.08668055 0.053420633 -0.0027737468 -0.06965248 0.03486657 0.0026732683 0.066549405 -0.0044741035
-0.095328 -0.099722326 -0.11728726 -0.027101398 0.10006325 -0.009936303 0.061662927 -0.083999485
-0.05877252 0.048935205 0.073295146 -0.006411314 -0.019631147 0.03881736 0.093670964 -0.000541389
-0.052548707 0.09861691 -0.025965855 -0.017626926 -0.12259422 0.02439621 -0.085329875 0.11869267
-0.053650662 -0.04004091 0.0058478117 -0.093696356 0.05128944 -0.06586328 0.09315303 -0.106794044
-0.098632425 0.031412244 0.07904594 -0.02851148 -0.09627594 -0.02024047 -0.038346693 0.08474541
00000000: 00a6 2abd cab5 fbbd 886a 8c3d 2284 dd3d
00000010: f409 5abd e020 9c3b 8894 cabd d888 62bd
00000020: 50b8 1b3d 76bb f63d 2e47 a1bd aae1 873d
00000030: d807 3f3d 20dd 51bd 7e8f e8bd 8000 9f3a
00000040: d2a4 e73d 00af a93d 904e 113d 10ee 0f3d
00000050: ea80 a5bd 7034 1ebd a086 b33c c0ac 97bd
00000060: 4822 e9bd bab2 d2bd ccd2 6f3d 5ad6 b6bd
00000070: fcc3 f8bd f8ff 363d c0b7 52bd b092 9b3d
00000080: 60cc 41bc c0b6 eebd 540c e73d 128a 95bd
00000090: 3e4c f23d 3812 ec3d ccd0 b5bd 18e2 ffbc
000000a0: 66b7 bf3d 3cf4 28bd e86f 97bc 38ce e13d
000000b0: cc4e 1d3d b439 b63d c814 e93c ac5f 59bd
000000c0: 44b4 093d 80ef 4e3d 90df 653c 307d ad3c
000000d0: 2ef1 bf3d 687c 783d 7050 a0bd 5a04 aabd
000000e0: e0a1 3ebd f4f1 27bd 1654 a03d 68c1 fc3c
000000f0: c087 dc3c 2046 b23c e08c 7fbc f017 e33d
00000100: 3aa6 9fbd ec65 59bd 4caa 22bd 6ac4 ddbd
00000110: f832 a6bd c419 d63d d49c 913d 1890 d13d
00000120: 3c0a ddbd 1cf1 87bd e253 89bd a62c b3bd
00000130: e65e e93d 9010 3c3c 5091 60bc 7600 abbd
00000140: da80 bbbd b828 853c fab1 a13d 16d0 863d
00000150: 6a4d c9bd 667d f7bd 5093 3d3d c620 ecbd
00000160: e03e 84bc 9670 ecbd 1c30 2dbd 404b 2fbd
00000170: dabf d4bd 8c65 663d 345a 7fbd 3a76 c83d
00000180: c09e 253c 5825 6bbd 008c 68bb 769b bdbd
00000190: 3030 19bd a8fa 583d c044 f3bb a0be e9bb
000001a0: 88fb 84bc ac01 163d dc56 f83d 50b6 6dbd
000001b0: b4f5 423d 902d 943d 688b fbbc 86e9 b23d
000001c0: 6075 1f3d f403 87bd 584b 77bd c018 13bc
000001d0: baa5 88bd bcec 4a3d 6cf3 913d 54b5 6d3d
000001e0: 12b0 ae3d 2051 1abd d8d2 ea3c ace6 7dbd
000001f0: 3012 6b3d 7818 de3d 840a c03d fc6c c5bd
00000200: a0e9 dbbc 5809 cd3c 3c0d ef3d d01b cfbd
00000210: a69b bd3d ccb2 093d 0034 bfbd 508d 613d
00000220: 0071 373c 4211 fb3d 86e7 e7bd 808f 1d3c
00000230: a410 e9bd 9058 70bc a024 333d 8ca9 f03d
00000240: ec2b 513d 12dd a1bd a811 86bd e06f 9abc
00000250: 406d 763d 1c92 db3d d497 773d a01a ae3b
00000260: c031 293c c087 353b a8ab 27bd 0088 92bd
00000270: 68bb 023d 102d 643c 1c2d 903d d668 f2bd
00000280: 06ac ff3d 603f 833c 0054 e739 401a 56bd
00000290: ec35 fb3d 5c98 dfbd 78cd 9c3d 7e18 8abd
000002a0: e850 863c 80b8 4cbd 44d1 2b3d 9441 f9bd
000002b0: 302b d63d 4a3f c4bd a27c c53d 10b8 623d
000002c0: 1c1a aa3d 58a2 76bd 84f0 753d 7cf2 e53d
000002d0: a8f3 8b3c e0b3 cebd a60f fcbd 00bd e3bb
000002e0: 68de 103d ceff 9b3d 7011 58bd 00b0 28bb
000002f0: 5048 fbbd 703c 0bbc 026e d33d ce06 e4bd
00000300: b682 f8bd 9c6e 4bbd 409e e53b fe80 b0bd
00000310: 7672 bb3d 1cff e8bd 44ef 39bd d2b0 d8bd
00000320: c82e 98bd 1094 6fbd 489f 693d c02c 383d
00000330: 9082 d83c 6451 02bd 3831 1cbd f46e 263d
00000340: 9285 b1bd 98cf 5a3d c0c7 35bb f6a5 8ebd
00000350: 40d0 0e3d 0032 2f3b 0e4b 883d 809b 92bb
00000360: 543b c3bd 383b ccbd 4e34 f0bd c003 debc
00000370: f6ed cc3d e0cb 22bc 4492 7c3d ec07 acbd
00000380: 74bb 70bd 4870 483d c41b 963d 0016 d2bb
00000390: 80d1 a0bc f4fe 1e3d 90d6 bf3d 00ec 0dba
000003a0: 503d 57bd aaf7 c93d 58b6 d4bc 5866 90bc
000003b0: ae12 fbbd 90da c73c 6ec1 aebd 2415 f33d
000003c0: ccc0 5bbd f001 24bd 009f bf3b e0e3 bfbd
000003d0: e014 523d 54e3 86bd 04c7 be3d d6b6 dabd
000003e0: ccff c9bd 20aa 003d d6e2 a13d e890 e9bc
000003f0: 522c c5bd 58cf a5bc 6c11 1dbd 008f ad3d

convs.1.convs.<subject___has_region___region>.lin_l.bias f4 [64]
0.108359635 0.055390745 -0.055269673 -0.0909456 0.06673795 0.01830709 -0.032799795 -0.011788607
-0.031724572 0.100806326 0.05065815 -0.12400557 -0.06456067 0.04144579 0.048487723 -0.10900977
0.12212041 0.019248426 0.038307622 0.044769123 0.061165392 0.027951658 0.028405786 0.09919232
0.022523075 0.109169275 0.022066385 0.08905788 0.014556393 -0.116719574 0.10609704 -0.042721733
-0.09520839 -0.0007647872 0.066190824 0.11544107 0.04591754 0.11908297 0.0148637295 -0.018027306
-0.09419091 -0.06352617 -0.066254914 -0.013970375 0.06634919 -0.034647584 0.0803258 -0.12257691
0.042047366 0.037234113 0.08479835 -0.021857858 0.03745939 0.032282427 0.086276695 -0.10363302
-0.08178212 0.022937879 -0.04760769 0.094717205 -0.03349939 -0.09726624 0.09277184 -0.10870206
00000000: a8eb dd3d 68e1 623d 7462 62bd b041 babd
00000010: e8ad 883d c0f8 953c 1459 06bd 0025 41bc
00000020: a0f1 01bd 8c73 ce3d ec7e 4f3d a2f6 fdbd
00000030: 6238 84bd 10c3 293d 109b 463d 8440 dfbd
00000040: 441a fa3d e0ae 9d3c 74e8 1c3d d45f 373d
00000050: 9088 7a3d e0fa e43c 40b3 e83c 5825 cb3d
00000060: 5082 b83c 2494 df3d 90c4 b43c fa63 b63d
00000070: f07d 6e3c ac0a efbd 6849 d93d fcfc 2ebd
00000080: 9efc c2bd 007c 48ba 0e8f 873d 5e6c ec3d
00000090: 0814 3c3d c6e1 f33d 0087 733c 00ae 93bc
000000a0: 2ae7 c0bd 021a 82bd a8b0 87bd 00e4 64bc
000000b0: 16e2 873d a0ea 0dbd da81 a43d 9a09 fbbd
000000c0: dc39 2c3d cc82 183d c2aa ad3d 400f b3bc
000000d0: 046f 193d 943a 043d d6b1 b03d 8c3d d4bd
000000e0: 627d a7bd 38e8 bb3c 4800 43bd 18fb c13d
000000f0: a836 09bd 8633 c7bd 2aff bd3d 309f debd

convs.1.convs.<subject___has_region___region>.lin_r.weight f4 [64, 64]
-0.11166796 -0.115520254 -0.054414257 -0.018185213 -0.012688607 -0.10544628 0.05937782 -0.09050098
-0.030966088 -0.036163077 0.047152743 0.09050165 0.080517665 -0.0060349107 -0.087631464 -0.11493403
0.12121269 0.05317323 -0.0020009428 -0.07771662 0.019699872 -0.021121442 -0.059375882 -0.040637463
0.05082117 -0.03366998 0.1064181 0.03859955 -0.10360879 -0.042251498 0.0006953627 0.036414847
-0.04007876 0.09817241 -0.015158504 0.12081881 0.09695996 0.11041093 -0.06419304 -0.107806206
0.03217855 0.01809673 0.07068661 -0.004481986 0.020660803 0.002151087 -0.119699985 0.048676014
0.02269058 0.06377214 -0.057393417 -0.09895535 -0.10834549 -0.014026314 -0.04796529 0.0064140856
0.07936959 -0.08494863 0.092948645 0.11076188 0.07357462 -0.08774443 0.03228657 -0.0006733537
-0.12392877 -0.103862315 0.017306298 -0.0058983415 0.108978495 0.101476476 -0.076610446 0.0712565
-0.073018745 -0.07738432 -0.008448601 -0.08530986 -0.049996093 -0.05058326 -0.046341613 0.0074867755
-0.028176144 -0.008762434 0.051670343 -0.103787795 -0.10658252 -0.002875179 0.03284669 0.082057625
-0.022357121 0.113841414 -0.006213516 0.001809299 0.107204944 0.07850474 -0.021768436 -0.097627446
-0.080672175 -0.096461535 -0.048805878 0.06508915 -0.047770247 -0.041984633 0.07209687 -0.115395725
-0.009486631 -0.0023932457 0.019826785 0.10159634 -0.05924371 -0.053089887 0.05558057 0.05649759
0.015377581 0.1175248 0.09416175 -0.09241553 -0.009369686 0.1057505 0.10596126 0.024353564
0.05315979 0.0119277835 0.082068905 0.05988185 0.036238164 0.055710882 -0.048025295 -0.05907899
0.0192561 0.007235542 0.08586964 -0.022332475 0.04272695 -0.02354014 0.07584207 -0.078800395
-0.10320407 -0.10554503 0.05427748 -0.050071552 0.020291895 0.09027998 -0.08689202 0.015861481
0.07154247 0.108645156 -0.05213818 -0.104439914 -0.060269117 -0.11770661 0.036394402 0.008247077
0.011777759 -0.09842737 -0.0053318143 -0.07855585 -0.10411149 -0.08160286 0.023832604 -0.041695103
-0.07576437 -0.08247656 -0.03099282 0.0366579 0.11093059 0.0060369074 0.09503274 0.09619814
-0.018128455 0.097332746 -0.082371384 0.027747065 0.07216655 0.04115446 0.03732574 0.046729997
0.033804685 -0.1008755 0.030879706 0.09319432 0.037670434 0.11276415 -0.113232076 0.09083521
-0.07237223 -0.058109224 -0.075642765 0.06488025 -0.024406731 0.06433533 0.0060637593 0.047215313
0.1065827 -0.08358811 -0.11023809 0.09682076 -0.058950335 -0.09428756 0.052639827 -0.0188099
0.041829854 0.02954115 0.034960136 0.0062308013 0.12160388 0.112709746 -0.07820608 -0.05634217
0.08754109 -0.11863099 -0.07366766 -0.020430207 0.044986755 0.099371895 -0.05520706 0.09282072
0.0023751706 -0.057732582 -0.09430668 -0.08917229 0.12199552 -0.03271234 0.09464678 -0.008319691
0.0103349835 -0.018279433 -0.10820866 -0.06205146 -0.11070074 -0.11943279 0.006277308 -0.11312303
-0.064759314 0.032865673 -0.007487938 0.1213211 0.09780608 -0.0091793835 0.07140446 -0.04143606
-0.06494333 -0.008456007 0.022990376 0.05208184 0.05357048 -0.11085735 0.030407205 -0.067535326
-0.038856164 0.050160363 0.01092352 -0.038999274 -0.044575766 0.049526602 -0.044635594 -0.051976845
00000000: 2cb2 e4bd e295 ecbd 7ce1 5ebd 28f9 94bc
00000010: e0e3 4fbc 38f4 d7bd 2836 733d 9458 b9bd
00000020: 98ac fdbc bc1f 14bd 3c23 413d ee58 b93d
00000030: 72e6 a43d 80c0 c5bb 2078 b3bd 8862 ebbd
00000040: 5c3e f83d 2ccc 593d 4022 03bb e429 9fbd
00000050: a061 a13c e006 adbc 2034 73bd 7873 26bd
00000060: dc29 503d 88e9 09bd bcf1 d93d 901a 1e3d
00000070: d830 d4bd e80f 2dbd 0049 363a bc27 153d
00000080: a029 24bd 9e0e c93d 605b 78bc da6f f73d
00000090: f292 c63d 201f e23d a477 83bd 80c9 dcbd
000000a0: a8cd 033d 983f 943c 24c4 903d a0dd 92bb
000000b0: d840 a93c 40f9 0c3b 4425 f5bd 8060 473d
000000c0: 98e1 b93c f89a 823d 5c15 6bbd 1aa9 cabd
000000d0: 3ee4 ddbd a0ce 65bc 4077 44bd 402d d23b
000000e0: 868c a23d 8cf9 adbd dc5b be3d 20d7 e23d
000000f0: 4aae 963d 5ab3 b3bd ec3e 043d 0084 30ba
00000100: 5ece fdbd c4b5 d4bd f0c5 8d3c e046 c1bb
00000110: 1e30 df3d e6d2 cf3d f0e5 9cbd eeee 913d
00000120: da8a 95bd ac7b 9ebd 006c 0abc f0b6 aebd
00000130: b4c8 4cbd 6430 4fbd b4d0 3dbd a053 f53b
00000140: a8d1 e6bc 5090 0fbc 48a4 533d b28e d4bd
00000150: f047 dabd 806d 3cbb 408a 063d d40d a83d
00000160: 4826 b7bc b025 e93d c09a cbbb 0026 ed3a
00000170: 448e db3d 18c7 a03d b853 b2bc e6f0 c7bd
00000180: 7437 a5bd a08d c5bd ace8 47bd 764d 853d
00000190: bcaa 43bd 14f8 2bbd 86a7 933d 9854 ecbd
000001a0: d06d 1bbc 00d8 1cbb c86b a23c be11 d03d
000001b0: 88a9 72bd c874 59bd 74a8 633d 046a 673d
000001c0: 40f2 7b3c d8b0 f03d e0d7 c03d 5a44 bdbd
000001d0: 5083 19bc b893 d83d 3802 d93d 2081 c73c
000001e0: 14be 593d c06c 433c be13 a83d ac46 753d
000001f0: 786e 143d 1831 643d 2cb6 44bd d0fc 71bd
00000200: f8be 9d3c 2018 ed3b 6cdc af3d 98f2 b6bc
00000210: 7402 2f3d 40d7 c0bc 1653 9b3d 1a62 a1bd
00000220: a85c d3bd fe27 d8bd 1052 5e3d d417 4dbd
00000230: 303b a63c b6e4 b83d 72f4 b1bd f0ef 813c
00000240: dc84 923d 5a81 de3d d88e 55bd 98e4 d5bd
00000250: c0dc 76bd 2a10 f1bd 4c12 153d c01e 073c
00000260: 80f7 403c 4a94 c9bd 80b6 aebb e4e1 a0bd
00000270: 6838 d5bd 661f a7bd 983c c33c 7cc8 2abd
00000280: 5a2a 9bbd 78e9 a8bd a8e4 fdbc 9826 163d
00000290: 942f e33d 40d1 c53b 86a0 c23d 8803 c53d
000002a0: 2082 94bc 6456 c73d 54b2 a8bd d04d e33c
000002b0: 0ecc 933d 9491 283d e0e2 183d f467 3f3d
000002c0: c876 0a3d d097 cebd 70f7 fc3c aadc be3d
000002d0: 504c 1a3d e4f0 e63d 38e6 e7bd d007 ba3d
000002e0: e437 94bd f003 6ebd 98ea 9abd f0df 843d
000002f0: a0f0 c7bc 3ec2 833d 80b2 c63b d864 413d
00000300: 0848 da3d 3e30 abbd 82c4 e1bd f649 c63d
00000310: e875 71bd d619 c1bd dc9c 573d 3817 9abc
00000320: c855 2b3d 4800 f23c 5c32 0f3d c02b cc3b
00000330: 740b f93d 5ed4 e63d 822a a0bd 0cc7 66bd
00000340: be48 b33d cef4 f2bd 12df 96bd 405d a7bc
00000350: 0844 383d 7e83 cb3d cc20 62bd ca18 be3d
00000360: c0a8 1b3b 0079 6cbd dc23 c1bd f69f b6bd
00000370: cad8 f93d 60fd 05bd 2cd6 c13d 504f 08bc
00000380: 1054 293c c0be 95bc 809c ddbd ac29 7ebd
00000390: 12b7 e2bd 2e99 f4bd e0b1 cd3b 0cad e7bd
000003a0: 88a0 84bd 289e 063d 605d f5bb 3277 f83d
000003b0: 8e4e c83d 2065 16bc 803c 923d dcb8 29bd
000003c0: 0201 85bd 108b 0abc 5056 bc3c c453 553d
000003d0: b86c 5b3d 2e09 e3bd 8818 f93c f64f 8abd
000003e0: a427 1fbd f474 4d3d 90f8 323c b4bd 1fbd
000003f0: 1495 36bd 68dc 4a3d d0d3 36bd ace5 54bd
